models/Q_net64_10_prT.pth (torch, 21007 bytes, 5 tensors)

fc1.weight f4 [64, 6]
00000000: e514 ebbd 8443 78be 3a84 a3bd e812 95bd
00000010: 3893 463d 595d 9ebe 7ed4 dd3c 4cc3 aebe
00000020: 3ac9 a3bd f2bc 133d c4e7 14be 8455 d63d
00000030: f949 50be 4fa8 703b ca49 0ebe 5d40 60be
00000040: 30e9 ac3d d520 77be 4d85 4cbd b69c 64be
00000050: dbce 333e 1e9c a2bb d88d 4f3e e5da a7be
00000060: 4351 b43d 55b8 51be 34ee 3a3e 327d ecbe
00000070: eced 1d3e 862d 96be f03e dd3d b99f 5a3e
00000080: ecac e4bd f0c9 3a3e 54ab 533e 2d95 1ebe
00000090: 79fd ddbe 2515 8fbd 6803 76be e464 6abe
000000a0: cb1b 34be 1dd1 a03e 9697 973e 5e59 b93e
000000b0: 3c61 cbbe 5e42 b63d b65d 84be 8506 66bc
000000c0: 6014 113e 827c 873e e560 a6be 55ea 98be
000000d0: 30f2 763e 8efc 0a3e ca76 a7be 5622 95bd
000000e0: dc37 90be b0a1 9b3b a4b8 cb3e 2850 1abb
000000f0: d804 af3e d805 c7bc 953e b8be c15d 543e
00000100: a21d ab3e 7eee 6a3e c07e be3d 700d a8be
00000110: 689a a8bd a0a1 dd3c 9c08 c53e 2675 03be
00000120: 6fb9 353e 365a 43be 366b da3d 6125 1dbf
00000130: 55b3 81be 2303 853e 733a 46be bdf3 0cbe
00000140: 2572 b53c 004d 11bf b451 0dbe 9703 ffbe
00000150: fa0b 653e 9ebc cbbe faba bfbe 305b d1bd
00000160: c478 933e f34f b23e 2f5e 483c 5fdb 1abe
00000170: f7bc 073e 94d3 92be 0071 b1bc 2ba9 a9bd
00000180: a07e bf3e 6490 a3be a82a a7be 2a67 f3bd
00000190: e8ac a9be dd24 8d3e 2bf0 d0be 8d44 64bd
000001a0: 6243 5e3e 0cb8 88be d017 453d 1ddf 64bd
000001b0: cd2e 083e 22ad 19be 8ef8 133e 27a4 433e
000001c0: 58de d23d 90e1 67be d4af b13e 598f 7d3e
000001d0: 2638 c0ba 3d08 20bd 0095 c7bc a60d bbbc
000001e0: 3285 cbbd c8d8 51be 8c03 213e 8b16 73bc
000001f0: fce5 023e 3f5e c23d c979 18bd a088 b7be
00000200: c44b 563e 1724 f8be 24c5 f1bd 651d 0fbf
00000210: aed2 f3bd 514e 7cbe 0333 5ebe 4943 b1be
00000220: 6228 9bbe 0cc0 50be fa7a 003e 4e47 d2be
00000230: 1beb 0abd 81f0 213e ecee 533e 33b7 383d
00000240: 849b 553e fa74 d43e 479a 1ebe 0188 4c3e
00000250: 408a 543e f169 7cbd 457a ab3d ec5c f93b
00000260: 39a0 e53d c599 b7be 70f1 93be bd7c 1cbf
00000270: 9771 083e 5f22 f8bd 6c28 7c3c 6d1c 06bf
00000280: 54e0 c23e fcd4 883d 369f e93d 561d 87be
00000290: b2a5 aa3e 937b 06bf 7c71 cc3e f975 adbe
000002a0: e6b8 873e 34de 78be a411 263d 51eb 703e
000002b0: c5f1 aebe 99eb d63d 339c 803e df53 7c3d
000002c0: 84e0 5b3e 2a42 84be 20c3 72bd 62be d7bd
000002d0: de68 4e3e 1a6b 9bbc d519 77be d4e2 543d
000002e0: e475 a23e 7772 23be 5752 bfbd 7371 07bf
000002f0: 0807 4c3e 2535 8fbe 14f5 b6bd d6ca 033e
00000300: 90e2 a8bd c6f7 63be b1db adbe a421 843e
00000310: 0d1c b8be cbb0 b43e 1c31 a0be 35fd 853e
00000320: 7969 e53d a763 bbbe 8b5e 4bbe 66e1 e9bd
00000330: 079c 5dbd b143 d5bc e569 c1be 1651 4fbe
00000340: f0ff 99bc 571f 9b3e 35b9 353e f9f1 4bbd
00000350: 73dc 4c3c 32ae 3ebe 6417 813d 1f00 6e3e
00000360: 690f a3bd 9bb4 533e 20f4 63be 9af3 10bd
00000370: 182a 8d3e 6367 10be 2ba4 98be a020 783e
00000380: c0fe 473d 8db9 9cbe 56e2 a23e 864a d73e
00000390: 8eaf 40bd 805c 063f e315 5e3e e9f9 6ebe
000003a0: 7531 26be 1ee8 30bd e850 923e 3978 adbe
000003b0: c53d 1ebe 860d 383e 18b3 223e 6cc1 a8bd
000003c0: e99f 95be 8cec dcbd 00cf cbbe a83d 973d
000003d0: 70e4 433e 38d1 14bd 081f 063e 60c9 22bd
000003e0: b8a9 c5be 68bb eb3d c04d cc3d 38f9 67bd
000003f0: dc94 de3b 220d 643e 8b6e ef3e 7ce7 7b3e
-0.11478595 -0.24244505 -0.079842046 -0.07278997 0.048480242 -0.30930594 0.027078863 -0.34133375
-0.07997365 0.036068864 -0.14541537 0.104655296 -0.20340718 0.0036721413 -0.13895336 -0.21899553
0.084429145 -0.24133618 -0.049931813 -0.22325405 0.17559378 -0.0049624583 0.20268953 -0.3278419
0.08804562 -0.20480473 0.1825493 -0.46189266 0.15422791 -0.29331607 0.1080302 0.21349992
-0.11165795 0.18241096 0.20670825 -0.15486594 -0.43357447 -0.06986455 -0.24024737 -0.22890049
-0.17588727 0.3140954 0.29607838 0.36200994 -0.3972262 0.08899377 -0.25852746 -0.01403964
0.14167929 0.2646218 -0.324958 -0.2986628 0.24115825 0.13572904 -0.32707816 -0.0728194
-0.28167617 0.0047494993 0.39789307 -0.0023546312 0.34183383 -0.024294779 -0.35985246 0.2073889
0.33421046 0.2294254 0.093015194 -0.32822752 -0.08232576 0.027054608 0.3848313 -0.12837657
0.17746519 -0.19077381 0.1066498 -0.6138516 -0.25332132 0.25978956 -0.19358234 -0.13764854
0.022149155 -0.5675812 -0.13800699 -0.49807426 0.2236785 -0.3979234 -0.3744734 -0.10222471
0.28803074 0.3482662 0.012229486 -0.15122746 0.13255678 -0.28677046 -0.021660328 -0.08284219
0.37401295 -0.319461 -0.32649732 -0.11884911 -0.3313973 0.27567187 -0.40808234 -0.055729438
0.21705392 -0.26702917 0.048118412 -0.05587684 0.13299103 -0.15007451 0.14450285 0.19105588
0.10296315 -0.22644639 0.3470446 0.24761714 -0.0014665171 -0.039070357 -0.02436304 -0.022833657
-0.09937514 -0.20492852 0.1572401 -0.014836918 0.12783045 0.09490632 -0.03722552 -0.35846424
0.2092734 -0.48465034 -0.1180518 -0.5590423 -0.11905418 -0.2463925 -0.21699147 -0.34621647
-0.30304247 -0.2038576 0.12546912 -0.41070026 -0.03391562 0.15814401 0.2069661 0.045096587
0.20860106 0.41495496 -0.1548854 0.19973756 0.20755863 -0.06162447 0.083729304 0.007609954
0.11212201 -0.35859504 -0.2889514 -0.61127836 0.13324581 -0.12115931 0.015390497 -0.52387124
0.38061774 0.066812485 0.1140732 -0.2638957 0.3332954 -0.5253231 0.39930332 -0.33879068
0.26508254 -0.24303514 0.040544167 0.23527266 -0.3416883 0.104941554 0.2511917 0.061603423
0.21472365 -0.2583173 -0.059268117 -0.105343595 0.20157191 -0.018971968 -0.24130948 0.051974133
0.31730568 -0.15961634 -0.09341877 -0.52907485 0.19924557 -0.27970234 -0.08933464 0.12870345
-0.08246338 -0.22262487 -0.33956674 0.25806916 -0.359589 0.35291132 -0.31287467 0.26169744
0.11201758 -0.36599466 -0.19860284 -0.114199445 -0.054103877 -0.026033254 -0.37776104 -0.20245776
-0.018798798 0.30297348 0.17746432 -0.04979131 0.012503731 -0.18621138 0.063032895 0.23242234
-0.07961924 0.20674364 -0.22261095 -0.035388567 0.27571177 -0.14101939 -0.2981275 0.24231195
0.048826933 -0.30610314 0.31813306 0.42049044 -0.047042422 0.52484894 0.21688037 -0.2333752
-0.16229804 -0.043190114 0.28577352 -0.33880785 -0.1545325 0.17973909 0.15888631 -0.08240017
-0.29223564 -0.10787305 -0.39806366 0.07384807 0.1913011 -0.03633234 0.13097775 -0.039742827
-0.38606048 0.11510354 0.09975767 -0.056634158 0.0067926478 0.22270635 0.46764025 0.24600023

fc1.bias f4 [64]
00000000: 56b6 20be 457a e33d 9b5c 86be e280 37be
00000010: 95ce c0be e836 b03e 6a3d e93e c120 62be
00000020: 7616 353e bdce b53e fe7e 64be 2e72 88be
00000030: b123 87be 4b4c 3cbe a859 633d a110 753e
00000040: 6f67 d43d d559 dcbe 0edc 00be b5d7 9ebd
00000050: 32d0 07be cba8 cb3d 58d0 a93e 282d 363e
00000060: 2cc2 7bbe 0474 a6be ad64 c23b 898b b83e
00000070: e022 d53e e8e5 403e 8c93 be3e 0eb8 babe
00000080: 96f9 bd3e 5b7c 4d3d b97e 293d a00e f6be
00000090: f792 123e 38c9 e43e 4df4 b3bd 02b2 80be
000000a0: b384 9ebe 2898 81be c0fd 8dbe 4c80 1f3e
000000b0: 4411 f8be e1d8 863d c8c5 013f 3a1a abbe
000000c0: 1d05 63be 3f76 563e cf53 94be 0205 a43e
000000d0: f7e5 aabd e8af c93e 20a7 fa3d d730 03be
000000e0: ee11 cbbe fab1 60bb d46f 8abe 0a1a 2d3e
000000f0: f328 b83e 714e abbd a006 90be b7d5 b7be
-0.15694556 0.111073054 -0.26242527 -0.17920259 -0.3765761 0.3441689 0.45554668 -0.22082807
0.1768435 0.3550929 -0.22314069 -0.26649612 -0.26394418 -0.18388478 0.055505425 0.23932125
0.10371291 -0.43037286 -0.12583944 -0.077559866 -0.13263014 0.09944304 0.33166766 0.17790663
-0.2458579 -0.32510388 0.0059324116 0.36043957 0.4162817 0.18837702 0.37221944 -0.36468548
0.3710448 0.050167423 0.041380618 -0.48058033 0.14313875 0.44684768 -0.08786831 -0.2513581
-0.30960616 -0.25311399 -0.27732658 0.15576285 -0.48450673 0.06584335 0.50692415 -0.33418447
-0.2216992 0.20943545 -0.2897019 0.3203507 -0.083446436 0.39392018 0.12238908 -0.128116
-0.39662117 -0.003428577 -0.27038443 0.16904464 0.35968742 -0.08364571 -0.28130054 -0.3590524

fc2.weight f4 [64, 64]
00000000: f7e6 6fbd af4b 903d a73b f0bd 34f1 82bd
00000010: 001f 8a3d 32a2 bb3d 5cc9 65bd f35b 09be
00000020: 93df 16bd 1dcd 94bd c713 d23d 6052 953d
00000030: b9a5 d5bd 14c5 153d 2cdb c5bc 7791 bb3d
00000040: 2d82 5abd 2628 5dbd 1e26 843b f264 6dbd
00000050: 540d 0abe 8704 83bd 53c3 c2bc 7155 69bd
00000060: a2c8 15bd bb37 3dbd 7e31 013d fe31 e6bd
00000070: 408e b13d 8692 a13d 9884 d3bd fc52 b3bd
00000080: 1ce4 5f3d 4874 4abc 376b 8bbc de29 df3d
00000090: fd56 44bd 3bf0 98bd 0b00 523d d652 523d
000000a0: 105b 343d cc47 72bd 0297 02be 5c16 a7bd
000000b0: 4718 77bd 73aa f1bd 2dfe 1b3d 2475 3c3a
000000c0: 7796 143d c5e6 e5bc 68f4 853c 1cbf 943d
000000d0: f772 2dbd 968d e93d 768d a6bd 4451 b73d
000000e0: 677d b3bd dff0 5dbb ce13 88bd 74cd df3b
000000f0: f813 1f3d 9593 adbd b459 14bd d332 bcbd
00000100: 6ec6 09be 44cf 113d dab4 a0bd b748 d53c
00000110: c329 25bd 64d9 553e b507 b93d ef01 abbd
00000120: 5b3e 0dbd 7ce7 133e e331 1cbe a655 e6bd
00000130: 0f64 09be 94b6 cd3b 310b d13d c26c 773d
00000140: 8427 2dbd d1e9 c8bd 257e 92bd 82d6 21bd
00000150: 6cf3 4dbd 0b2d 2fbd a878 b03b 8b75 3abe
00000160: 73ae b9bd 42be f8bd 90ef d4bd ef8a b83d
00000170: 08e7 c53d 6dd2 c83d 04f7 0a3e 9043 6fbe
00000180: 5703 d03b 0a36 46bd 33f4 a0bd 307d 2b3d
00000190: 3258 67ba a6c0 5c3c 8b09 96be 81db cd3d
000001a0: e0f9 573c 283d 033d 05f5 14be eaf9 11bd
000001b0: bdb8 ff3c 8529 9fbd 6ba7 933d 3b1b 95bc
000001c0: ae33 30be 12e5 343e 188f 7b3d 432b 863d
000001d0: 4487 f4bd 5397 cebd 4484 acbb dc0e 73bb
000001e0: 940c 25bc c1dd 97bd 059c 12be 9ae0 3c3e
000001f0: e39e f4bc b89c 293d d1b0 04bc 491a a2be
00000200: 673b 153d a720 c9bd 92bf 9b3c dbeb bdbd
00000210: e896 c4bd 2660 5bbd 81c9 6abd 5c92 e83d
00000220: e9dc f4bd d5bd 1fbd a198 debd 3433 c03d
00000230: cecd c8bd 49c4 f4bd 58fa 983c e076 f23c
00000240: f56d 213d e750 ca3d a48c ecbd 1425 a0bd
00000250: b868 aa3c bdf0 0abd 83b4 25bd 6949 a5bd
00000260: e025 b7bd 1f56 e9bc 0dbb a33d 052d c2bd
00000270: 0247 883d b13c 7f3d 084a fb3d 7ab1 573d
00000280: e3c3 963c 2067 cfbd 3cee 533d 2fe1 193d
00000290: 134e c5ba b85c 813d 98ba e1bd de30 b43d
000002a0: 5052 68bd 0c86 90bd 7afb e3bc e785 11bb
000002b0: 6b3f 03bd 570d 9ebd 02d1 aebd 5307 133c
000002c0: 7c4a c9bd 53f1 21bd c82e 983c 570c 25bd
000002d0: e230 e7bd 468d f13d d11a 023c fa08 b5bd
000002e0: 159f cabd 9ee5 68bd 1fad c4bd 8268 3f3d
000002f0: 80f1 063e 8079 c73b 575b b6bd 66c9 02be
00000300: a761 b1bc cc97 89bd 5e77 863d 23d2 133e
00000310: 4250 693e cba0 0e3e 185e 303e d6ae c6bd
00000320: d44f 423e abed 00be 2f2d 7d3d f054 743d
00000330: 5c0e ec3d e038 04bd bed9 d0bd d52d c83d
00000340: 5bc8 eebd f356 5f3e a0be b23d dd71 4c3e
00000350: 254f 133d b1df 2a3e 2829 cdbd cdf2 92bd
00000360: 0f97 443c c750 73bc 1e06 d43d f573 013d
00000370: 56f9 53bd b2ef 8b3e 5625 873c 1287 b3bd
00000380: b2b5 0d3d 2bba 60be 1c82 98bd 54f0 a2bc
00000390: cbaa 2dbe 749d 6b3e f689 41be e6af 64bd
000003a0: 6c59 183d 5e12 f4bd 9fc3 1e3e a5b5 563e
000003b0: 39f1 7fbd f84c 28be b325 943e 0250 c8bd
000003c0: 416e c73d 10e3 423e 4fd1 7d3e 6aff d5bd
000003d0: 2e91 0c3c 30c0 5f3e 8be5 f6bc d62d 673e
000003e0: d21d 843e 38b1 1ebc 77ee e63d dee9 79bd
000003f0: 2523 fc3d 54cc a03d 4bf7 4e3d af2b 9dbe
-0.058569875 0.070456855 -0.11730128 -0.06393662 0.06744194 0.09161796 -0.056100234 -0.13413982
-0.03683431 -0.07265685 0.102576785 0.072911024 -0.10432 0.0365649 -0.02415236 0.091586046
-0.0533468 -0.053993367 0.0040328642 -0.057957597 -0.13481647 -0.06397348 -0.023774778 -0.05696625
-0.03656829 -0.046195727 0.03154134 -0.11240004 0.0866971 0.07889275 -0.103280246 -0.087560624
0.0546609 -0.012356825 -0.017018897 0.108966574 -0.04793452 -0.07467695 0.051269572 0.05134853
0.044032156 -0.059150502 -0.12752917 -0.081585616 -0.060325887 -0.11800089 0.038084198 0.0007189086
0.036276307 -0.028064141 0.016351894 0.07263014 -0.042345967 0.114039585 -0.0813245 0.08951047
-0.08764153 -0.0033865494 -0.066444024 0.006829912 0.038837403 -0.08475415 -0.03621836 -0.091893815
-0.13454601 0.035598055 -0.07846995 0.02603565 -0.04032303 0.20883709 0.09034673 -0.08349978
-0.034483295 0.14443773 -0.15253405 -0.11246805 -0.13417076 0.0062778685 0.10207213 0.060406454
-0.042274013 -0.09810222 -0.071529664 -0.03951121 -0.050280973 -0.042767566 0.005385477 -0.18208902
-0.09066477 -0.12145664 -0.103972554 0.090108745 0.09663206 0.098057605 0.13570791 -0.23365617
0.0063480544 -0.04839138 -0.07859077 0.041867435 -0.0008825093 0.013473665 -0.29304156 0.10051633
0.013182133 0.032040745 -0.14546593 -0.035638727 0.03121602 -0.07771591 0.07209667 -0.018201461
-0.17207214 0.17665508 0.06141576 0.0655122 -0.11939862 -0.100874566 -0.0052647907 -0.0037087714
-0.0100738 -0.07415343 -0.14317329 0.18445054 -0.02986092 0.041409224 -0.008098797 -0.3166068
0.036433604 -0.09820681 0.019012246 -0.092735015 -0.095990956 -0.05355849 -0.057321075 0.11356041
-0.11956198 -0.038999397 -0.108689554 0.09384766 -0.09804879 -0.11951501 0.01867406 0.0295977
0.039411504 0.09878712 -0.115502626 -0.07819572 0.020801887 -0.033920992 -0.040455353 -0.080706425
-0.08942771 -0.028483449 0.079946615 -0.09481243 0.06654169 0.06231374 0.1226998 0.05265949
0.018403953 -0.101270914 0.05174087 0.037568267 -0.0015053175 0.06316513 -0.11021918 0.08798383
-0.056719124 -0.070568174 -0.027829874 -0.0022205056 -0.032042902 -0.07717388 -0.08535959 0.008973914
-0.0982866 -0.039536785 0.018576995 -0.04029497 -0.112886205 0.11794524 0.007940964 -0.08839603
-0.09893624 -0.056859605 -0.09603333 0.046730526 0.13178062 0.006087482 -0.089041404 -0.1277214
-0.02165301 -0.06718406 0.06565736 0.1443563 0.22784522 0.13928525 0.17223394 -0.09701316
0.18975765 -0.12590663 0.06181067 0.059651315 0.11526176 -0.032280803 -0.10197781 0.09774367
-0.116593085 0.21810512 0.08727765 0.1996531 0.03596415 0.16686894 -0.100176156 -0.07175217
0.011998906 -0.014850802 0.10352729 0.031604726 -0.051751457 0.2733131 0.016497295 -0.08765997
0.034597106 -0.21946017 -0.074466914 -0.019889988 -0.16959684 0.23009282 -0.18900284 -0.055831812
0.037194654 -0.11917566 0.15504311 0.2096773 -0.062485907 -0.16435611 0.28935012 -0.09780885
0.09737826 0.1903193 0.24786876 -0.10449107 0.008579535 0.21850657 -0.030138751 0.22576079
0.25804 -0.009685807 0.11275952 -0.06101405 0.12311391 0.078514725 0.050528806 -0.3069739

fc2.bias f4 [64]
00000000: 530c 17bd 8ffa 1ebe 1481 62bd e067 da3d
00000010: 4cf3 41bc e586 e73c 57be 093c fd0b 333d
00000020: b94c 5a3a 9da3 56bc 289e cd3d 3182 343d
00000030: 11e8 043e e16e d8bd a121 cfbd 8da4 8a3d
00000040: c742 25bc a8c9 8ebc a519 da3d 6b88 86bd
00000050: d6b1 0b3d edfe 9c3d a4e3 b9bd d669 0e3e
00000060: 0aa5 043e 33db 203e a364 21bd 7348 533d
00000070: 3e74 df3d f04b fd3d 849e a43d b20b 4c3d
00000080: 2e96 bbbd dcb5 0a3d 2227 0e3d b435 a6bd
00000090: 92ac fdbc d408 073e fc0c b9bd 9e8d 52bc
000000a0: fd99 533d 022a 9d3d f5c6 02bd eff9 503d
000000b0: 6be4 0abe aeb1 0abd e9fd c13c 0ca4 753d
000000c0: 41d5 e93d 09ff 223e 288e 873d 7946 863d
000000d0: de45 ae3d a9ef 413e 63df 95bc 1d49 00be
000000e0: 9c90 3e3c 35e3 41bd b8f7 abbd fa23 2a3c
000000f0: e697 0e3e 2f19 05be b980 aabc fa2c ccba
-0.036876988 -0.15525268 -0.05529888 0.10664344 -0.011837792 0.028262565 0.008407197 0.043712605
0.00083274726 -0.013100532 0.100399315 0.044069473 0.12979151 -0.105680235 -0.10113836 0.06769667
-0.010086722 -0.017430142 0.106494226 -0.065689884 0.034105144 0.07665811 -0.09076622 0.1390756
0.12953582 0.15708618 -0.039402615 0.051582765 0.10910843 0.123679996 0.08038047 0.04981584
-0.09159504 0.03386484 0.03470529 -0.08115712 -0.030966077 0.13186961 -0.0903568 -0.012851147
0.051660527 0.07674028 -0.03192802 0.051019605 -0.13563697 -0.033860855 0.023680644 0.0599709
0.11417628 0.159176 0.06618911 0.0655641 0.0850942 0.1893908 -0.018294996 -0.1252789
0.011631157 -0.047335822 -0.08396858 0.010384554 0.13925132 -0.12997888 -0.020813333 -0.0015577369

fc3.weight f4 [1, 64]
00000000: 4631 c6bc 3240 933b d40c 8abd e6b2 1c3e
00000010: d639 0a3e db4e 5fbd bad7 98bb 9802 b53c
00000020: 879e f93c 81a4 423d 3da8 de3d 326d 63be
00000030: a9e6 18be a087 f83d 10be f4bd 6992 333d
00000040: cb1e f13b 3d5b 6a3d 57a0 463d 995e ef3b
00000050: a877 4dbd cc84 22be 2f63 aebd e4cc 30be
00000060: a512 4d3e 907c 36be 39c9 553c 7c78 69be
00000070: b5c6 e03d 6e3b 273e c98c ff3d 362d 8d3d
00000080: 435d 93bc 023f 8abd 6669 333e 54aa 533d
00000090: 3c78 debb bce5 1d3d 0c82 bf3d fbae 1abd
000000a0: 4be8 0ebc 6bb1 60be 1be0 053e 7609 603c
000000b0: bea3 443c ca04 ddbc 06a3 1f3e 97d3 c13c
000000c0: 6647 403e 42df 5f3e 2f9e 693d 01ad ca3c
000000d0: 6380 583e 54e8 e1bd 5cda 0c3c 1d65 a4bb
000000e0: e989 33be db9c 813c bb9d 663d 8e9c aa3d
000000f0: a61b 52be edda 8cbc f8a8 bf3d b4c0 36bd
-0.024193417 0.0044937367 -0.06740728 0.1530262 0.13498625 -0.05451856 -0.0046643885 0.022095963
0.0304711 0.047520164 0.10871933 -0.22209623 -0.1493174 0.121352434 -0.11950314 0.0438408
0.007358407 0.057215918 0.048492756 0.007304978 -0.05016294 -0.1587097 -0.085150115 -0.1726566
0.20026644 -0.17820954 0.0130484635 -0.22799867 0.109754 0.16331264 0.124780245 0.06893389
-0.017988807 -0.06750299 0.17520675 0.05167611 -0.0067892354 0.03854917 0.09350976 -0.03776453
-0.008722375 -0.2194268 0.1307377 0.013674131 0.01200193 -0.026979823 0.15589532 0.023660464
0.18777236 0.2186251 0.05703562 0.024740698 0.21142726 -0.11030641 0.008596983 -0.0050169365
-0.17533077 0.015821865 0.056302767 0.08330642 -0.2051836 -0.017194236 0.093584 -0.04461737
