models/Q_net64_5_prF_2.pth (torch, 21015 bytes, 5 tensors)

fc1.weight f4 [64, 6]
00000000: 0d3e 47be b878 1abe 016a 1b3e 3700 853e
00000010: a6b6 5f3e ac64 89be f017 b63e 08af 9e3e
00000020: 44df 08be 40f6 993e ae61 1ebe b1fe 74be
00000030: 8723 a13e e82e 603e 802a fa3d c064 4ebc
00000040: 7fae da3d bf37 a73d f6e5 173e 101a 3d3e
00000050: 0712 633e b761 3dbe 35ae 223e 46bb 2cbe
00000060: ea24 62be 20d3 483c e79c c4be 00da cb3b
00000070: 62db 07bd 9e66 5b3c 92da b5be 88a6 b1be
00000080: 5cdc c6be 085c 7a3d 1f50 a1be e344 163e
00000090: 8901 ca3e 9d56 5abe b239 2bbd 6c50 453e
000000a0: 37fb 6bbe 7d49 c13e 3c03 eabd 77c3 4cbe
000000b0: cb5e a83e dbe8 8ebd bd3d 9d3d e206 8ebd
000000c0: 7b8d 963e a006 b2bd 9aa5 13be a0d8 ffbc
000000d0: 0dcf 593e b672 7f3e e3ec 813e 2c5b 5a3e
000000e0: e7ca 81be 5a82 cb3e c816 82be 0b70 0ebe
000000f0: ed75 31be 9087 493d 3d4a ae3e 2139 cd3d
00000100: 20a5 833e 9cba b7bb cbc6 eabe 5028 153e
00000110: 2bab 8ebe 5414 583c acfb 30be 1767 7dbd
00000120: 6afe c63e 16d5 0abe 2804 053d db23 47be
00000130: 9a41 c3be 4e81 6cbe bae6 1abe baf4 803e
00000140: 9fdf 73bd 8c6e 1b3e d1ed 963d f8b4 093e
00000150: 9d6a 5ebe 480d 3f3e e93d 6abc a6f1 33be
00000160: 3a19 923d 3e8a 62be d236 923e 3c05 c1bd
00000170: 0694 563e 3044 753e 53d9 543e 5c94 b13e
00000180: 0ad7 af3e cae2 af3e 7caf 2a3e a185 09be
00000190: dd49 943e 3dbd 7b3d 6a36 bc3e 409a 813c
000001a0: fc2e 193e 0b46 a3be 7db5 443e 9c23 2ebe
000001b0: 5f78 3bbc 7f04 80be 84a9 c8bc cd6a 8b3e
000001c0: 344b b1be 7aaf 14be b2f1 123e 1012 553e
000001d0: e222 a43d 9151 37be a671 7c3e 8eda 3abe
000001e0: 7c03 b4bd 0026 c93b 6f30 c53e f4cf 8abe
000001f0: 9f9e 74be faf5 893c bfa4 7d3d 96a7 c93e
00000200: 1589 b6be 725a 8fbe cb5c c93e 34db 363e
00000210: 553d d2be a850 983e cf46 ba3e 4c77 39be
00000220: fdf2 34bd cf66 cf3a 2424 773e 1cc4 bd3e
00000230: 8ac6 a7be c44a b0be 8274 c3be 88b9 a1bc
00000240: ec39 98bd d22a 8a3e 8a5f 8f3e 6446 893c
00000250: 71d1 913e aadf 9b3e 9c22 a63d f052 d33c
00000260: a210 ba3e 61b0 45be 1d9d a03c b3de 493e
00000270: 4f59 563e e891 fdbd e214 1b3e 6c20 e7bd
00000280: 816a 96be c822 a13e 02e9 813e 1322 65be
00000290: 113e 9dbe 48a7 5abe 52f0 933e 476e 93bb
000002a0: c82e dabe 00a0 623c f863 95be edf3 eb3d
000002b0: 1b3d 41be be1f bdbe 94c4 c2be beb9 973e
000002c0: d17e 433e aaba 683e bf00 703e 3128 72be
000002d0: 9f30 103d 56da a4be 9244 90be 9eee c53e
000002e0: 2733 b2be c5e2 413e a11f 7d3e e0e7 083d
000002f0: 48d6 4abd 0c7d 8b3e 8c9b 683e 9d84 343e
00000300: 7b9e d1bd 1e8a 973e 62a5 d3bd 1cad b0be
00000310: 99ee 8cbe 1300 89be ff96 a23e 795e bdbe
00000320: 1785 6abd 1017 e6bd 9d3c 8f3e aeb5 1bbd
00000330: ec33 81bd 485e 263e 8890 a5be f055 38bd
00000340: 6e95 92be 4a76 bb3e 7419 0e3e e8e7 b13e
00000350: ee24 abbd 2ac4 c83e 4e14 8e3e 02b3 35bd
00000360: b8ff a73e 6803 b13e f71f 84be f8bf b8be
00000370: fd3b a4be 469a a53e d3ca 673e ac5c a03e
00000380: 1cb3 d33d 9e95 5dbe ad7e 393d 9d6a 613e
00000390: 4935 58be e4f5 a93e 317d 323e f180 5ebe
000003a0: a419 b0bc 3285 b8bd a936 90be 49f4 97be
000003b0: 77d4 4dbb df46 d2be f04f 1d3d 668a 963e
000003c0: 128f ff3b 7075 cabd 668f ac3d 9cfa a7bb
000003d0: 04fc 87be 3cca b03e 5089 a43e c8fb 1b3e
000003e0: 05e0 2c3e f1b4 52be 31a5 8f3e 24b0 48be
000003f0: 0292 1ebd 6419 b93e 807e 41bd 7d62 30be
-0.19457264 -0.15085113 0.15177156 0.25976726 0.21847019 -0.2683462 0.35565138 0.30992913
-0.13366419 0.30070686 -0.1546695 -0.23925282 0.31472418 0.21892893 0.122151375 -0.012597263
0.10677814 0.081649296 0.14833817 0.18466973 0.22174846 -0.18494307 0.15886767 -0.16868314
-0.22084394 0.012257367 -0.38400957 0.006221056 -0.033168204 0.013391165 -0.35518318 -0.34697366
-0.38839996 0.061122924 -0.3150644 0.14674716 0.39454296 -0.21322103 -0.04180307 0.1926896
-0.2304505 0.3775138 -0.11426398 -0.19996439 0.3288482 -0.069780074 0.07677791 -0.069349065
0.29404816 -0.0869267 -0.1441864 -0.031231225 0.2127039 0.24946102 0.25376043 0.21323842
-0.25350115 0.39747888 -0.25408006 -0.13909929 -0.17330141 0.049201548 0.34041014 0.10020662
0.25711918 -0.0056069624 -0.45854792 0.14566159 -0.27864966 0.01318844 -0.17283505 -0.061865892
0.38865978 -0.13557848 0.032474667 -0.19447272 -0.38135988 -0.23096201 -0.15127078 0.25186712
-0.059539434 0.15178889 0.07369579 0.1344794 -0.21720357 0.1865741 -0.014296987 -0.1757265
0.07133718 -0.22123048 0.2855745 -0.094248265 0.20954904 0.23951793 0.20786028 0.34683502
0.3434375 0.34352714 0.16668504 -0.13429882 0.28962603 0.06145977 0.36760265 0.015820622
0.1495933 -0.31889376 0.19209857 -0.17005771 -0.011442273 -0.2500343 -0.024494894 0.2722992
-0.34627688 -0.14520064 0.14350012 0.20807672 0.08014466 -0.17902209 0.24652728 -0.18247434
-0.08789727 0.006138563 0.38513514 -0.2711178 -0.23888634 0.016840924 0.061924692 0.3938567
-0.3565146 -0.27998692 0.39328608 0.17857057 -0.41062418 0.29749036 0.36382148 -0.18111914
-0.044177044 0.0015823486 0.2413488 0.37063682 -0.3276866 -0.34432042 -0.38174826 -0.019741789
-0.07432923 0.26985794 0.28002578 0.016757198 0.28480104 0.3044408 0.0811207 0.025796384
0.36340815 -0.19305564 0.019606167 0.1971386 0.20932506 -0.12381345 0.15144685 -0.11285481
-0.2937813 0.31471848 0.25373083 -0.2237628 -0.30711415 -0.21352875 0.28894287 -0.00449923
-0.42613816 0.013832092 -0.29177833 0.115211345 -0.18870966 -0.3693828 -0.38040602 0.29633898
0.19091345 0.22727457 0.23437785 -0.23648144 0.03520262 -0.32197827 -0.28177315 0.38658613
-0.3480465 0.18934162 0.24719097 0.03342426 -0.04952076 0.2724384 0.22715586 0.17628713
-0.10235306 0.29597563 -0.10334279 -0.34507072 -0.27525786 -0.2675787 0.31755826 -0.3698614
-0.05725583 -0.112348676 0.27975932 -0.03801506 -0.063087314 0.16246903 -0.3233683 -0.04500383
-0.2862963 0.36613685 0.13876897 0.34747243 -0.08356653 0.3921216 0.27749866 -0.04436017
0.32812285 0.3457291 -0.25805637 -0.3608396 -0.32077017 0.32344264 0.22635965 0.31320703
0.10336897 -0.21639106 0.045286823 0.22013326 -0.21114077 0.33195412 0.17430569 -0.21728875
-0.021496601 -0.0900978 -0.28166702 -0.29678562 -0.0031407156 -0.41069695 0.038406312 0.29402465
0.0077990377 -0.09885681 0.084257886 -0.0051263105 -0.2655946 0.34529293 0.3213601 0.15232766
0.16882332 -0.20576836 0.2805572 -0.19598442 -0.038713463 0.36152184 -0.04723978 -0.1722507

fc1.bias f4 [64]
00000000: 7942 6c3d 3a7b 8ab9 4265 83be 6472 b83e
00000010: c0de bd3d 7ec1 df3b e22a be3e 7eb3 e9be
00000020: c123 183d a65a 503e 7cf6 1e3e 84f8 61bd
00000030: 3710 043e b092 c5bd 0d6e 673e 360e 153d
00000040: e7b3 9bbe 9375 553e 9470 51be 3325 d9be
00000050: ea50 5d3e d841 f63d 94b3 9d3e 14f3 e03c
00000060: ee6c 79be 0a08 43be a727 20bd 2bad 29be
00000070: dd32 f53d acc8 7c3e 1cad 4b3e 1b14 e43c
00000080: a7d9 10be e622 a63e c9c0 a3bd 9b63 8a3e
00000090: a5e6 08be 15f9 763d d94e cf3d 08a3 48bd
000000a0: 8a5e 413e 7d15 ab3e 1877 c6bd 6711 dc3e
000000b0: 6565 b8be 36a6 383e 85be d03d 57c3 e03d
000000c0: 3477 833d 625f 573e 44ec 363d 43ff 09be
000000d0: 2141 e13d 5e64 78bc b57c a7be 1d2f c33e
000000e0: 39b2 e33e 45d0 b93c e599 ae3d a817 ca3d
000000f0: 8903 923e 345e a8be 6b73 683e 4ea7 263e
0.05768058 -0.00026413222 -0.2566319 0.36024773 0.09271002 0.006828486 0.37142092 -0.45644754
0.037143473 0.2034708 0.15523714 -0.055168644 0.1289681 -0.09647119 0.22600575 0.036390506
-0.30410692 0.20845632 -0.20453101 -0.42411193 0.21612898 0.120242774 0.3080107 0.027459659
-0.2435796 -0.19046035 -0.039100315 -0.16569965 0.11972592 0.24685925 0.19890255 0.027841618
-0.14145528 0.324485 -0.07995755 0.27029118 -0.13369234 0.060296137 0.10122461 -0.048983604
0.1888372 0.33414832 -0.09690684 0.42982027 -0.36014858 0.18032154 0.10192589 0.10974758
0.064192206 0.2103248 0.044658914 -0.13476281 0.109987505 -0.015160648 -0.3271233 0.38121882
0.4447191 0.022682318 0.08525447 0.09867793 0.28518322 -0.3288437 0.22700278 0.16274759

fc2.weight f4 [64, 64]
00000000: 6aef 48bd 0016 55bc 75ba e33d 18fd cfbd
00000010: b462 a13d 8d8a b43d b6fc 903d cab8 213d
00000020: 74c4 d9bd a685 edbd fdd7 0fbd bb9d 01bd
00000030: dcf9 24bd ee97 03be 960e 043d 19fa 2f3c
00000040: 0dcf b23c dcdb acbd fa63 9e3d de1b b3bd
00000050: f3e2 57bd 4ed5 e43c 5352 dd3c dc13 67bc
00000060: 4581 973d d274 7dbc d883 42bd ec42 4fbd
00000070: 0669 6e3d f05e 8abd 3f0a ee3d bf07 aabd
00000080: 922b b53d e54a d83d dfdb a23d fb5f e9bd
00000090: 2ab8 9abd 4e2f 933d b01a c8bd decd 363d
000000a0: ab6c 813d 76cc f6bd 4669 2fbd 3165 76bd
000000b0: cc98 f83d 5a3b dfbd 0c83 17bd ced2 e43d
000000c0: 55c0 68bd 711d b0bc 76ee c13d de28 83bd
000000d0: 148e 983c 9683 cabd 1cf0 aa3d 8dfc 863d
000000e0: f030 b43c 0ef8 f53d ce55 b53d e6ba df3d
000000f0: 3673 05be df05 d53d c8b8 f5bd 1fa2 e0bd
00000100: d266 8dbd 27fc e8bd 4b38 cdbd 608c 68bc
00000110: 4645 5d3c b2de 003e 5b52 ffbc 06bb a23d
00000120: c430 c1bd cffc 91bd 2c19 aa3d 3458 98bd
00000130: 6b4f 89bd c1a6 bdbd eeec 99bc 9918 b33c
00000140: 2468 c4bc 4827 703d d089 953c 44d6 f2bd
00000150: 0615 f6bd 426a 943d 313e e0bd 99c0 cb3d
00000160: 7151 77bd 5996 d23d e467 7e3d e388 a3bd
00000170: 4c46 c8bd b5df 89bd 3df3 96bd 7307 473d
00000180: 343f 54bc 26b6 f6bc 6c4e d93d 4d8d 06bc
00000190: 81e3 cb3d 6722 d1bd 4618 a3bb bf24 a33c
000001a0: 0d2e 89bc 2a35 e43d 861f 05be 00f6 a03d
000001b0: ea1f 48bd a1ee f73d cd68 4f3c 4c61 c6bd
000001c0: 077b 25ba 60bb 1b3e 77b4 c9bc c2b8 b23d
000001d0: 6ae4 d93d 86f3 473d 4c48 3c3d f33a 1b3e
000001e0: 3321 143d 1fe4 d43c 18a0 c03d 8746 133d
000001f0: a82c 8f3d 3294 36bd 8224 fc3d 20e2 0abb
00000200: 3fcb 643d fe77 8bbd 1b95 663d 83e3 a9bd
00000210: a819 683d 72c5 f93d 0f86 87bd 2679 bf3d
00000220: 8126 b63d 52a3 7c3d db86 8dbd 627f b03d
00000230: c46a c9bd 1730 b4bd 9df4 0cbe f28f 8bbd
00000240: c781 d83d 494d b9bd 2c00 bfbd 9761 65bd
00000250: 4d5a b43d 099e adb9 1f09 a7bd c90a 7f3d
00000260: 3652 603d b1b0 d73d 4ab7 ae3c afd0 103d
00000270: 5fb9 b6bd 91b8 0cbd 0615 f03d d155 8abb
00000280: 2e9f c73d 0288 8bba a085 d03d dd2b 823d
00000290: 80b8 babd 4342 9b3d fc58 00bd a6e7 bcbd
000002a0: 694d 77bd e371 bd3c 02df 90bd 969a efbd
000002b0: a3cd 13bd ff28 d4bd f2f2 ea3c 63c3 383c
000002c0: 8e8a 59bc 9692 a6bc 1301 dd3d 82d6 c53d
000002d0: e06c 83bd 06e2 51bd 2086 b23d 7769 a2bd
000002e0: 2b62 f83d 30b3 f3bd 7aee ca3d 5fa9 e43c
000002f0: c82a 73bd c4e5 04bd 3d19 dc3d 005b ef3d
00000300: 9ddd 99b9 d434 a5bd 70ea d0bc 6ca0 843d
00000310: 54ae 6c3d 3247 97bd 2b47 1e3d 919f 2c3d
00000320: 0845 39bd 7828 8fbd 779e 953d da71 7cbd
00000330: 3b09 d1bd 4390 d9bd cd06 4ebd ff95 77bd
00000340: 33a6 e3bd 4acb edbc c486 e63d d1d2 653d
00000350: dcf9 c9bc c431 b1bd 55ae 21bd 28b4 d7bd
00000360: c10a 7e3d 359d bfbd 4550 cf3c ecaa be3d
00000370: d950 ddbd f39f 313d 687f 7fbd 41cd debd
00000380: 3006 e9bc 637a 43bd 245f e73d 4300 28bd
00000390: 5863 67bd 4cc1 babd 5e91 2f3d 593c ccbc
000003a0: 84db cdbb 7815 19bd 6fb3 ce3d 7e97 49bd
000003b0: 1760 e8bd 11af 64bd 8436 fdbd ad58 c0bd
000003c0: f8aa 813c 43b3 43bc 527c ac3d 81a4 dfbb
000003d0: b4e0 523d d973 5abd 7460 36bd 7d88 61bb
000003e0: 0e52 21bc d0b4 43bc 7c2a a83d ff88 9c3d
000003f0: a0f0 2abc a562 d8bd 7e30 94bc 7b68 d3bd
-0.049056448 -0.0130057335 0.11119548 -0.10155696 0.07880154 0.08815489 0.07079451 0.03948287
-0.106331736 -0.11597757 -0.03511809 -0.031644564 -0.040277347 -0.12850925 0.032240473 0.01074078
0.021827245 -0.08440372 0.07733913 -0.087455496 -0.05270667 0.027933743 0.027016794 -0.014103856
0.07397703 -0.015469747 -0.047489017 -0.05060093 0.058205627 -0.06756389 0.11623048 -0.08302259
0.08846201 0.1056116 0.07952093 -0.1139526 -0.07554658 0.07186757 -0.09770715 0.044629924
0.06319555 -0.120507166 -0.042825006 -0.060155097 0.12138519 -0.10899992 -0.03699021 0.1117302
-0.056824047 -0.021498414 0.09469311 -0.06404279 0.018622436 -0.09888379 0.083465785 0.06591139
0.021995991 0.12010203 0.088542566 0.1092432 -0.1303223 0.104015104 -0.11998135 -0.10968422
-0.06904377 -0.11376219 -0.10020503 -0.014193624 0.013505286 0.12584952 -0.0311672 0.07945828
-0.094331294 -0.071282975 0.083055824 -0.074386984 -0.06704601 -0.092603214 -0.018789735 0.021862315
-0.02397544 0.05863121 0.01825419 -0.11857274 -0.12015729 0.072468296 -0.10949362 0.099488445
-0.060380403 0.10282583 0.062110797 -0.079850934 -0.09779033 -0.06732122 -0.07370613 0.04859109
-0.012954522 -0.030116152 0.10610661 -0.0082124 0.09955502 -0.1021164 -0.004977259 0.019914983
-0.016745592 0.11142953 -0.13000306 0.07859421 -0.04885856 0.12106062 0.012659264 -0.09686527
-0.0006312583 0.15208197 -0.024622185 0.08726646 0.1063927 0.048816226 0.045967385 0.15159206
0.036164474 0.025987683 0.094055355 0.035955932 0.069909394 -0.044574924 0.12311651 -0.002119191
0.055857893 -0.06809996 0.05629454 -0.082953475 0.056665093 0.12195863 -0.066173665 0.09349279
0.08894063 0.061679192 -0.06910487 0.08618046 -0.09834817 -0.08798235 -0.13765188 -0.06814565
0.10571628 -0.09047944 -0.09326205 -0.056001272 0.08806286 -0.00033114877 -0.081560366 0.062266145
0.054765902 0.10531748 0.021327633 0.035355266 -0.089220755 -0.034355704 0.1172276 -0.004221656
0.09747158 -0.0010645392 0.10181737 0.063560225 -0.09117222 0.07580998 -0.031334862 -0.09223871
-0.06037656 0.023125594 -0.07073785 -0.11699407 -0.036084782 -0.10359382 0.028680298 0.011277053
-0.013277663 -0.02033357 0.107912205 0.09660055 -0.06417251 -0.051240943 0.087169886 -0.07930272
0.12128099 -0.11899412 0.09908767 0.027912794 -0.05936697 -0.032445684 0.10747001 0.11687279
-0.0002934755 -0.08066717 -0.025502414 0.064759105 0.05778344 -0.07386626 0.03864209 0.042144362
-0.04523185 -0.06990141 0.073056154 -0.061632015 -0.10206839 -0.10623219 -0.050299454 -0.06044578
-0.11115684 -0.0290276 0.11256173 0.056109253 -0.024655275 -0.0865207 -0.039472897 -0.10532409
0.062021974 -0.09356157 0.02530683 0.093099445 -0.10806436 0.04336543 -0.062377363 -0.10878993
-0.028445333 -0.04772414 0.112974435 -0.041015875 -0.056491226 -0.091189 0.042863242 -0.02493112
-0.006282272 -0.03737399 0.10092818 -0.04921674 -0.11346453 -0.05583102 -0.12363914 -0.093919136
0.015828595 -0.011944595 0.0842215 -0.0068250303 0.051483825 -0.053333137 -0.04452558 -0.0034413629
-0.0098462235 -0.0119449645 0.08211228 0.076433174 -0.010433346 -0.1056569 -0.01808953 -0.103226624

fc2.bias f4 [64]
00000000: 6522 20bb c8c7 aabc 1171 a53d f191 2e3d
00000010: 8b06 e23d c018 07be 70f5 343d 508f 0fbd
00000020: 2ca4 de3d af26 753d 14a7 4e3d 992a c6bd
00000030: 59a7 e83a 560e bfbc cae1 a13d 6540 08be
00000040: 3d37 653d 0ca0 923d 83f8 623d 105a e13d
00000050: ff33 9d3a 595a d0bd f4f2 e53a 49b8 eb3d
00000060: b026 b9bd 4cdc aa3b f00c 233d 5e7e 7dbd
00000070: 6e45 ccbd 7f76 d2bc 205c 93bb f90e 7bbc
00000080: d87d 233c 2d2d a3bd 02dd 7f3c c0e6 e83b
00000090: 4ed0 bbbd 19c9 3fbc d9e8 d2bd 2cf6 fa3d
000000a0: 94df a93d b2d7 4d3d 0d61 debd fd4c 353c
000000b0: 48f6 00be eeb1 a73d 792f 743d f149 7abc
000000c0: 62c5 b3bd 74b4 723d 8c63 a0bd 324b dd3c
000000d0: e894 db3c 314c fabc 4043 ab3d b75d 393d
000000e0: f2bf edba 669e f5bd 10b0 3cbc 04a8 2d3d
000000f0: 1e46 e1bd 9cc2 0ebc c6c2 b1bc 0683 ae3c
-0.0024434563 -0.020847216 0.08078206 0.04261965 0.11036404 -0.13193035 0.04417938 -0.035048783
0.10871157 0.059851345 0.050452307 -0.096760936 0.0017750069 -0.023322266 0.07904394 -0.13305815
0.055960882 0.07159433 0.05541278 0.11003506 0.0011993645 -0.101734824 0.0017543719 0.11509759
-0.09040582 0.0052142497 0.03980726 -0.06188809 -0.0997418 -0.025691269 -0.004497066 -0.015323394
0.009978734 -0.07967601 0.015616657 0.0071075857 -0.0917059 -0.01170566 -0.102983184 0.12253985
0.08294597 0.05025453 -0.10858355 0.011065719 -0.12593949 0.08188234 0.059615586 -0.015276418
-0.08777882 0.059254125 -0.07831487 0.027013395 0.026804402 -0.030553909 0.08362436 0.04525539
-0.0018138869 -0.11993103 -0.011516586 0.04239656 -0.10999702 -0.008713391 -0.02169932 0.021302711

fc3.weight f4 [1, 64]
00000000: 9c7c 443d 7116 8bbd a49b 2bbd f248 ec3c
00000010: b40a 983c 3f12 7bbd 0b60 4cbd fa31 cebc
00000020: bf3e 5bbd b7ce 1abc b655 ab3d 9321 86bc
00000030: 9e5b 593d 1cc6 c43d 9819 4e3d 4270 8b3d
00000040: 38ca 8c3c bd6a 9ebd b92a 4839 63a4 23bc
00000050: 80c7 debc f42e d9bc a50a afbd 66c3 e83d
00000060: c478 863d 0f32 c8bd 3aaa ee3c 8198 993d
00000070: 1efd 99bd 7ccd 743c 4ac3 bcbd c98e 393d
00000080: 621b 84ba 2bd6 eabd 61f4 28ba 2a94 febd
00000090: d001 e5bc 9b96 fa3c 9c70 bebd adb3 32bd
000000a0: 58d5 b03c 35e8 5f39 f282 97b9 f17f 2f3d
000000b0: c96e 6f3d b3dd 0cbd f5cd e8bc 1234 bdb9
000000c0: 7a0d dbbd 0c04 663c 43ad 7f3d 9838 933d
000000d0: 357a f53c a8a8 7bbd d207 263a 8872 b2bd
000000e0: 03f1 343c 7686 a23d d549 91bb 0073 e4bd
000000f0: dd06 6ebd 231d 8ebc a377 9f3c 65c2 de3c
0.0479704 -0.0679139 -0.041896477 0.028843377 0.018559791 -0.061296698 -0.04989628 -0.025170315
-0.053526636 -0.009448699 0.083659574 -0.016373431 0.05306589 0.09608099 0.050317377 0.06808521
0.01718627 -0.077352025 0.00019089402 -0.009987923 -0.027194738 -0.026511647 -0.08546952 0.11365394
0.06566003 -0.09775173 0.029133905 0.07499791 -0.075189814 0.014941569 -0.09216936 0.045302186
-0.0010078961 -0.114666305 -0.00064451067 -0.12430604 -0.027954966 0.030589392 -0.09298822 -0.043628383
0.021586105 0.00021353441 -0.00028898526 0.042846624 0.058455262 -0.034391116 -0.02841852 -0.00036087685
-0.1069593 0.014039051 0.062421095 0.07188529 0.0299655 -0.06144014 0.0006333563 -0.08713251
0.01104379 0.07935803 -0.0044338503 -0.11154747 -0.058112014 -0.017347878 0.019466227 0.027192304
