models/Q_net64_5_prF_3.pth (torch, 21015 bytes, 5 tensors)

fc1.weight f4 [64, 6]
0	0xbdb97ca2	-0.09056975
1	0x3e95e2d4	0.2927462
2	0xbd959e6a	-0.07305606
3	0xbbf97080	-0.007612288
4	0xbee673b2	-0.45010144
5	0x3c5dbea0	0.013534218
6	0xbe500520	-0.20314455
7	0xbdc21488	-0.09476572
8	0xbeb1f813	-0.34759578
9	0xbe00566c	-0.12532967
10	0x3e5caee1	0.21551086
11	0x3dd51757	0.10404842
12	0x3e8ce7ac	0.27520502
13	0xbe85f364	-0.26162255
14	0xbdcbad25	-0.09945134
15	0xbea0c142	-0.31397444
16	0x3e7ed49e	0.24885795
17	0x3dba23fc	0.09088895
18	0x3eb4f06c	0.35339677
19	0xbe1dd87c	-0.15414613
20	0xbe908ae6	-0.2823097
21	0xbe08f5a8	-0.1337496
22	0xbec68dee	-0.3878016
23	0x3cb1d5cb	0.02170839
24	0x3e249525	0.16072519
25	0x3e4cd7f9	0.20004262
26	0x3dcbab75	0.09944812
27	0xbe8429dc	-0.25813186
28	0x3dccfab8	0.10008758
29	0x3bcbaf6c	0.0062159803
30	0xbd068b49	-0.032847676
31	0x3e702118	0.23450124
32	0xbe8d4858	-0.27594256
33	0xbc3ea6e0	-0.011636466
34	0x3e2aca9f	0.16678856
35	0x3e66d09b	0.22540514
36	0x3e06dd5a	0.13170376
37	0x3d87c319	0.06629009
38	0x3dddd5ab	0.108317696
39	0xbd501a60	-0.050806403
40	0x3e752913	0.2394145
41	0x3e47491f	0.19461487
42	0x3e7ed360	0.2488532
43	0xbe4e09cc	-0.20120925
44	0xbeafc708	-0.34331536
45	0xbe06352c	-0.13106221
46	0x3e2283d1	0.15870596
47	0x3be9417a	0.007118401
48	0xbd6ee5b4	-0.05832453
49	0xbe81508e	-0.2525677
50	0xbd8018cd	-0.062547304
51	0x3ed2aa6d	0.4114565
52	0x3e99b875	0.30023542
53	0xbe464895	-0.19363625
54	0x3ea8c2d8	0.32961154
55	0x3cb77410	0.02239421
56	0xbeb6eeb8	-0.35729003
57	0xbca158d0	-0.01969567
58	0x3dc86320	0.097845316
59	0xbe044556	-0.12917075
60	0xbe387571	-0.1801355
61	0xbe1677dc	-0.1469416
62	0xbe900cdb	-0.28134808
63	0x3ec6bccc	0.38815916
64	0x3d8df015	0.06930558
65	0x3e3de940	0.18546009
66	0x3e9019fe	0.2814483
67	0xbecd6b58	-0.4012096
68	0xbebe041e	-0.37112516
69	0xbe9ee6c4	-0.31035435
70	0xbd1bf5de	-0.038076274
71	0xbdeb8097	-0.11499136
72	0xbe15a28e	-0.14612791
73	0x3e3a37f8	0.18185413
74	0xbe5becd2	-0.21477059
75	0xbd91ef34	-0.071257025
76	0xbeb82f17	-0.35973427
77	0xbea385cd	-0.3193802
78	0x3cbe148e	0.02320316
79	0x3d4402a7	0.047854092
80	0x3e2a5f91	0.16638018
81	0xbe08c548	-0.13356507
82	0x3ef1de0e	0.47239727
83	0xbe74f76c	-0.23922509
84	0xbd09dca3	-0.03365768
85	0x3e9f7066	0.3114044
86	0x3edf257e	0.43583292
87	0xbd3f10ee	-0.046647005
88	0x3d0fbaa1	0.035090093
89	0xbe797bce	-0.24363634
90	0xbe0e7d64	-0.1391502
91	0xbdbab49c	-0.0911648
92	0xbeb625c0	-0.35575676
93	0xbe0f9f82	-0.14025691
94	0xbe8f2e74	-0.27965128
95	0xbe8b78fc	-0.2724074
96	0x3ea550a6	0.32288092
97	0xbd03290f	-0.03202158
98	0x3db97b58	0.09056729
99	0xbe161761	-0.14657356
100	0xbf22631f	-0.63432497
101	0xbea016e7	-0.31267473
102	0xbec13408	-0.3773501
103	0x3e59ce58	0.2127012
104	0xbea91128	-0.33020902
105	0x3c6e4280	0.014542222
106	0xbe0a0d34	-0.13481599
107	0xbe91fe69	-0.28514412
108	0xbeb30114	-0.3496176
109	0xbe9ccf2d	-0.30626813
110	0x3df5b5e9	0.11997587
111	0xbcc44f87	-0.023963703
112	0x3ea1f7c3	0.3163434
113	0xbefe2491	-0.49637273
114	0x3e35b843	0.17746072
115	0xbd6b7120	-0.05748093
116	0xbec94725	-0.3931209
117	0x3ec84ac4	0.39119542
118	0x3eada843	0.33917436
119	0xbd201ab6	-0.039087974
120	0xbe91d386	-0.28481692
121	0xbe60cbce	-0.21952745
122	0xbe811f44	-0.25219166
123	0x3ead89c0	0.33894157
124	0xbe00e075	-0.12585624
125	0x3d49998f	0.04921871
126	0x3ec3827e	0.38185495
127	0xbe43699d	-0.19083257
128	0xbe145014	-0.14483672
129	0x3e5abfcc	0.21362227
130	0x3ecb5dd5	0.39720026
131	0xbe784d30	-0.24248195
132	0x3e8c1739	0.27361467
133	0x3e36a75a	0.17837277
134	0x3e685a37	0.22690664
135	0x3e1cd158	0.15314233
136	0x3e39a103	0.18127827
137	0xbda31955	-0.07963816
138	0xbdcec04b	-0.10095271
139	0xbdb09598	-0.08622283
140	0xbe1f47a4	-0.15554672
141	0xbdd20414	-0.10254684
142	0x3d60e8f2	0.054909654
143	0xbe6da8bd	-0.232089
144	0x3e0829fc	0.13297266
145	0xbe5f02c7	-0.21778403
146	0x3e5d5a2a	0.21616426
147	0x3ead0c60	0.33798504
148	0xbe8e9c9b	-0.27853855
149	0xbd420ef4	-0.04737754
150	0xbe4218b7	-0.1895474
151	0xbe8ff1e4	-0.28114235
152	0xbe3b9897	-0.18319927
153	0x3ea5e5a0	0.32401752
154	0xbe0f6b2d	-0.14005728
155	0x3dcd783a	0.10032697
156	0xbea4a102	-0.3215409
157	0xbec96fc1	-0.39343074
158	0x3ec1d4c3	0.37857637
159	0x3e3ae078	0.1824969
160	0xbeb8998f	-0.36054656
161	0xbe57eba7	-0.21085988
162	0x3ea1a9e9	0.31574944
163	0xbdfa6c91	-0.12227739
164	0x3d78a370	0.06070274
165	0x3e022c63	0.12712245
166	0xbeb777e7	-0.35833666
167	0x3e07d800	0.13265991
168	0x3da8e5b0	0.082469344
169	0x3e0267f0	0.12734962
170	0xbe8b6faa	-0.2723363
171	0x3deb7a98	0.11497992
172	0xbd832290	-0.06403077
173	0x3c6db140	0.014507592
174	0xbc2e5ae9	-0.010641792
175	0x3d5ce2b3	0.053927135
176	0x3dc218aa	0.094773605
177	0xbdaf0737	-0.08546298
178	0x3e02e5d6	0.12782988
179	0xbec812e4	-0.39076912
180	0x3e9ef41b	0.31045613
181	0x3c1df9c3	0.009642067
182	0x3e24f09c	0.1610741
183	0x3db23289	0.08701045
184	0xbeb9dbee	-0.36300606
185	0xbd82fd0d	-0.06395922
186	0x3e93a12c	0.28833902
187	0xbbd174ea	-0.006392111
188	0x3e7263d4	0.23670894
189	0xbe3604bd	-0.17775245
190	0xbe55853e	-0.20851609
191	0xbec7c426	-0.39016837
192	0x3e909944	0.28241932
193	0x3e88708e	0.26648372
194	0xbecc3b4a	-0.39888984
195	0x3e7fb264	0.24970394
196	0xbe7893a2	-0.24275067
197	0xbe81a574	-0.25321543
198	0xbc6df1f9	-0.014523023
199	0xbe3430b7	-0.17596708
200	0xbe115836	-0.14193806
201	0xbe8f2522	-0.27958018
202	0x3e76ecaf	0.24113725
203	0xbe9cdcd9	-0.30637243
204	0xbeca988c	-0.3956951
205	0xbdabd6c0	-0.0839057
206	0xbe8d9891	-0.2765546
207	0xbe879485	-0.264805
208	0x3e29e93b	0.16592877
209	0xbeb8096b	-0.35944685
210	0xbda8c5d3	-0.08240857
211	0x3e782848	0.24234116
212	0x3ccac396	0.024751466
213	0x3ddc2baa	0.10750516
214	0x3e730784	0.23733336
215	0x3d815bd9	0.06316347
216	0x3e3433ee	0.17597935
217	0x3e97635c	0.29567993
218	0xbeb6667c	-0.35625064
219	0x3db4f868	0.08836442
220	0x3e390641	0.18068792
221	0x3ea74201	0.32667544
222	0x3eabe4e3	0.33573064
223	0xbdb841e2	-0.08996941
224	0xbe59c099	-0.21264876
225	0x3e63e10e	0.2225382
226	0x3e5c4603	0.21511082
227	0x3e8e3d4b	0.27781138
228	0xbd2cedb0	-0.042218864
229	0x3d4ed920	0.050500035
230	0xbeb33af5	-0.35005918
231	0xbed09f58	-0.4074657
232	0x3e142985	0.14468963
233	0xbe2c8d0e	-0.16850683
234	0xbbb9a11f	-0.005664959
235	0x3e1ca8f3	0.15298824
236	0x3d958bd0	0.07302058
237	0x3d4e3734	0.050345615
238	0x3e3a563d	0.1819696
239	0x3ebd109a	0.36926728
240	0xbe990d5f	-0.29893014
241	0x3e69cd94	0.22832328
242	0x3beda0fb	0.0072518564
243	0xbe4725f9	-0.19448079
244	0x3d085e73	0.0332932
245	0x3e266e54	0.16253024
246	0x3ed46e78	0.4149053
247	0x3e1d7570	0.1537683
248	0x3ea73e9b	0.32664952
249	0xbecb3b73	-0.39693794
250	0x38a04529	7.6422766e-05
251	0x3e8283e5	0.25491253
252	0xbd9e6be6	-0.07735424
253	0x3e9ffc92	0.31247383
254	0x3ed10cd9	0.40830114
255	0x3df753c0	0.12076521

fc1.bias f4 [64]
0	0x3e8ecdb4	0.27891314
1	0x3e9651c9	0.29359272
2	0x3e87155a	0.26383477
3	0x3ca2de46	0.019881379
4	0xbe8166bb	-0.2527369
5	0xbe2133cd	-0.15742417
6	0x3daf2f8a	0.08553989
7	0x3ccefc83	0.025266891
8	0xbe8fa737	-0.28057262
9	0x3e5a729e	0.21332785
10	0x3cdc5527	0.026896073
11	0x3dec1117	0.11526697
12	0x3d77add9	0.06046853
13	0xbe878f35	-0.26476446
14	0xbdf18b52	-0.11794151
15	0xbea18e63	-0.31553945
16	0x3dd1d40b	0.10245522
17	0x3eb32c52	0.3499475
18	0x3ddd8c00	0.108177185
19	0x3ea7f072	0.32800633
20	0x3dc5c59e	0.09656833
21	0x3e80eeb7	0.25182125
22	0x3e1d447f	0.1535816
23	0x3ec20036	0.37890786
24	0xbe955c1c	-0.29171836
25	0x3d186c0a	0.03721241
26	0x3ede18ec	0.4337839
27	0xbd392f0b	-0.04521088
28	0xbd7f2130	-0.06228751
29	0xbe834967	-0.2564194
30	0x3ec2a466	0.3801605
31	0xbc6e8486	-0.014557963
32	0x3e7e4bac	0.24833554
33	0xbd4bb235	-0.0497305
34	0xbccc7796	-0.024959367
35	0x3d93cb42	0.07216503
36	0xbe22c567	-0.15895616
37	0xbdc0eb17	-0.0941984
38	0xbeba3b87	-0.3637354
39	0xbe9e1b60	-0.3088026
40	0x3ea7e004	0.32788098
41	0x3e93507c	0.28772342
42	0x3ecfa186	0.4055292
43	0xbe128143	-0.14307122
44	0x3e9ac276	0.30226487
45	0x3eb44f11	0.35216573
46	0xbebe08fb	-0.37116227
47	0xbd461e1b	-0.048368555
48	0x3e12a365	0.14320143
49	0xbe501d22	-0.20323613
50	0x3d12dff7	0.03585812
51	0x3b995668	0.00467949
52	0x3e811421	0.2521067
53	0xbe5550a8	-0.20831549
54	0xbed2aeab	-0.41148886
55	0xbe94cbc2	-0.29061705
56	0x3d9a7a2d	0.075428344
57	0x3ebd9a5a	0.37031823
58	0x3dd43cb3	0.1036314
59	0xbd9ba47b	-0.075997315
60	0xbd81e3cb	-0.06342276
61	0x3e4a6d6f	0.19768308
62	0xbe9315f5	-0.2872769
63	0x3db1d3d7	0.08682983

fc2.weight f4 [64, 64]
0	0x3d21561c	0.03938876
1	0xbda4b299	-0.08041877
2	0xbe03c884	-0.1286946
3	0x3d59ed28	0.053204685
4	0xbd16fe5c	-0.03686367
5	0xbd4ab949	-0.049493108
6	0x3c17aa0b	0.00925685
7	0xbdd11cea	-0.10210593
8	0xbd50fc04	-0.05102159
9	0x3d5bb75c	0.053641662
10	0x3dc6f096	0.09713857
11	0xbbf36e20	-0.0074288994
12	0x3d10349c	0.035206422
13	0xbddeb798	-0.108748615
14	0xbdfcaeb8	-0.123380125
15	0x3d77a84c	0.060463235
16	0xbdaed750	-0.08537161
17	0xbdca2fb0	-0.09872377
18	0xbda85e8a	-0.08221157
19	0x3d6a63a8	0.057223946
20	0x3b48b905	0.0030627858
21	0xbdca2b40	-0.098715305
22	0x3ccef6c6	0.025264155
23	0xbcd16058	-0.025558636
24	0xbdd41744	-0.10356
25	0xbd1e2e2c	-0.03861825
26	0xbd68df40	-0.056853533
27	0x3b25ddee	0.0025309282
28	0xbdd12e08	-0.10213858
29	0x377e0000	1.513958e-05
30	0xbcd55918	-0.02604346
31	0xbdc2cd90	-0.09511864
32	0xbda35fd4	-0.07977262
33	0xbde392a6	-0.11111955
34	0xbdf1166c	-0.11771855
35	0xbc705c7f	-0.01467049
36	0xbddf6caa	-0.10909398
37	0xbd86be7b	-0.065793
38	0xbddf8eb4	-0.1091589
39	0x3cce176f	0.025157658
40	0xbd1b620e	-0.03793531
41	0xbcd27d86	-0.02569462
42	0x3c83b9c6	0.016079795
43	0x3ddc8a7c	0.10768601
44	0xbcd6ca5b	-0.026219537
45	0x3d151579	0.03639743
46	0x3dc3062a	0.0952266
47	0xbd92bc65	-0.0716484
48	0x3db13b3b	0.086538754
49	0xbd1e9644	-0.038717523
50	0x3d64e2c1	0.055880312
51	0x3dedaed2	0.1160561
52	0x3d403650	0.046926796
53	0xbdcfb8c7	-0.10142665
54	0xbdf62892	-0.12019457
55	0x3d8eea06	0.0697823
56	0x3dcf0a86	0.10109429
57	0x3ca57590	0.02019766
58	0x3da24aa8	0.07924396
59	0x3d716be9	0.0589408
60	0xbc70f3b6	-0.014706543
61	0xbdf610ba	-0.12014909
62	0x3be907b9	0.0071115163
63	0x3d5971e6	0.053087138
64	0xbde5d5c4	-0.11222413
65	0xbd49e99a	-0.049295045
66	0x3d9147f0	0.07093799
67	0xbdc27ae3	-0.09496095
68	0xbdbf00b6	-0.093263075
69	0x3e07f2e4	0.13276249
70	0x3df25a3e	0.118336186
71	0x3c230cb7	0.009951762
72	0xbc11c804	-0.008897785
73	0xbc0b5fb3	-0.008506703
74	0xbd3330e2	-0.04374779
75	0x3d36470d	0.044501353
76	0xbd62b971	-0.055352632
77	0x3de6b56f	0.112650745
78	0x3ddf8ede	0.10915922
79	0xba6a5f00	-0.00089405477
80	0xbd6e6628	-0.058202893
81	0x3dfd2e84	0.12362388
82	0xbd0811c1	-0.033220056
83	0xbd3948fa	-0.04523561
84	0x3d5acb0f	0.053416308
85	0x3d0bcbca	0.034129895
86	0xbdf50665	-0.1196411
87	0x3d574507	0.052556064
88	0xbb2f6ef0	-0.0026769005
89	0x3dbc44c1	0.09192801
90	0xbd9ea494	-0.077462345
91	0xbcca9be6	-0.024732541
92	0x3bb1b140	0.005422741
93	0xbd8138f1	-0.06309689
94	0x3dda18cb	0.1064926
95	0x3d05f1aa	0.032701172
96	0x3de0a1be	0.1096835
97	0xbdf1f544	-0.11814359
98	0xbb3f4bb6	-0.0029189414
99	0x3dc1918f	0.09451591
100	0x3d8ec2c8	0.06970745
101	0x3e0d4df5	0.1379927
102	0x3de25510	0.11051381
103	0xbdedd4ee	-0.11612879
104	0xbd93f28f	-0.07223999
105	0xbdf358c8	-0.11882168
106	0x3d0cc6a3	0.034369122
107	0xbde7954f	-0.11307775
108	0x3d3e85b8	0.046514243
109	0xbcaeb047	-0.02132429
110	0xbdd88a28	-0.10573226
111	0xbde3299c	-0.11091921
112	0x3ddc22d8	0.107488334
113	0x3b511275	0.003190187
114	0x3de4f4ad	0.11179481
115	0xbd043235	-0.032274444
116	0x3dd33087	0.1031199
117	0xbdf14915	-0.117815174
118	0xbdb66a90	-0.08907044
119	0xbd340ab7	-0.04395553
120	0x3da0a5c8	0.0784412
121	0x3de2e5da	0.11078997
122	0xbd8950b7	-0.06704848
123	0xbdb4c19f	-0.08825993
124	0xbc9e7417	-0.019342465
125	0x3d0764ff	0.0330553
126	0xbd074de4	-0.033033267
127	0xbdce37f3	-0.10069265
128	0xbd0e9744	-0.034812227
129	0xbd8259f8	-0.063648164
130	0xbd3f648c	-0.04672675
131	0xbde12260	-0.10992885
132	0x3d02cf5c	0.031936035
133	0xbcfde170	-0.030991286
134	0xbdc7250a	-0.097238615
135	0x3dcc8b3a	0.09987493
136	0xbd89b680	-0.06724262
137	0xbd1dbfdc	-0.03851305
138	0xbc01ff60	-0.007934421
139	0x3dc282aa	0.094975784
140	0x3d4a5ae0	0.04940307
141	0xbd9761b8	-0.07391685
142	0x3cb4cd00	0.022070408
143	0xbd1080f0	-0.035279214
144	0xbcfc98e0	-0.030834615
145	0xbc6981d0	-0.014252141
146	0xbd9900b6	-0.07470839
147	0xbcd77cb0	-0.026304573
148	0x3ce75c18	0.028242156
149	0x3da45b7a	0.0802526
150	0xbdaeddf4	-0.08538428
151	0x3cad3190	0.021141797
152	0xbdba86b8	-0.09107727
153	0x3d9800c2	0.074220195
154	0x3c1b3090	0.009472027
155	0xbcd55138	-0.026039705
156	0xbcb15c98	-0.021650597
157	0x3dac26f0	0.08405864
158	0xbdc23722	-0.09483172
159	0x3df09162	0.117464796
160	0x3d8903f0	0.06690204
161	0xbd63f24c	-0.055650994
162	0x3c6e42d0	0.0145422965
163	0x3ddbdf74	0.1073598
164	0xbd83036c	-0.06397137
165	0x3d6276c8	0.05528906
166	0x3d9440ac	0.07238898
167	0xbb207640	-0.0024484545
168	0x3dec0e3e	0.11526154
169	0xbdf055aa	-0.11735089
170	0xbdfb36a4	-0.12266281
171	0xbd0198e4	-0.03163995
172	0x3d11b5e4	0.035573855
173	0xbdb27dca	-0.087153986
174	0x3dc58280	0.096440315
175	0x3c69b8f0	0.014265284
176	0x3d5d3130	0.054001987
177	0xbdcc9ce2	-0.099908605
178	0x3dd9b5ae	0.10630356
179	0x3df1e5bc	0.118113965
180	0x3d683488	0.056690723
181	0xbd522d40	-0.051312685
182	0xbaf28700	-0.0018503368
183	0x3d1b1bcc	0.037868306
184	0xbc9ff840	-0.019527555
185	0xbd784ec0	-0.060621977
186	0x3da60f6c	0.0810841
187	0xbd8350bc	-0.06411883
188	0xbdc4cdca	-0.09609564
189	0x3d977f98	0.073973835
190	0xbd0ab08c	-0.033859774
191	0x3bbc1f00	0.005741
192	0x3dd0032b	0.10156854
193	0xbd37abcf	-0.044841584
194	0xbdba4aea	-0.0909632
195	0x3cafa0ad	0.02143892
196	0xbd9bfcde	-0.0761659
197	0x3d2a27c6	0.041541837
198	0x3b6a06b2	0.0035709557
199	0x3df727b4	0.1206812
200	0x3b9aa31b	0.0047191507
201	0x3d3aefea	0.045638956
202	0xbd9bb78a	-0.07603367
203	0xbc29277e	-0.010324357
204	0x3dceb753	0.1009356
205	0x3e214623	0.15749411
206	0x3dd321fa	0.10309215
207	0xbdcea9a0	-0.10090947
208	0x3defba60	0.1170547
209	0xbd905ac5	-0.07048563
210	0xbce9d545	-0.028544078
211	0x3d1a6e07	0.037702587
212	0xbcc2a574	-0.023760535
213	0xbdeddbd6	-0.11614196
214	0x3c8fb9b8	0.017544612
215	0xbdf40c69	-0.119164295
216	0x3e4738d5	0.19455273
217	0x3d7550fd	0.05989169
218	0x3e1ec23c	0.15503782
219	0x3d94bcf6	0.07262604
220	0xbdab4eba	-0.08364625
221	0x3e0faf61	0.14031745
222	0xbda9275b	-0.082594596
223	0x3d1fe94c	0.03904085
224	0x3deb783f	0.114975445
225	0xbc689721	-0.014196188
226	0x3de2636c	0.110541195
227	0xbb52af8b	-0.0032148089
228	0xbd5cdc3a	-0.053920962
229	0x3c36602b	0.011131327
230	0xbcb4b210	-0.022057563
231	0x3d353c19	0.044246767
232	0xbd882122	-0.066469446
233	0xbe16ad49	-0.1471454
234	0xbd030758	-0.031989425
235	0x3db91ece	0.09039079
236	0x3d7ef6d7	0.062247124
237	0xbd1bdb74	-0.038051084
238	0xbdf85406	-0.12125401
239	0xbdd766a2	-0.105176225
240	0xbd9de539	-0.077097364
241	0x3dbe4f07	0.09292417
242	0xbd78ac6d	-0.060711313
243	0xbd6a5ce9	-0.057217512
244	0xbd545f4c	-0.051848695
245	0xbd88e662	-0.06684567
246	0xbd0a99b9	-0.033838008
247	0xbbada7c2	-0.0052995393
248	0x3b4325be	0.0029777135
249	0x3d97c135	0.07409898
250	0x3d74eb44	0.05979468
251	0xbd65087f	-0.055916306
252	0x3d3beb8a	0.045878924
253	0xbc155cc0	-0.009116352
254	0x3db6ba9d	0.089223124
255	0xbdb8461a	-0.08997746

fc2.bias f4 [64]
0	0xbd9d5f88	-0.07684237
1	0xbd089d4a	-0.033353128
2	0xbd3ec184	-0.04657127
3	0x3ddf4fa3	0.109038614
4	0x3da9c7ef	0.082900874
5	0xbda4b4cb	-0.08042296
6	0xbd9141ce	-0.070926294
7	0xbddc2cf4	-0.10750762
8	0x3d8f5f0f	0.07000553
9	0xbdcb24b2	-0.099191085
10	0x3d89f987	0.06737047
11	0xbbaab5a0	-0.0052096397
12	0x3c84a337	0.016191108
13	0x3e0196a9	0.12655129
14	0xbddb5df0	-0.107112765
15	0xbddaabc3	-0.10677292
16	0x3c015535	0.00789385
17	0x3d84a887	0.064774565
18	0xbdbea87e	-0.09309481
19	0xbe1019ea	-0.14072385
20	0x3da998c7	0.08281093
21	0xbdae35ec	-0.085063785
22	0x3dd09fb3	0.1018671
23	0xbd570b96	-0.052501284
24	0xbd2b533c	-0.041827425
25	0xbdd071fc	-0.10177991
26	0xbde39a72	-0.111134425
27	0xbdcc34c2	-0.09971
28	0xbdfa0d55	-0.12209574
29	0xbe09799f	-0.13425301
30	0xbdf45e05	-0.11931995
31	0x3d8daac8	0.069173396
32	0x3cd47308	0.025933757
33	0xbdc37d7d	-0.09545419
34	0x3d9815b3	0.07426014
35	0xbd229bae	-0.03969925
36	0x3c2c6bee	0.010523779
37	0x3c37c665	0.011216735
38	0xbd22c4d2	-0.039738484
39	0xbd100227	-0.035158303
40	0xbdb32b54	-0.087484986
41	0xbde54fc2	-0.11196853
42	0x39eee381	0.000455644
43	0xbdd83a79	-0.10558028
44	0x3db1b387	0.0867682
45	0xbd879555	-0.0662028
46	0xbe155c49	-0.14585985
47	0x3dc4ccee	0.096094
48	0xbcf601c4	-0.030030139
49	0xbca322da	-0.01991408
50	0x3c5c7b65	0.013457154
51	0x3d0272f2	0.0318479
52	0x3da264d8	0.07929391
53	0xbcc1b035	-0.023643592
54	0xbda9858b	-0.082774244
55	0xbd1a5a0f	-0.037683543
56	0x3cb09f35	0.02156029
57	0x3d588ae7	0.052866843
58	0x3d9771cd	0.07394753
59	0xbdc568e5	-0.09639148
60	0xbbbdd100	-0.005792737
61	0x3d5799b3	0.052636813
62	0xbdc68150	-0.09692633
63	0xbdd720be	-0.10504292

fc3.weight f4 [1, 64]
0	0xbde63e07	-0.112422995
1	0xbd9d362b	-0.07676347
2	0xbd610d80	-0.054944515
3	0xbe04f012	-0.12982205
4	0x3dae87a3	0.085219644
5	0x3d8f52cc	0.06998214
6	0x3d5f89fe	0.05457496
7	0x3d59c578	0.053166837
8	0xbd122cba	-0.035687186
9	0xb9def6da	-0.00042527058
10	0xbd3b4d81	-0.04572821
11	0x3dc8f176	0.0981168
12	0x3ca7a2e9	0.020463424
13	0x3dee09d5	0.11622969
14	0xbaff3bcf	-0.001947278
15	0x3df22c9c	0.11824915
16	0xbc74736e	-0.014920099
17	0x3d8f05dc	0.069835395
18	0xbdead5af	-0.11466538
19	0xbd287b4d	-0.041133214
20	0xbd93a607	-0.072094016
21	0x3bb964de	0.0056577763
22	0x3a28b561	0.0006435719
23	0x3dbc4a00	0.09193802
24	0xbd638f3c	-0.05555652
25	0x3d9dfadb	0.077138625
26	0x3aafccc2	0.0013412463
27	0x3d487018	0.048935026
28	0xb8aabd41	-8.141483e-05
29	0x3d42d5b4	0.047567084
30	0xbbb5eb68	-0.0055517443
31	0xbbf592e0	-0.0074943155
32	0x3c986cb5	0.018606523
33	0x3d86c3c3	0.06580307
34	0xbd14b1a0	-0.03630221
35	0xbd162e9f	-0.036665555
36	0xbb699cf7	-0.0035646537
37	0x3d51c79c	0.051215753
38	0x3dc805ed	0.09766755
39	0xb95be97d	-0.00020972449
40	0xbd6fd504	-0.058552757
41	0xbc285541	-0.010274232
42	0x3dc69468	0.09696275
43	0x3d681a92	0.056665964
44	0xbdb14d43	-0.08657315
45	0x3ccea534	0.02522526
46	0x3da8229b	0.082097255
47	0xbc4d07b9	-0.012514048
48	0x3c873be7	0.016508056
49	0xb71f1709	-9.482502e-06
50	0x3d84e629	0.06489212
51	0xbd7885c1	-0.060674433
52	0x3d7e2f1e	0.062056653
53	0x3c04b7eb	0.00810049
54	0x3de905f6	0.1137809
55	0x3cf2c603	0.029635435
56	0xbd14d2fe	-0.03633403
57	0xbc7d8b82	-0.015475156
58	0xbdb4cd0e	-0.088281736
59	0x3d39e080	0.045380116
60	0xbd978c18	-0.07399768
61	0xbd078606	-0.0330868
62	0xbdc23551	-0.094828255
63	0xbd3fccf0	-0.046826303
