models/Q_net64_10_prTpro.pth (torch, 21031 bytes, 5 tensors)

fc1.weight f4 [64, 6]
00000000: a8a9 f5bd 2303 c8be 92b5 3bbd c975 52be
00000010: 3c65 973e 0a8c 89be 5607 1fbe 7c19 bcbc
00000020: 84a7 a5be 518b 3bbc a45c adbe 91a6 96be
00000030: 7070 8f3e 188e a43d 0bcb 03be e887 bb3d
00000040: 35ed 24be 2c37 a7be 5a2f 773e fd26 d1be
00000050: 2683 353e e8e7 0fbf 8c01 81bd 074f 24be
00000060: be70 84bc f000 c13e fcc8 d4bc 681a 133e
00000070: bc22 2fbe 0e74 e0bd e06c 6fbe 6cc0 c2be
00000080: 6abc 2cbe 080a 8ebe 36c8 04be 831c 8fbd
00000090: c536 d8bd f4b4 b03d e405 d43e 0b0c 6a3e
000000a0: e013 183e 4259 0a3f 82ca 483e 65c0 fdbe
000000b0: 060e 1f3e 8b87 54be 86e2 09be 9aa6 d9bd
000000c0: 701c de3c 4595 a0bd 3298 8bbe 414d a4be
000000d0: 443a 90be d082 40be f1ca cabd a20e 0b3e
000000e0: fe3d 33bd e6d0 7ebe a6f6 85be 82ed 79ba
000000f0: 951c 43be cbb0 f3bc 7042 adbd 43b1 9e3e
00000100: 1068 a5be 1e14 c3be f208 773e 9361 543e
00000110: 22a9 753e 5a9d d03c a4eb c83e 8c8a b93c
00000120: a7a4 b73c b9a4 033e f58e 863d 22fb 3bbe
00000130: 18ba 0abe 6abf c23c 16b0 603e 0a7f d8bc
00000140: 406f dbbd 0022 ae3e 902c 8cbe 97c6 453d
00000150: 64ad 213e 9a7b 86be ccbf 603e fa37 27bf
00000160: b41e bdbe 9af8 aabc 52fe 803e ed8f 0fbf
00000170: 5288 4a3e 300c 0ebf 800f 85bc 5734 83be
00000180: e947 a2be e1ad c1be 9c92 c03e ab60 0abf
00000190: 3022 913d 84b1 7bbd 276d 1fbe b028 43be
000001a0: 2371 37bd d001 953e 2c92 5c3e 0fcb 0fbe
000001b0: 43aa 9fbe bec8 45be 0cdc 243e 305d bd3c
000001c0: a055 9bbc b63b 9abd 8f6b 38be 836e a9be
000001d0: 8844 adbe 99c5 c43d 56ca be3e 92cf 673e
000001e0: 0b56 72be 80a4 a1be c2ee 48be 3a5c acbc
000001f0: dcdb 8c3d a72a ee3d 157e 63bc e248 0f3f
00000200: 5e94 72bd 5a3b 40bd eaac b73e c9d6 063d
00000210: e602 3dbe bebb 913e 502b b5bd e1cc e93d
00000220: 561d c23e 862e ad3d 5966 143e 4c04 a8be
00000230: e6fc a73c bcaf cfbd c468 5f3e a460 a0be
00000240: 74a1 a83e 21dd 09be 0381 53be f2ad e63e
00000250: df90 8bbe f8ad ebbd 44f4 5bbe a218 f93e
00000260: 25a2 4cbe 6aa8 3f3d fca7 833e 8adc 8fbd
00000270: bcc4 bebd 58ca 7ebe 0914 b0be 826a 85be
00000280: d96d 35be 8e81 96be 8d14 883d 4262 febe
00000290: d8e7 663d 4aa4 66bf 22db cb3e d5b9 29be
000002a0: 4520 b33d c50e 03bf 0b1f 88bc 7962 31bd
000002b0: 4ee5 02be 0568 86be f55a 75be b499 82bd
000002c0: aad2 95be 9b2c 003e 3863 3c3e 645d 4e3c
000002d0: 2aa4 80be 6a6e d73e a688 843d 34ad 07bf
000002e0: 544a 8f3e 6ab4 263e 0ecb a83e 37de 1bbc
000002f0: 8e66 403d de60 6c3d 9438 05be 5054 92bd
00000300: 67e3 733e 029e b7bd 24f8 2bbd d31d 773d
00000310: 5cda 3cbe 999d f53d a021 d0be 0634 b5be
00000320: 8b38 9dbc ceba 1bbf fcba febd a948 62be
00000330: dcc7 81be fba6 9abe c6d3 493e 6581 0bbf
00000340: 10f1 6ebd a24f 1abf c32d 61be 3a32 c03e
00000350: dd67 3dbd e67f 303e b404 4fbe 2305 fb3d
00000360: 22d0 d33d dc19 26be 203a fd3e d4a1 c1bd
00000370: 4ad3 afbe d723 5b3e b078 3d3e 1d24 66be
00000380: 2837 67bd 3587 36be e4a4 1dbe 688a 0abe
00000390: 27cc b7be bc6d e5bd a3ce c9be 4c06 813e
000003a0: c44c 7d3e 3337 ab3e e53b b3be f9cd 5dbe
000003b0: 9aab 0ebe a1da 65be 9884 cb3e ed73 303d
000003c0: e9ce b23d b5c1 d8bd e625 683d fb05 d63d
000003d0: 228a c03e a8e5 b6bd 0da8 913d d4c7 473e
000003e0: 966f 50bd c9cd 133f d6e4 56be 7ab5 ae3e
000003f0: 0423 bb3e 854c 50bd 3257 933e 1fbe b2be
-0.1199525 -0.39064893 -0.045827456 -0.20552744 0.29569423 -0.26864654 -0.15530142 -0.02296137
-0.32354367 -0.01144679 -0.33859742 -0.29423955 0.2801547 0.08034915 -0.12870423 0.091567814
-0.16106112 -0.3265928 0.24139157 -0.40850058 0.1772581 -0.56213236 -0.06299123 -0.16045772
-0.01616704 0.37696028 -0.025974743 0.14365542 -0.17103094 -0.10959636 -0.23381376 -0.3803743
-0.1686875 -0.27742028 -0.12967 -0.0698786 -0.105573215 0.08628264 0.41410744 0.22856157
0.14851332 0.54042447 0.196085 -0.49560848 0.15532693 -0.2075483 -0.13465318 -0.1062748
0.02711317 -0.07840971 -0.27264553 -0.3209019 -0.28169453 -0.18799901 -0.09901989 0.135798
-0.043760292 -0.24884376 -0.2616474 -0.00095339876 -0.19053872 -0.029747387 -0.084599376 0.30994615
-0.32305956 -0.38101286 0.24124506 0.20740347 0.239903 0.025465656 0.3924228 0.022649072
0.02241738 0.12855805 0.06570236 -0.18357518 -0.13547552 0.023772914 0.21942171 -0.026427764
-0.10714579 0.34010315 -0.27377748 0.048285093 0.157888 -0.26266176 0.21948165 -0.6531979
-0.36937487 -0.020870496 0.2519403 -0.5607899 0.19778565 -0.55487347 -0.016242743 -0.2562587
-0.31695488 -0.37827972 0.37611854 -0.54053754 0.07086599 -0.06144859 -0.15568982 -0.1905849
-0.04478563 0.29102945 0.21540135 -0.14042304 -0.31184587 -0.19314858 0.16099566 0.023115724
-0.018961728 -0.0753092 -0.1800978 -0.33092126 -0.33841348 0.09608001 0.37263745 0.22637776
-0.23665635 -0.31570816 -0.19622329 -0.02104007 0.06877872 0.11629229 -0.013885041 0.55970585
-0.059223525 -0.046931602 0.3587411 0.03291968 -0.18458137 0.28463548 -0.08846152 0.11416031
0.37913007 0.08456139 0.14492168 -0.32815778 0.020506334 -0.101409405 0.21817309 -0.3132373
0.3293568 -0.1346326 -0.20654683 0.45054585 -0.27258965 -0.11507791 -0.21479899 0.48651606
-0.19983728 0.04679147 0.257141 -0.07024486 -0.09314868 -0.24881876 -0.34390286 -0.26057822
-0.17717685 -0.29395717 0.06644545 -0.4968434 0.056373447 -0.90094435 0.39815623 -0.16574796
0.08746389 -0.5119441 -0.016616365 -0.0433068 -0.12782785 -0.26251236 -0.23960479 -0.06376973
-0.29262286 0.12517016 0.18397224 0.012595508 -0.25125247 0.42076427 0.06471376 -0.5299866
0.27986395 0.1627976 0.32967418 -0.009513429 0.046972804 0.057709567 -0.13009864 -0.071449876
0.23817216 -0.089656845 -0.041984692 0.060331177 -0.18442672 0.1199295 -0.40650654 -0.35391253
-0.019192 -0.60831916 -0.12438008 -0.2209803 -0.25347793 -0.3020552 0.19709691 -0.54494315
-0.058335364 -0.6027776 -0.21990113 0.3753832 -0.04624163 0.1723629 -0.20216638 0.12256839
0.103424326 -0.16220802 0.49458408 -0.094546944 -0.34340888 0.2140039 0.1850307 -0.22474714
-0.056449085 -0.17825015 -0.15394932 -0.1352936 -0.35897943 -0.11202571 -0.39415464 0.25200117
0.24736315 0.3344055 -0.35006633 -0.21660604 -0.13932648 -0.22446682 0.39749599 0.043079305
0.08730871 -0.10583822 0.056676768 0.104503594 0.37605387 -0.08930522 0.07112131 0.19509822
-0.050887667 0.5773588 -0.20985731 0.3412283 0.36550152 -0.050854225 0.28777462 -0.34910676

fc1.bias f4 [64]
00000000: e2c5 0d3e 2959 d03d 041e b63e 9380 633e
00000010: 0ecb 403e 567e 8fbe 25b9 883e ecf4 06be
00000020: 97fb 3f3e 7ddb 8dbe 3963 48be 18ad d3bd
00000030: 16eb aabe c6d5 9bbe 2fa6 933e 03c1 7e3e
00000040: eaa8 873e 4683 51bd 9c0d 02be 1d33 8d3e
00000050: 6af1 953e b77d 273d b0a6 c33d 2bd5 323e
00000060: 7a42 2fbe 157a 91be 0879 e63d d0db edbe
00000070: 6cec 1f3e 8a7e 47be e502 68be 6d3b db3e
00000080: 2c79 ff3d df39 99be 8391 02bd ce1a b7bd
00000090: d206 e73e 8e6f 69be 8728 f9bd 9c2f b73e
000000a0: 3b48 d73e dfc0 083f 5c01 073e ca83 b23e
000000b0: 728a 26be 4b87 09bd 7207 263e 5df1 7f3d
000000c0: e9b2 3ebd 77b9 11be 3466 11bf cd6d 0bbf
000000d0: 5e04 60be 10b9 733c facf 7d3e 62a5 ed3c
000000e0: c369 e1bd 7404 70be e955 25bc 516f 6abe
000000f0: 0245 81be e487 8bbd cf8e b6be 6422 08be
0.13845018 0.10173256 0.35569775 0.22217016 0.18827459 -0.28026074 0.26703754 -0.13179368
0.18748318 -0.2770652 -0.195691 -0.103357494 -0.3338248 -0.30436534 0.28837726 0.24878316
0.2649606 -0.051150583 -0.12700504 0.2757806 0.29285747 0.040891375 0.095532775 0.1746413
-0.17115203 -0.28413454 0.11253554 -0.46456766 0.15617532 -0.19481865 -0.22657354 0.42818776
0.124742836 -0.29926965 -0.031877052 -0.089406595 0.4512239 -0.22796461 -0.12165933 0.3577851
0.42047295 0.534193 0.13184112 0.34866172 -0.1626375 -0.03357629 0.16213778 0.06248604
-0.04655734 -0.14230905 -0.56796575 -0.5446442 -0.21876666 0.014875665 0.24786368 0.029009525
-0.110065006 -0.23439199 -0.010091283 -0.22894026 -0.2524796 -0.068130285 -0.3565583 -0.13294369

fc2.weight f4 [64, 64]
00000000: 0d9b dfbd eef1 b2bd 5897 aebd 23e9 8abb
00000010: 79e6 433d 582e 8b3c 4374 05bd eb9f ca3d
00000020: 57df da3d 76eb a5bd 5ff4 4ebe 8fe6 a2bd
00000030: 0b85 14bd 24c9 a3bb 6728 82bd 65d7 fabc
00000040: f94d 8f3c e1b1 2bbe 8b04 8ebd 5059 f0bc
00000050: 4e16 58bd f236 22be 4843 0a3e 47ec b0bd
00000060: 5eea e4bd 88f4 1cbd 3e84 c03d 020b ab3d
00000070: 0ca2 a13d e756 d13d 5b7b 633d 9aff c83d
00000080: 26d0 3f3d b78b 00bd 6e08 76bd a5d9 ecbd
00000090: 3e46 823d f6f3 da3d 2106 4dbd 97f6 ed3d
000000a0: 13fe a3bd 833c a43b b09a 293d 76d8 edbc
000000b0: 963f cdbc 390e 86bd 60ee c2bd 6654 1bbe
000000c0: 114d a33d 6abc 27bc ccdb dabc 1846 e8bd
000000d0: b021 1fbd a392 e33d 0ffd 8e3d 2fe6 053d
000000e0: 2521 46bd 271c 9abd 8002 18bd e541 3ebd
000000f0: 0486 97bd 5599 e1bd 3079 babd 2b66 b4bd
00000100: 831e cf3d 0fee a23c 6a91 c7bc b3e8 cfbd
00000110: 93f7 91bd bb35 bfbc c1dd b83c 5fe7 a4bd
00000120: 3d60 d33d 1282 27bc 796b f8bd 1c82 48ba
00000130: b329 3c3e b177 833d b276 5abd fbb0 973c
00000140: 6b64 dfbd e743 0dbe 0140 173e f7ce a73d
00000150: 30ac 60bd 119f 323e 1244 fb3d 0738 843d
00000160: ddbb ebbd 7de4 b8ba 8977 233d 3b18 de3d
00000170: fb3c ac3d bade 793d c9be 653d 5602 d6bb
00000180: a53f b3bd 75d7 a93b 0761 5dbe 100e bb3c
00000190: 0d67 bcbd da3a bdbd 694a 9fbd 2d73 3b3b
000001a0: f449 b5bd 179d 263e e9e3 7f3d 2ac6 1dbd
000001b0: 740a 9a3d 7e65 043e 4e97 cebd bf61 bd3d
000001c0: e273 1f3d d646 7b3c 19c9 d93d 5344 363d
000001d0: 0f5f 78bd d38f ea3d cade bebc 37f0 303d
000001e0: d544 df3c 551a 853c f981 9b3d fa76 0e3e
000001f0: 0a43 f5bb d8b5 763d e7c1 3e3e 3625 d3bd
00000200: 25ef ddbd 30c4 693d 770f 53bb 4400 48bd
00000210: f9d2 9d3c b587 a0bb a983 03bd 42ee a73d
00000220: a723 a7bd 43bc c9bd 7ab4 a1bb e294 c9bc
00000230: 9a2a d6bd b01f 793d b844 873d f597 99bd
00000240: 0c9a cfbd 2df8 bf3b 787a 49bd c564 0abe
00000250: 629a cdbd eee9 4cbb 4bb6 1dbe 8acd b33c
00000260: ea11 cc3c a1b0 e63d ebf3 043d 4802 a53d
00000270: 5e99 b0bd d409 efbd 94fc bebd a12a e5bc
00000280: 6362 e2bd 2aa7 f93c a86c 8c3c 08b9 ff3b
00000290: 623b 5c3d 0a3b e33d 23fa 33bd bd3a 003d
000002a0: 40aa febd d4f6 903c e776 04be 402c ba3d
000002b0: a767 27bc 10b7 a7bd 892b d5bd fe62 c23d
000002c0: acc5 fbbd 1812 d8bc 5eb7 4cbd 75ac a23d
000002d0: 44fd 533d 96f0 dcbd 5b50 ed3d 5713 853d
000002e0: 0080 b5b8 edca 2ebc 68e5 e63c 0716 9abd
000002f0: ffdf ccbd 52f3 15be 68e8 a23d 84ba 683c
00000300: 1f5c fc3c 60a2 a5bb dc89 c6bc a482 73bc
00000310: 739b c2bd 4371 76bd 6ae0 b9bb 3221 1c3d
00000320: 1401 533d 8300 30bd f4a5 f7bd 6842 7a3d
00000330: d364 84bd 1a98 eb3d 2d0f 333d 1aaa b03d
00000340: a7d0 90bd 6ca8 af3c 5b4f 683c e8a0 efbd
00000350: 4c0e 6c3d 0adc ad3d f8b5 4bbd e12b b83d
00000360: 0044 01bd ab71 5ebd a891 87bc 3d57 933d
00000370: 6a60 a9bd 00ff 40bd 62f4 bbbd 9b46 813d
00000380: f0bd 08bd fe2c 0dbd bc90 e23d 1e6b 36bd
00000390: 3bb1 b8bd c020 933d 1889 9cbd 49cf 33bc
000003a0: ff11 fa3d bc56 73bd 9d18 a03d 98a8 35bc
000003b0: e3b6 9fbd 029a 07bb c652 ba3b 1498 963b
000003c0: d6dc bc3d 04bf 48bd 4a18 eabd 683a 1e3d
000003d0: 2831 18bd cc2d cf3c 739b a8bd 06da cfbd
000003e0: 0cd1 cdbd 0c50 63bd 3ad2 003d e047 923d
000003f0: e46c 8bbd c118 9f3d 2177 a5bd 44f6 603d
-0.109182455 -0.08737551 -0.0852496 -0.004239218 0.047827218 0.016989872 -0.03258158 0.09893783
0.1068713 -0.08101551 -0.20210408 -0.07954132 -0.036259692 -0.004998343 -0.063553624 -0.030620286
0.017493235 -0.16767074 -0.0693446 -0.029339463 -0.052755646 -0.15841272 0.13502228 -0.08638816
-0.111775145 -0.03831914 0.09400223 0.08351709 0.07892236 0.102216534 0.055537563 0.09814377
0.046829365 -0.031383242 -0.060066633 -0.1156495 0.06361054 0.10691063 -0.050054673 0.11619299
-0.08007445 0.0050120964 0.041407287 -0.02903388 -0.025054734 -0.065456815 -0.09518123 -0.15168914
0.079736836 -0.0102377925 -0.026716135 -0.11341494 -0.038850486 0.11111953 0.06981861 0.032690223
-0.048371453 -0.07524901 -0.03711176 -0.04644956 -0.07398608 -0.11015574 -0.09105146 -0.088085495
0.101132415 0.019888906 -0.024361331 -0.10151806 -0.07127299 -0.02334105 0.022566678 -0.08051943
0.1032109 -0.010223882 -0.12129874 -0.00076487823 0.18375282 0.06419314 -0.053335853 0.018517008
-0.10907825 -0.13795434 0.1477051 0.08193772 -0.05485171 0.17443492 0.12268843 0.06455999
-0.115104415 -0.0014106181 0.03990892 0.10844465 0.084100686 0.061003424 0.05609015 -0.00653104
-0.087523736 0.005183155 -0.21619044 0.022833854 -0.09199343 -0.09239741 -0.077778645 0.0028602586
-0.08851996 0.16270863 0.06247321 -0.038519062 0.07521525 0.12929341 -0.10087453 0.09247159
0.038928874 0.015336713 0.106340595 0.044498753 -0.06063753 0.114532135 -0.023299593 0.043197837
0.027254501 0.016247908 0.0759315 0.13912573 -0.0074847983 0.060232013 0.18628655 -0.10309832
-0.10836629 0.057071865 -0.0032205263 -0.04882838 0.019265639 -0.00489899 -0.032107983 0.08199741
-0.08161097 -0.09850361 -0.0049348446 -0.024607126 -0.10457344 0.060821235 0.06604904 -0.07499687
-0.10136804 0.0058584423 -0.04918906 -0.13515003 -0.10039212 -0.0031267363 -0.1540157 0.021948595
0.024910886 0.11264158 0.03245918 0.08057076 -0.086230025 -0.116717964 -0.09325519 -0.027974429
-0.11053922 0.030475218 0.017141655 0.00780404 0.05376757 0.11095245 -0.04393972 0.031306017
-0.12434816 0.017695822 -0.12935983 0.09090471 -0.010217584 -0.08189213 -0.10408694 0.094915375
-0.12293562 -0.026375815 -0.04997956 0.0794305 0.051755205 -0.107880756 0.11587592 0.064978294
-8.6545944e-05 -0.010668498 0.028185561 -0.07523733 -0.10003661 -0.146436 0.07954484 0.014204625
0.030805646 -0.005054757 -0.024235658 -0.01486269 -0.09502306 -0.06016661 -0.005672504 0.038117595
0.0515147 -0.042969238 -0.120922 0.061098486 -0.06464543 0.115036204 0.043715645 0.08626194
-0.07071047 0.021442614 0.014179076 -0.11700612 0.057630822 0.08489235 -0.049734086 0.08992744
-0.03155899 -0.05430762 -0.016548946 0.07194374 -0.08270343 -0.047118187 -0.09177472 0.06312295
-0.033384264 -0.034466736 0.11062762 -0.04453575 -0.09018179 0.07183981 -0.07643336 -0.010974714
0.12210464 -0.05940889 0.078171946 -0.011087559 -0.07798555 -0.002069116 0.005686137 0.004595766
0.092218086 -0.04901029 -0.11430414 0.03862992 -0.037156254 0.025290392 -0.082327746 -0.101490065
-0.10049638 -0.05549626 0.031450488 0.07142615 -0.068078786 0.07768393 -0.08079363 0.054922357

fc2.bias f4 [64]
00000000: 371f 4dbd 7b96 ab3d 8b5e b13d f231 663c
00000010: 2918 fcba b936 dabd 2c47 a23d b930 7bbd
00000020: 9d16 16bd 879e 0dbd 940a bdbd b06c 5abd
00000030: 15a9 2a3d 4308 c73c 3515 e9bd cbd1 03bd
00000040: 736f 27bd ef75 10be 3963 f23d e4fc f4bd
00000050: 6278 b43b 27ec c8bc bd7b 673d f3df a83d
00000060: 6ee1 2abd ac23 bfbc 7327 2e3d 1183 d1bd
00000070: 0766 efbb c913 08bb 8607 173d 4a1b 4dbd
00000080: 2d36 93bd 69d9 c83c f539 e03c 2800 063e
00000090: d4e4 a13d 0e20 2c3a fb40 f13b af9e d33d
000000a0: 1540 c7bd 1396 f0bd 99b5 2f3d 0c3a 90bc
000000b0: f1d0 693d a1ca 6dbd d4cf 69bd 2fb2 c2bd
000000c0: 9a97 bfbd fb05 b6bd acf2 0a3d f0c8 92bd
000000d0: 77ca 913a 47fd 8bbd 14f9 bb3c d6b3 e93d
000000e0: d9d5 4fbd ee37 f73c 7bc9 853d a48a a23d
000000f0: 5324 aa3d 1626 d4bd 2a3c d8bd d9d7 11be
-0.050078597 0.08378311 0.08660611 0.014049994 -0.0019233275 -0.10654969 0.07923731 -0.061325762
-0.03664266 -0.03457501 -0.09230533 -0.05332631 0.041665155 0.024295932 -0.11380998 -0.032182496
-0.04087777 -0.14107488 0.118353315 -0.119622976 0.005507515 -0.024526669 0.05651449 0.0824584
-0.041718893 -0.02333244 0.04251809 -0.10230077 -0.007305864 -0.0020763746 0.03687241 -0.050074853
-0.071880676 0.024517732 0.027371386 0.13085997 0.079049736 0.0006566056 0.0073624826 0.10333001
-0.097290196 -0.117473744 0.042897794 -0.017605804 0.057084028 -0.05805457 -0.057082966 -0.09506642
-0.093550876 -0.088878594 0.033922836 -0.07167232 0.0011122961 -0.06835418 0.022945918 0.11411254
-0.05074105 0.030178037 0.0653257 0.079366 0.083077095 -0.10358827 -0.105583504 -0.14242496

fc3.weight f4 [1, 64]
00000000: 25a2 64bd e667 08be 43c7 67bd 86e9 2e3d
00000010: 2a7b db3d be18 08bc ac70 08ba 113b 783d
00000020: 2988 a2bd d70a 093e 0bf6 c33d 7874 a8bd
00000030: f7af 273e 150c 4bba 7435 8e3d 5fd7 9e3d
00000040: d037 cb3d 461c 303d 76e6 053e 159f 663d
00000050: fb56 6cbd 7b1e 033e 868d fbbd c301 bfbd
00000060: 3942 6dba a1b2 aa3d 31a8 ccba e0f9 df3d
00000070: ac16 943d dca1 6f3d 759f aabd 2f95 e1b9
00000080: bba5 ae3c ed9c d43d 6c57 af3d 1773 0bbe
00000090: 83f3 c2bc 93f9 19be 724c 38be 9792 9cbc
000000a0: b8c1 033d e824 683d b554 9bbd a20a dcbd
000000b0: bb3a 41bd 9a43 0ebe f4ca 583d 01a5 9a3d
000000c0: fea9 9b3b 84fc aebd 591c 883d 2f54 a2bd
000000d0: f4f9 8f3d 3cd6 be3d 82f7 98bc e678 f93c
000000e0: fcbd ccbc c0c1 b8bd 6303 3f3d 1773 693d
000000f0: a988 123d 97c1 ea3c cfd0 403d bf15 4bbd
-0.055818696 -0.13320884 -0.056586515 0.042703174 0.10716851 -0.00830668 -0.00052047777 0.060603205
-0.07936127 0.13383041 0.09568413 -0.0822534 0.16375719 -0.0007745636 0.06943789 0.077559225
0.09922755 0.042995714 0.13076195 0.056304056 -0.05770014 0.12804596 -0.12282853 -0.09326508
-0.00090507005 0.08334852 -0.001561409 0.10936332 0.07230887 0.05850397 -0.08331195 -0.00043026495
0.02131926 0.10381494 0.08561596 -0.13618122 -0.023797756 -0.15036611 -0.17997912 -0.019112868
0.032167166 0.05667582 -0.07584516 -0.107442155 -0.04717515 -0.13892975 0.052927926 0.07551003
0.0047504893 -0.08544257 0.06646032 -0.07926213 0.07030097 0.09318206 -0.018672708 0.030453157
-0.024992935 -0.0902133 0.04663409 0.056994524 0.03577486 0.028656764 0.047074135 -0.049581286
