models/Q_net64_5_prF.pth (torch, 20999 bytes, 5 tensors)

fc1.weight f4 [64, 6]
0	0x3e02f214	0.12787658
1	0x3e6ec8b6	0.23318753
2	0xbebbe345	-0.3669683
3	0xbe779ede	-0.24181697
4	0x3dc1a290	0.094548345
5	0xbcd322eb	-0.025773486
6	0xbe3e100c	-0.18560809
7	0xbdd7c58a	-0.105357245
8	0xbd8e7e31	-0.06957663
9	0x3eae4b63	0.3404189
10	0x3d91cfd4	0.07119718
11	0xbeaba1f9	-0.33522013
12	0xbe9a2d95	-0.301129
13	0xbe51bc17	-0.20481907
14	0x3cef8ac0	0.029240966
15	0xbeae1930	-0.34003592
16	0x3e9dc0e2	0.3081122
17	0xbe8792b1	-0.26479104
18	0xbc748140	-0.014923394
19	0x3de30558	0.110850036
20	0xbe8e6876	-0.27814072
21	0x3d233a76	0.039850675
22	0xbe8e73d8	-0.27822757
23	0x3e1d19bd	0.1534185
24	0x3ea08647	0.31352445
25	0xbe58d055	-0.21173222
26	0x3e1197b4	0.14218026
27	0x3e09c986	0.13455781
28	0x3e5f6930	0.2181747
29	0xbcb1bfd0	-0.021697909
30	0x3e10f7e4	0.14157063
31	0x3d9d989a	0.07695122
32	0x3e1da21e	0.15393874
33	0x3d56abba	0.052409865
34	0x3cb891c0	0.022530437
35	0xbe63104e	-0.22174188
36	0x3e8d1f16	0.2756278
37	0x3b2afdc0	0.0026091188
38	0xbec54754	-0.38530982
39	0x3ec13918	0.37738872
40	0xbb735c80	-0.0037133992
41	0xbe3928ba	-0.18081942
42	0x3e56405c	0.20922989
43	0x3eb7b584	0.35880673
44	0x3d0d29ab	0.034463566
45	0xbdd103d4	-0.10205808
46	0xbe8a949b	-0.27066502
47	0x3ea266d2	0.3171907
48	0xbe59f020	-0.21283007
49	0xbea7729e	-0.32704633
50	0xbd7ef419	-0.06224451
51	0xbe66e918	-0.22549856
52	0xbe8cea52	-0.27522522
53	0x3e0547e4	0.13015705
54	0x3d270a78	0.04078147
55	0x3e363329	0.17792954
56	0x3e0fcd9b	0.14043276
57	0x3e43d747	0.1912509
58	0xbe2d9d4e	-0.16954538
59	0xbda311b8	-0.07962364
60	0x3e08a874	0.1334551
61	0xbe86b7c8	-0.2631209
62	0x3d08b9ae	0.033380203
63	0x3e849dd3	0.2590166
64	0x3dbc9d80	0.09209728
65	0xbe2656aa	-0.16243997
66	0xbea5dbfc	-0.32394397
67	0x3e15e4c3	0.14638047
68	0xbe15d182	-0.14630702
69	0xbed635b4	-0.41837847
70	0x3ec7b660	0.3900633
71	0x3de053c8	0.1095348
72	0x3c954a63	0.018223947
73	0x3ea3b03d	0.31970397
74	0xbe0e5ada	-0.13901845
75	0xbbffc419	-0.007805359
76	0xbd990bb8	-0.07472938
77	0x3e2d5d45	0.16930111
78	0x3edaf798	0.42767024
79	0x3e8fbe36	0.28074807
80	0x3d9fbb91	0.07799447
81	0x3a8df1a2	0.0010829458
82	0xbd1eb630	-0.038747966
83	0x3e946be5	0.28988567
84	0x3b61c45c	0.0034449315
85	0x3d0c8800	0.034309387
86	0xbda335ee	-0.07969271
87	0x3eec16a7	0.46111032
88	0x3cff2b80	0.031148672
89	0xbe4fc1bf	-0.20288752
90	0x3d0cdcac	0.034390137
91	0x3e4604e6	0.19337806
92	0x3ec9460e	0.3931126
93	0x3e812301	0.25222018
94	0x3e010ca8	0.12602484
95	0x3dd2eacd	0.10298691
96	0x3e804112	0.25049645
97	0xbeb278d2	-0.34857804
98	0xbebe8290	-0.37208986
99	0xbe99a3eb	-0.30007872
100	0x3d4010a0	0.046890855
101	0x3e04afc9	0.12957682
102	0x3eaef4d1	0.34171155
103	0xbeac9c5c	-0.33713043
104	0xbec08bfb	-0.37606797
105	0x3db0d3be	0.086341366
106	0xbd358f28	-0.044325978
107	0x3ed1fa06	0.41011065
108	0xbd5bdff5	-0.05368038
109	0xbdd2cf39	-0.10293431
110	0xbe966bbc	-0.2937907
111	0xbd66c243	-0.056337606
112	0x3d3fef30	0.046858966
113	0x3ead9db8	0.33909392
114	0xbeb67bf3	-0.3564144
115	0xbe566a39	-0.20938958
116	0x3dc88ed1	0.09792865
117	0x3ca585ad	0.020205343
118	0xbe00a6a0	-0.12563562
119	0x3eae85c7	0.3408644
120	0x3ed0cb76	0.40780228
121	0x39a31b53	0.0003111014
122	0xbdd50ded	-0.10403047
123	0xbea3194a	-0.31855232
124	0xbdcce018	-0.1000368
125	0xbeb5a65f	-0.35478494
126	0x3e83ffa0	0.25780964
127	0xbe1fde02	-0.15612033
128	0x3ecf6976	0.40510148
129	0xbdeae8a1	-0.11470152
130	0x3eba4656	0.36381787
131	0xbab9e8ff	-0.0014183818
132	0x3ee6d6b4	0.4508568
133	0x3e5b5c6b	0.21421973
134	0x3e53de1a	0.20690194
135	0x3e7cd916	0.24692187
136	0x3eb59dfe	0.354721
137	0xbe750eca	-0.23931423
138	0xbe05be9b	-0.13060991
139	0xbdd29fe0	-0.102844
140	0xbe355c78	-0.17711055
141	0x3dfb5187	0.122714095
142	0x3e5db4bc	0.21650976
143	0xbe3782d1	-0.17920996
144	0xbe9d38d3	-0.30707416
145	0x3d9f8bc6	0.077903315
146	0xbe7984cd	-0.24367066
147	0x3e709c2d	0.23497076
148	0xbdb11fe4	-0.08648661
149	0x3e8ac2c3	0.27101716
150	0xbcd32c04	-0.025777824
151	0x3dbf72c9	0.093480654
152	0x3eb6c659	0.35698202
153	0xbdf74dc8	-0.120753825
154	0x3e8cd86a	0.2750886
155	0xbdf15315	-0.11783425
156	0x3e880b53	0.2657114
157	0xbeb2f6d7	-0.3495395
158	0x3e898427	0.26858637
159	0x3de1bbd6	0.11022155
160	0xbd7b0600	-0.06128502
161	0x3e28282c	0.16421574
162	0x3c9bfe13	0.01904205
163	0xbe143cb9	-0.14476289
164	0x3c1cc5c6	0.009568637
165	0xbee8227b	-0.45338807
166	0xbd4b1b00	-0.049586296
167	0x3ec74143	0.38916978
168	0xbe913362	-0.28359514
169	0xbd5a628f	-0.05331665
170	0xbdeb532b	-0.114904724
171	0x3d12113d	0.03566097
172	0x3e8c746a	0.27432567
173	0xbeb31091	-0.34973577
174	0xbd000f78	-0.031264752
175	0xbe2c5ca3	-0.16832213
176	0xbe8d854d	-0.27640763
177	0xbe19a572	-0.15004519
178	0xbe5fdfd9	-0.21862735
179	0xbeb1d8c3	-0.3473569
180	0x3e9af952	0.3026834
181	0x3d78f052	0.060776062
182	0xbcf79274	-0.030221201
183	0xbeb675cf	-0.35636756
184	0x3ecddfc0	0.4020977
185	0x3e195d8f	0.14977096
186	0x3e84c4a4	0.25931275
187	0xbe05f814	-0.13082916
188	0xbeb89183	-0.36048517
189	0xbe4ccf83	-0.20001034
190	0xbe30cd19	-0.17265739
191	0x3e785303	0.24250416
192	0xbd7b80d3	-0.061402153
193	0x3da06240	0.0783124
194	0xbc8f9563	-0.017527288
195	0x3e1230ac	0.1427638
196	0x3e93058e	0.28715175
197	0x3e9a131c	0.30092704
198	0xbeb532c7	-0.35390303
199	0xbd6ac5ad	-0.057317425
200	0x3d76215f	0.06009042
201	0x3e3d147f	0.1846485
202	0xbe158b38	-0.14603889
203	0x3de67063	0.11251905
204	0xbe985974	-0.29755747
205	0xbe8b9c01	-0.2726746
206	0x3e89c44f	0.26907584
207	0xbece8964	-0.40339196
208	0xbe9ba8e6	-0.30402297
209	0x3eb0460a	0.34428436
210	0xbd2477b9	-0.04015324
211	0x3d0d6179	0.034516785
212	0xbe8f3459	-0.27969626
213	0xbe093d82	-0.1340237
214	0x3ebe48f0	0.37165022
215	0x3e2f7c38	0.1713723
216	0xbe3294d4	-0.17439586
217	0x3e6dee3c	0.2323541
218	0x3ebbae3e	0.36656374
219	0x3e2a87ab	0.16653316
220	0x3e453280	0.19257545
221	0xbeb5b6ec	-0.3549112
222	0x3d944cf0	0.07241237
223	0xbe1b9aa2	-0.15195706
224	0x3e409eed	0.18810625
225	0xbc5437d9	-0.012952768
226	0xbdc7b5a0	-0.09751439
227	0xbe6a0e76	-0.22857079
228	0x3dc00e25	0.09377698
229	0xbe3f90c2	-0.18707564
230	0xbe6a653b	-0.22890179
231	0x3e908db2	0.28233105
232	0xbe8babf6	-0.27279633
233	0xbe7a91c1	-0.24469663
234	0xbe632f60	-0.22186041
235	0x3dba8ee6	0.09109287
236	0x3d22614c	0.03964357
237	0xbefa6d37	-0.4891145
238	0xbe9e1c2b	-0.30880865
239	0xbe93f93a	-0.28901082
240	0x3eab9616	0.33512944
241	0xbeabba33	-0.33540496
242	0xbec33b39	-0.3813112
243	0xbea7264f	-0.32646415
244	0x3d2266e0	0.03964889
245	0x3eaee350	0.341578
246	0x3ea047da	0.31304818
247	0x3e838265	0.2568542
248	0xbedb6b3e	-0.42855257
249	0xbe5bf532	-0.21480253
250	0xbea9770e	-0.33098644
251	0xbe2d69b6	-0.16934857
252	0x3c8415b5	0.016123632
253	0xbdb1bece	-0.08678971
254	0x3e987459	0.29776266
255	0xbe92c380	-0.2866478

fc1.bias f4 [64]
0	0xbdb39477	-0.08768552
1	0xbe03ffa8	-0.12890494
2	0xbe8e7fb7	-0.27831814
3	0xbda6cacb	-0.081441484
4	0xbe8e4c1f	-0.2779245
5	0x3b81fb7f	0.0039667482
6	0x3ea460da	0.32105142
7	0xbe7a041f	-0.24415635
8	0x3e681bc3	0.2266684
9	0xbe454058	-0.19262826
10	0xbe9f95bc	-0.31168926
11	0xbe8f1719	-0.2794731
12	0x3c1f97e8	0.009740807
13	0x3e040edc	0.12896293
14	0x3e9fce23	0.31211957
15	0x3eb64392	0.35598427
16	0x3eb2fb8f	0.3495755
17	0x3eb4e80f	0.35333297
18	0xbe3e81fb	-0.18604271
19	0xbe6eebd2	-0.23332146
20	0x3ea43e21	0.3207865
21	0xbe0b647b	-0.13612549
22	0xbed6a0af	-0.41919467
23	0xbde0cfcb	-0.10977133
24	0x3ec27df1	0.3798671
25	0x3c43b4ea	0.011944989
26	0x3e41a7b3	0.18911628
27	0xbe1524f2	-0.14564875
28	0x3e078dbd	0.13237663
29	0x3d2e5386	0.042560123
30	0xbe913aad	-0.2836508
31	0x3e70a6cd	0.2350113
32	0x3ee284b5	0.44241872
33	0x3daa05e5	0.083019055
34	0x3e7ba0bd	0.24573036
35	0x3e8bfe40	0.27342415
36	0xbd8dfb41	-0.069326885
37	0xbe700617	-0.23439823
38	0x3ea854e4	0.32877266
39	0xbe23d2e3	-0.15998416
40	0x3d80359e	0.06260227
41	0x3ea3187e	0.31854624
42	0xbe1f329b	-0.15546648
43	0xbe51239a	-0.20423737
44	0xbb99746a	-0.004683067
45	0xbe980078	-0.29687858
46	0x3ea22c1d	0.3167428
47	0x3eaa1500	0.33219147
48	0x3e7c34a7	0.2462946
49	0x3ecf8bf3	0.4053646
50	0xbbddbc10	-0.0067668036
51	0x3e76bc07	0.24095164
52	0x3e3e769e	0.18599936
53	0xbe33fb88	-0.1757642
54	0x3de8d386	0.1136847
55	0xbe059201	-0.13043977
56	0xbe9799d4	-0.2960955
57	0x3df98564	0.12183645
58	0x3e2da4d9	0.16957416
59	0xbe973492	-0.29532295
60	0xb95dbb2f	-0.00021145934
61	0xbeaae982	-0.33381277
62	0xbe78b507	-0.24287806
63	0xbe8172ba	-0.25282842

fc2.weight f4 [64, 64]
0	0xbdc7dc1e	-0.09758781
1	0xbdc877c9	-0.09788472
2	0xbd766ed6	-0.060164295
3	0x3d8f05b9	0.069835134
4	0xbc4bea56	-0.012446007
5	0xbe1fb622	-0.15596822
6	0xbdc7e632	-0.09760703
7	0x3da9ec57	0.082970314
8	0x3d23c3ff	0.03998184
9	0xbd0fa976	-0.03507372
10	0xbc91e1e8	-0.017807916
11	0x3de5d6e5	0.112226285
12	0xbdb8f0d1	-0.09030307
13	0x3e147a70	0.14499831
14	0x3dc1ac41	0.09456683
15	0x3d40c1b1	0.04705972
16	0xbd3eba10	-0.04656416
17	0x3dad0bb2	0.08449496
18	0x3db9ffa1	0.090819605
19	0x3c6a30a4	0.014293823
20	0xbd8af455	-0.06784884
21	0x3daa51f2	0.08316411
22	0x3e03d6e3	0.12874942
23	0x3a75cb6e	0.00093763217
24	0x3c1b20bc	0.009468254
25	0x3c8d653f	0.017260192
26	0x3e00b223	0.12567954
27	0x3dee1fa3	0.11627128
28	0x3ce9c629	0.028536873
29	0x3cbb56d5	0.022868553
30	0x3d0da2a1	0.034578923
31	0xbdc812b3	-0.097691916
32	0xbcc5a728	-0.024127558
33	0xbdd77511	-0.105203755
34	0x3e0db8d0	0.13840032
35	0x3dd13923	0.10215976
36	0x3ddcf8ce	0.10789643
37	0xbce0d764	-0.027446456
38	0xbd70ee96	-0.058821283
39	0xbd43bb2b	-0.04778592
40	0x3d8ae5cc	0.067821115
41	0x3dc6c9f1	0.09706486
42	0x3e0ef76f	0.13961576
43	0xbc218319	-0.009857916
44	0xbcafefce	-0.021476652
45	0xbbe2d3c3	-0.0069222166
46	0xbdf91e62	-0.12163998
47	0xbb7b5f58	-0.003835639
48	0x3d64bb11	0.055842463
49	0x3d115179	0.03547809
50	0x3d4dbab4	0.050226882
51	0x3d4f2092	0.05056817
52	0xbe053136	-0.13007054
53	0xbd498f5f	-0.049208995
54	0x3d3ed976	0.046594106
55	0x3cd95949	0.026531832
56	0x3d8f1513	0.069864415
57	0x3ddddde1	0.10833336
58	0xbdf769fe	-0.12080763
59	0x3da04c17	0.07827013
60	0xbd2ae5b2	-0.04172296
61	0x3df844fd	0.121225335
62	0x3e30055a	0.17189541
63	0x3d171e83	0.036894333
64	0xbe3017d8	-0.17196596
65	0x3d421b26	0.047389172
66	0xbd94f1eb	-0.07272705
67	0xbda60046	-0.08105521
68	0xbdcf8f01	-0.10134698
69	0xbdc632c7	-0.09677654
70	0x3d5cb25c	0.053881034
71	0x3aa5eec2	0.0012659656
72	0xbde7dd5d	-0.113215186
73	0xbd216331	-0.039401237
74	0xbd04ff65	-0.032470126
75	0x3d040ef0	0.032240808
76	0x3dcfc725	0.10145406
77	0x3d9e069d	0.07716105
78	0xbaa708dd	-0.001274373
79	0x3d2952b5	0.04133864
80	0x3d7f9adb	0.06240354
81	0xbde1cc2e	-0.11025272
82	0x3d6c52ab	0.057696026
83	0xbd3a9f64	-0.045562163
84	0xbda944d3	-0.0826508
85	0x3dbd2a78	0.09236616
86	0x3d10e3da	0.035373546
87	0x3d66ade6	0.056318186
88	0xbdbad37c	-0.09122369
89	0xbd801262	-0.06253506
90	0xbd90e91f	-0.07075714
91	0x3d54248d	0.05179267
92	0x3df51074	0.11966029
93	0xbdc84071	-0.09777916
94	0x3d4c499c	0.049874887
95	0xbd0e830c	-0.034792945
96	0x3c98b27c	0.018639795
97	0x3cbaeda7	0.0228184
98	0xbde0d6b0	-0.109784484
99	0x3d559c3a	0.052150942
100	0x3c568377	0.013092867
101	0xbd32cf58	-0.04365477
102	0x3cd43810	0.025905639
103	0xbac268c7	-0.0014832251
104	0x3df5db1e	0.12004684
105	0x3d6b8eef	0.05750936
106	0x3dea1612	0.11429991
107	0xbd171125	-0.036881585
108	0xbd218d1e	-0.03944122
109	0x3cc153af	0.023599474
110	0x3d3d11d2	0.046159573
111	0xbd6f46b5	-0.05841704
112	0x3d1bd88d	0.038048316
113	0x3d5a473c	0.05329059
114	0xbd5ac7ea	-0.05341331
115	0x3d430ee8	0.047621638
116	0x3e05e61c	0.13076061
117	0xbd08eb2e	-0.03342741
118	0xbc98d35e	-0.018655475
119	0xbdc55f1f	-0.096372835
120	0xbc7ba3c1	-0.015358866
121	0xbdbd5e16	-0.09246461
122	0x3d94f88d	0.0727397
123	0x3da57fc1	0.08081008
124	0xbdd62428	-0.10456115
125	0xbd4726d5	-0.048621017
126	0xbdeab56d	-0.114603855
127	0x3d883c3e	0.06652115
128	0xbd7d9a1e	-0.061914556
129	0xbdaceb41	-0.084433086
130	0xbdcff65f	-0.101544134
131	0x3d63d993	0.055627417
132	0x3ddd3136	0.10800402
133	0xbc1cfe4a	-0.009582112
134	0x3d48a095	0.048981268
135	0x3d9b4434	0.07581368
136	0xbe11ff95	-0.14257653
137	0x3d8236a5	0.06358079
138	0xbcbdbb20	-0.023160517
139	0x3da027fd	0.07820127
140	0xbdcdb54a	-0.10044344
141	0x3d986245	0.074406184
142	0xbc1816b2	-0.009282755
143	0x3c97c4b4	0.018526413
144	0x3af5d195	0.0018754477
145	0xbc637a13	-0.013884085
146	0xbc40bd67	-0.011763907
147	0x3cde1287	0.027108444
148	0xbcd44d40	-0.025915742
149	0xbcd4d32c	-0.0259796
150	0x3cfbadc7	0.030722512
151	0x3dbda9a8	0.09260875
152	0xbdd82eb5	-0.10555784
153	0x3d52c434	0.051456645
154	0xbc14d785	-0.009084587
155	0x3d85da16	0.06535737
156	0x3d0ad5dd	0.033895362
157	0x3da38982	0.07985212
158	0xbd0a9ab7	-0.033838954
159	0x3be091b8	0.0068533085
160	0x3cc25370	0.023721427
161	0x3d5e243a	0.054233767
162	0x3cdf08a3	0.027225798
163	0xbdbdf3b2	-0.09274997
164	0xbd6988e7	-0.057015326
165	0xbdd36227	-0.103214554
166	0x3cc05280	0.023476839
167	0xbc2e2cd7	-0.010630808
168	0xbdc33fcc	-0.09533653
169	0x3d8dffc2	0.069335476
170	0xbd86e084	-0.06585792
171	0x3dded6bf	0.10880803
172	0xbd715a09	-0.058923755
173	0xbde7c938	-0.11317676
174	0xbdded212	-0.108799115
175	0x3c19d71c	0.009389665
176	0xbdb11b0f	-0.08647739
177	0xbcdb523e	-0.026772615
178	0x3dddce7b	0.10830399
179	0xbd5356c2	-0.05159641
180	0xbda9793a	-0.08275075
181	0xbda0e3bb	-0.07855936
182	0xbe0e9f34	-0.13927919
183	0x3c16df95	0.00920858
184	0xbbd76bd3	-0.006574133
185	0xbd9cf552	-0.07663979
186	0xbd93bd59	-0.072138496
187	0x3d8c08b9	0.06837601
188	0xbd472dd7	-0.0486277
189	0xbdf0e103	-0.117616676
190	0x3d94ff99	0.07275314
191	0xbd0699e3	-0.0328616
192	0xbe1d3a87	-0.15354358
193	0x3d28cd2a	0.041211285
194	0x3d7c721a	0.061632253
195	0xbddb956d	-0.1072186
196	0xbda50de6	-0.080592915
197	0x3d8a27d7	0.0674588
198	0xbcc60d20	-0.02417618
199	0xbdb6b4c3	-0.08921196
200	0x3ceba89d	0.028766925
201	0x3cfcd1e4	0.030861802
202	0xbd6763c6	-0.056491636
203	0xbd92f900	-0.07176399
204	0x3dae1552	0.0850016
205	0x3e098c69	0.13432468
206	0xbce280c0	-0.027649283
207	0x3da063fe	0.07831572
208	0xbd55fd93	-0.05224378
209	0x3d8a9e60	0.06768489
210	0x3c8f41dc	0.017487459
211	0xbe0c7e89	-0.13720144
212	0xbd850597	-0.06495207
213	0xbc6a6c80	-0.014308095
214	0x3e1fbff1	0.15600564
215	0x3dbb56e9	0.09147436
216	0xbd04535e	-0.032306068
217	0xbd561987	-0.05227044
218	0x3d9ed70b	0.0775586
219	0xbd3eba28	-0.04656425
220	0xbc9dd459	-0.019266294
221	0xbce6b693	-0.02816323
222	0xbd015f04	-0.031584755
223	0xbc31c9a4	-0.0108512975
224	0xbd8dcdbb	-0.069240056
225	0xbdb67ba5	-0.08910302
226	0x3d44c86d	0.048042703
227	0xbce19eff	-0.027541636
228	0xbd49b319	-0.049243066
229	0xbde30fb2	-0.11086978
230	0x3d57553e	0.052571528
231	0x3cc12446	0.023576867
232	0x3d954f5f	0.072905295
233	0x3c325470	0.010884389
234	0xbde1bc03	-0.110221885
235	0xbda56529	-0.080759354
236	0x3ca388ea	0.019962747
237	0x3ddf784c	0.10911617
238	0xbd55ff59	-0.05224547
239	0xbd47aba3	-0.04874767
240	0xbb8acb4f	-0.004235662
241	0xbe0aeefe	-0.13567731
242	0xbde7ac45	-0.11312155
243	0x3b6f8b4d	0.0036551536
244	0x3dac6eef	0.084195964
245	0xbc160d6c	-0.009158473
246	0x3d6d6de3	0.057966124
247	0xbd93a27e	-0.07208727
248	0xbde5d1e4	-0.11221674
249	0x3d9a6bff	0.0754013
250	0x3d46ac55	0.048504192
251	0x3d6ebdfc	0.058286652
252	0xbb1840a3	-0.0023231886
253	0xbdedc210	-0.1160928
254	0xbd6afcb6	-0.05736991
255	0xbd1d9cf5	-0.038479764

fc2.bias f4 [64]
0	0xbc125487	-0.008931286
1	0xbdefbf3d	-0.11706398
2	0x3d312d82	0.04325629
3	0x3da6ccbc	0.08144519
4	0x3d163dbd	0.036679972
5	0xb886c4d0	-6.426277e-05
6	0xbe187709	-0.14889158
7	0xbd930b4e	-0.071798906
8	0x3da2edfa	0.07955547
9	0x3d8a870b	0.06764039
10	0xbe0577b1	-0.1303394
11	0xbc8b949c	-0.017038636
12	0xbcc66ec8	-0.024222746
13	0x3d18ccfc	0.037304863
14	0xbdd5ef4a	-0.104460314
15	0xbd9734ce	-0.073831186
16	0xbde0d93b	-0.109789334
17	0xbda5b206	-0.08090596
18	0xbdc2a702	-0.095045105
19	0x3d5c786b	0.053825777
20	0x3c36c095	0.011154314
21	0x3c7bee57	0.015376649
22	0x3dce1289	0.10062129
23	0xbc40e795	-0.011773963
24	0xbdd82173	-0.10553255
25	0xbd9da2b8	-0.07697052
26	0x3d0f0b25	0.034922738
27	0x3d82c341	0.06384898
28	0x3b99bd4b	0.004691755
29	0x3ba64d48	0.0050751306
30	0xbd8b2b5f	-0.06795382
31	0xbbafd204	-0.005365612
32	0x3c7a8e9b	0.015292789
33	0x3d93b92e	0.072130546
34	0xbe0b8a7c	-0.13627046
35	0x3d77d744	0.060508028
36	0x3aa05fd1	0.0012235587
37	0xbca0661a	-0.019579936
38	0x3dba50e6	0.090974614
39	0x3dcf8e17	0.10134523
40	0xbdf7e989	-0.1210509
41	0x3d4779f8	0.048700303
42	0xbdd8832c	-0.10571894
43	0x3d6cb0ed	0.057785917
44	0x3c9472f9	0.01812123
45	0x3dc348b4	0.095353514
46	0x3d3920c8	0.04519728
47	0xbcc08ac3	-0.023503667
48	0xbd861a4b	-0.06547984
49	0x3d9df5c4	0.07712892
50	0x3caba20c	0.020951293
51	0xbd7e5d7b	-0.06210087
52	0x3dc32ebf	0.095304005
53	0xbde9ce66	-0.114163205
54	0x3dc1ecab	0.09468969
55	0xbc2fe9d8	-0.010736905
56	0xbdb3b4ef	-0.08774745
57	0x3d7020bc	0.058624968
58	0x3cd70bbf	0.026250718
59	0x3d0c6ac2	0.0342815
60	0x3d807be2	0.06273629
61	0x3d9dbbe7	0.07701855
62	0x3da692c5	0.08133463
63	0xbd5af15a	-0.053452827

fc3.weight f4 [1, 64]
0	0xbd6e072a	-0.0581123
1	0xbc35d12d	-0.011097235
2	0x3d7cb9bc	0.061700568
3	0x3c391e69	0.011298754
4	0x3b835a9b	0.0040086037
5	0xba3a47b4	-0.00071060215
6	0xba2cb589	-0.000658833
7	0x3da7747b	0.08176514
8	0xbd91713f	-0.07101678
9	0x3ab0ccff	0.0013488828
10	0xbdc34770	-0.0953511
11	0x3c8f9b66	0.017530154
12	0x3abe5359	0.0014520689
13	0xbd0b8fd6	-0.03407272
14	0xbdf762a6	-0.120793626
15	0xbdc248da	-0.094865516
16	0xbd8b639b	-0.068061076
17	0x3e020c11	0.12699915
18	0xbd293e0f	-0.04131895
19	0xbc524a9f	-0.012835174
20	0xbca51085	-0.020149479
21	0x3c9d69cf	0.019215493
22	0xbdad44a4	-0.08460358
23	0xbd449c06	-0.048000358
24	0xbd28c13e	-0.041199915
25	0x3d8813d2	0.066444054
26	0x38c008e4	9.1569294e-05
27	0x3d9c856b	0.07642635
28	0x3da44bbe	0.08022259
29	0x3d92bbe7	0.07164746
30	0x3c0d3baf	0.008620187
31	0x3d4bc661	0.049749736
32	0xbc2db5f9	-0.010602468
33	0xbc92698b	-0.017872592
34	0x3c7efe82	0.015563609
35	0x3c8a2571	0.016863557
36	0x3d09bc34	0.03362675
37	0xbbb5e788	-0.0055512823
38	0x3dfbbf06	0.12292294
39	0xbdf8b102	-0.121431366
40	0x39ddae9e	0.00042282505
41	0xbdf7e701	-0.121046074
42	0x3daffd3f	0.08593225
43	0x3d934c5d	0.071922995
44	0x3b943087	0.0045223865
45	0x3d4b04e5	0.049565215
46	0xbd33dda4	-0.043912545
47	0xbd3824a2	-0.04495681
48	0xba20ee3e	-0.00061390165
49	0xbd8f0ac1	-0.06984473
50	0x3d3aa19c	0.04556428
51	0x3d96ecd7	0.07369392
52	0xbdb8bdae	-0.090205535
53	0x3e00f659	0.12593974
54	0xbd9973ba	-0.07492776
55	0xbe0e7f7a	-0.13915816
56	0xbc221515	-0.009892722
57	0xbe0b905f	-0.13629292
58	0xbc874e20	-0.016516745
59	0x3db82543	0.08991482
60	0xbd4c64f2	-0.049900956
61	0x3bf1aceb	0.0073753498
62	0xbdd1a233	-0.10236015
63	0xbdaba64d	-0.08381329
