models/Q_net64_15_prTpro.pth (torch, 21031 bytes, 5 tensors)

fc1.weight f4 [64, 6]
0	0xbdeadb0d	-0.11467562
1	0x3ebffffb	0.37499985
2	0xbecdc3c6	-0.40188426
3	0x3e8f2c00	0.27963257
4	0x3e5e2220	0.21692705
5	0xbe12f702	-0.14352039
6	0xbedb2b3b	-0.4280642
7	0xba16d155	-0.0005753239
8	0x3c20504e	0.009784771
9	0xbf35340a	-0.7078253
10	0xbe8da8fc	-0.27667987
11	0xbd692df5	-0.056928594
12	0xbde263cc	-0.11054191
13	0x3e5b7410	0.21430993
14	0xbd5445ca	-0.05182437
15	0xbe4507d3	-0.19241266
16	0x3e8b694e	0.2722878
17	0xbd824b85	-0.063620605
18	0xbd8c5601	-0.068523414
19	0x3e5f629c	0.2181496
20	0xbe738e30	-0.23784709
21	0xbdc9ae07	-0.09847646
22	0xbea8ce9f	-0.3297014
23	0xbdbf5e93	-0.093442105
24	0x3e406f54	0.18792468
25	0x3e888d1c	0.26670158
26	0xbb793bc3	-0.0038030006
27	0xbdea1f5d	-0.11431763
28	0x3eae9a92	0.34102303
29	0xbe610b6c	-0.21977013
30	0xbf1ea2e7	-0.6196732
31	0xbe6037bf	-0.21896265
32	0x3d2cbd5e	0.042172782
33	0xbe326d69	-0.17424549
34	0xbeb54d78	-0.35410666
35	0xbe8ff0c7	-0.28113386
36	0x3e068eb5	0.13140376
37	0xbc096ab8	-0.00838726
38	0xbe0b4997	-0.13602291
39	0x3e30b304	0.17255789
40	0x3ed0d874	0.4079014
41	0xbecd42e4	-0.40090096
42	0x3e9a6cbc	0.30161083
43	0x3e30ff82	0.17284968
44	0xbe0c25f8	-0.13686359
45	0xbe775fc0	-0.2415762
46	0xbecea6d6	-0.4036166
47	0xbea02d24	-0.3128444
48	0x3e47c8ba	0.19510165
49	0xbed7f7e0	-0.421813
50	0x3d3123b2	0.043246932
51	0xbe7210f4	-0.2363928
52	0xbe28626e	-0.16443798
53	0xbf05ae37	-0.52218956
54	0xbe1bd62e	-0.15218422
55	0x3d7ea635	0.062170226
56	0x3eb83c97	0.35983726
57	0xbd318bf5	-0.043346364
58	0xbebfe1cf	-0.37476966
59	0x3e6c8d36	0.23100743
60	0x3e3f7c33	0.18699722
61	0xbec6ba53	-0.3881403
62	0x3b84427e	0.004036247
63	0xbdadd4cf	-0.08487856
64	0x3bf7f840	0.0075674355
65	0xbd41661e	-0.047216527
66	0xbea899bb	-0.32929787
67	0xbea61526	-0.3243801
68	0xbd3d23c1	-0.046176676
69	0xbe744bb8	-0.2385701
70	0x3dc06298	0.09393805
71	0x3d468dac	0.048474953
72	0x3e729f78	0.23693645
73	0xbe9f144d	-0.31070176
74	0x3e1540fb	0.1457557
75	0x3d69ef64	0.057113066
76	0xbebdaa60	-0.37044048
77	0x3ea67336	0.32509774
78	0xbe64dd59	-0.22350062
79	0xbf1e55dd	-0.61849767
80	0x3e44d01e	0.19220015
81	0xbb99745e	-0.0046830615
82	0xbdf80048	-0.12109429
83	0xbe8139ba	-0.25239354
84	0x3d26ef97	0.040755834
85	0xbeb3399c	-0.3500489
86	0x3cb89869	0.022533612
87	0xbe5fff54	-0.21874744
88	0x3d250bf8	0.040294617
89	0xbee01946	-0.43769282
90	0xbecbb4e2	-0.3978644
91	0xbd50ee62	-0.05100859
92	0x3e89368a	0.26799423
93	0xbe7cf8c9	-0.24704279
94	0xbdb264d8	-0.08710641
95	0x3ec05d27	0.3757107
96	0xbde12a0e	-0.109943494
97	0x3dfd79c2	0.12376739
98	0xbdcf1484	-0.10111335
99	0xbd1e233f	-0.038607832
100	0xbe7a0733	-0.24416809
101	0xbdf277c1	-0.118392475
102	0x3e0aab2c	0.1354186
103	0x3e35a0e5	0.17737158
104	0xbdd947e9	-0.10609419
105	0x3db3dbd1	0.08782161
106	0xbeb76334	-0.35817873
107	0x3d70ad35	0.058758933
108	0x3d8cefdd	0.06881688
109	0x3e117e43	0.14208321
110	0x3e590f5a	0.21197262
111	0x3e327f55	0.17431386
112	0xbe89e579	-0.26932886
113	0x3eb7e816	0.35919255
114	0x3d801683	0.06254294
115	0xbe4014c5	-0.18757923
116	0x3e9106fb	0.28325638
117	0xbe9f714f	-0.31141135
118	0x3ebc4a58	0.3677547
119	0xbe11b474	-0.14228994
120	0xbe4d7ad0	-0.2006638
121	0x3da2fe09	0.079586096
122	0x3e82cbe9	0.25546196
123	0xbea92748	-0.33037782
124	0x3d611640	0.05495286
125	0xbebd9d0f	-0.3703389
126	0xbe2589e1	-0.16165878
127	0xbe9652f4	-0.29360163
128	0xbe53e9c6	-0.20694646
129	0x3c267f87	0.010162241
130	0x3db04f44	0.08608869
131	0x3df63647	0.12022071
132	0x3e4833a9	0.19550957
133	0xbe169670	-0.14705825
134	0x3e5f2fb8	0.21795547
135	0xbe37652e	-0.1790969
136	0xbe29f643	-0.16597848
137	0xbe0e0570	-0.13869262
138	0xbe35a8f6	-0.17740235
139	0xbdf8fa0a	-0.12157066
140	0x3e41b83d	0.18917938
141	0xbcbfcd83	-0.023413425
142	0x3e700b64	0.23441845
143	0x3e24f869	0.16110386
144	0xbe6bb508	-0.23018277
145	0x3de31705	0.11088375
146	0xbe242938	-0.16031349
147	0xbea6ca1b	-0.3257607
148	0x3e557058	0.20843637
149	0xbdefe644	-0.117138416
150	0xbe996ac6	-0.29964274
151	0xbe9fd532	-0.31217343
152	0xbe2b09c5	-0.16702946
153	0xbf04ccc6	-0.5187496
154	0x3eb77370	0.3583026
155	0xbe8c9200	-0.2745514
156	0xbe6d1ede	-0.23156306
157	0xbe855ef0	-0.26048994
158	0x3ecb3015	0.3968512
159	0xbe91ca89	-0.28474835
160	0x3e787e64	0.24266964
161	0xbe9a27dc	-0.30108535
162	0xbe966e09	-0.29380825
163	0x3e0e8337	0.13917242
164	0x3e904d64	0.28184044
165	0xbe3986b0	-0.18117785
166	0x3df95ed0	0.12176287
167	0xbc9620b3	-0.01832614
168	0xbd116708	-0.03549865
169	0x3e86bbec	0.26315248
170	0x3ea5d560	0.32389355
171	0xbeec829b	-0.46193394
172	0xbdabc4a8	-0.083871186
173	0x3c3d0b7a	0.011538381
174	0x3e253cdc	0.16136497
175	0xbeafa6c4	-0.3430692
176	0xbebb95b8	-0.36637664
177	0xbe9f8709	-0.3115771
178	0xbebe2e83	-0.3714486
179	0xbd0e7d90	-0.034787714
180	0xbe567760	-0.20943975
181	0xbe1a057e	-0.15041158
182	0xbe9e801e	-0.3095712
183	0xbea67ba0	-0.32516193
184	0xbdae7cc4	-0.08519891
185	0xbe7d7e90	-0.24755311
186	0x3e77db13	0.24204664
187	0x3e6f25a9	0.2335421
188	0xbe947143	-0.28992662
189	0x3e051d87	0.12999545
190	0xbec139c2	-0.37739378
191	0xbd9ba2f6	-0.07599442
192	0x3c880296	0.016602796
193	0x3e0a7345	0.13520534
194	0x3e4cc52a	0.19997087
195	0xbe7e75d2	-0.24849632
196	0x3cb4e590	0.02208212
197	0xbe461570	-0.19344115
198	0x3eb8a8d4	0.36066306
199	0xbe6cef81	-0.23138238
200	0xbe6b6871	-0.2298906
201	0x3af43600	0.0018631816
202	0x3d9632d0	0.073339105
203	0xbe7bbfb3	-0.24584846
204	0xbdab3e62	-0.08361508
205	0x3e25e1b1	0.16199376
206	0x3ecd003d	0.40039244
207	0x3d5b04b7	0.053471293
208	0x3c4f5360	0.0126541555
209	0xbdbb50cf	-0.091462724
210	0xbe4ebdc2	-0.20189574
211	0xbd85e5af	-0.06537949
212	0x3df1c1cc	0.11804542
213	0x3dae34d7	0.08506172
214	0xbeb99a3a	-0.36250478
215	0x3de93d68	0.113886654
216	0xbde38f31	-0.11111296
217	0xbe2df569	-0.16988148
218	0xbd8b89ef	-0.06813418
219	0xbf46148c	-0.773751
220	0xbe93048c	-0.28714406
221	0xbd615c9e	-0.055019967
222	0x3e210f59	0.15728511
223	0x3d55573b	0.052085143
224	0xbe9916ca	-0.299002
225	0x3e9cd73b	0.30632958
226	0x3d23d580	0.03999853
227	0xbe7b04a1	-0.24513485
228	0xbe61ae1c	-0.22039074
229	0xbe24e3f4	-0.16102582
230	0x3e9f2a7c	0.310871
231	0xbed3e84e	-0.41388172
232	0x3e6e35c4	0.23262697
233	0x3ec45e32	0.38353115
234	0xbe2952ec	-0.16535538
235	0xbc00da38	-0.007864527
236	0xbd7af576	-0.061269246
237	0xbf3de2c3	-0.74174136
238	0xbeafface	-0.34371036
239	0x3d12fa75	0.035883386
240	0xbd979662	-0.0740173
241	0xbe76ab28	-0.24088728
242	0x3e07db73	0.13267307
243	0xbe3ce979	-0.18448438
244	0xbd9a01dc	-0.07519886
245	0xbe660524	-0.22462898
246	0x3d4018b3	0.046898555
247	0xbea60731	-0.32427362
248	0x3e903d0f	0.28171584
249	0xbef0156d	-0.46891347
250	0xbe0f8374	-0.14014989
251	0x3e3dda48	0.18540299
252	0xbec68e3e	-0.38780397
253	0xbd7aa0e8	-0.06118861
254	0x3e784285	0.24244125
255	0xbf26290a	-0.6490637

fc1.bias f4 [64]
0	0xbe04d46e	-0.1297166
1	0xbee2e0e7	-0.44312212
2	0x3ebb15ee	0.3654017
3	0x3ea82e6e	0.32847923
4	0x3d0c7222	0.034288533
5	0x3cac3a1b	0.0210238
6	0x3e6e7276	0.23285851
7	0xbd6d9182	-0.058000095
8	0x3d875533	0.06608047
9	0xbe862cad	-0.2620596
10	0x3e60d46a	0.2195603
11	0xbd389a5a	-0.045069076
12	0x3e89dd82	0.2692681
13	0xbededaea	-0.43526393
14	0x3eddb69a	0.43303376
15	0xbe92a355	-0.28640237
16	0xbdb37537	-0.08762591
17	0x3e754127	0.23950635
18	0x3d406209	0.046968494
19	0x3e41c06c	0.1892106
20	0xbeb22736	-0.3479554
21	0x3e97541e	0.29556364
22	0x3e6bd0e8	0.2302891
23	0xbeb7a095	-0.35864702
24	0x3c22d65b	0.009938802
25	0x3e2f59e9	0.17124142
26	0x3e823b14	0.25435698
27	0xbe71b203	-0.23603062
28	0x3e8d6602	0.27616888
29	0xbd0f4530	-0.03497809
30	0xbe943755	-0.28948465
31	0x3ee4db82	0.4469872
32	0x3e8e1852	0.2775293
33	0xbec69d1b	-0.38791737
34	0x3d1e1f9a	0.038604356
35	0xbe7de5bf	-0.24794672
36	0x3e9639bc	0.29340923
37	0x3eba80fb	0.3642653
38	0x3e89dfd3	0.26928577
39	0x3c8ea1be	0.017411109
40	0x3e2809eb	0.16410033
41	0x3ed44b3c	0.4146365
42	0xbeb780ab	-0.35840353
43	0x3ee5abd0	0.44857645
44	0xbda6016e	-0.081057414
45	0xbd87158b	-0.06595906
46	0x3e9ed591	0.31022313
47	0xbd9d9fb1	-0.07696474
48	0xbe80032b	-0.25002417
49	0xbdacb26e	-0.0843247
50	0xbeb76564	-0.35819542
51	0xbe12b5b8	-0.14327133
52	0x3da83794	0.08213726
53	0xbe5ea582	-0.21742824
54	0x3e6cdaca	0.23130336
55	0xbe8352d7	-0.2564914
56	0xbe23f10a	-0.16009918
57	0xbd00a5e2	-0.0314082
58	0xbe690c08	-0.22758496
59	0xbf205cff	-0.626419
60	0xbd0fa453	-0.03506882
61	0x3e7fc374	0.24976903
62	0x3eeb4c1b	0.459565
63	0xbe63ddeb	-0.22252624

fc2.weight f4 [64, 64]
0	0x3dbfe5b5	0.09369985
1	0xbccf99da	-0.025341917
2	0xbd0a2ef2	-0.033736177
3	0xbe040e0d	-0.12895985
4	0xbdb251c8	-0.08707005
5	0x3d90c232	0.0706829
6	0x3bbf1a41	0.005831987
7	0xbce77950	-0.028256088
8	0xbd94b352	-0.07260765
9	0xbd9a41cd	-0.07532082
10	0x3dd422d4	0.103582054
11	0x3cd74189	0.026276367
12	0xbc324046	-0.010879582
13	0xbe1eda85	-0.15513046
14	0xbb0cd25e	-0.0021487693
15	0xbdbba31e	-0.091619715
16	0xbd0c6a80	-0.034281254
17	0xbd5ce51d	-0.053929437
18	0x3d230127	0.03979602
19	0x3bb581e0	0.005539164
20	0xbded798a	-0.11595447
21	0x3d58b8c0	0.052910566
22	0xbdb868db	-0.090043746
23	0xbe042936	-0.12906346
24	0x3da2cbc8	0.079490244
25	0x3d45e695	0.048315603
26	0xbcdd389d	-0.027004534
27	0x3b8e31a3	0.0043394133
28	0x3d997512	0.074930325
29	0x3c853e48	0.01626505
30	0xbcf35880	-0.029705286
31	0xbd9b1f2b	-0.07574304
32	0xbdfb4089	-0.122681685
33	0x3d3b18dc	0.045678005
34	0xbda02255	-0.07819048
35	0xbdd568ab	-0.104203545
36	0x3d761b15	0.06008442
37	0x3cbb610e	0.022873428
38	0x3cdb0845	0.026737342
39	0xbcbebf61	-0.023284616
40	0xbb2c61df	-0.0026303453
41	0xbd5cc2f3	-0.053896856
42	0x3d75a2ca	0.0599697
43	0x3daeab6a	0.085287884
44	0xbd8a67bf	-0.06758069
45	0xbd8c8609	-0.06861503
46	0xbddecaf4	-0.10878554
47	0xbd811ab8	-0.06303924
48	0xbcd2e8b2	-0.025745723
49	0xbd384445	-0.044986982
50	0x3d9b1763	0.0757282
51	0xbd17f956	-0.03710302
52	0xbdec224b	-0.11529978
53	0xbd0069a5	-0.03135075
54	0xbd869fea	-0.0657347
55	0xbd43cb20	-0.047801137
56	0xbcddad03	-0.027060037
57	0xb927fb33	-0.0001601994
58	0xbe0d305f	-0.13787983
59	0xbda30733	-0.079603575
60	0x3d1fef95	0.039046843
61	0x3c0fac15	0.008769055
62	0x3de9d608	0.11417776
63	0x3d741246	0.05958774
64	0x3ddf7133	0.10910263
65	0xbc6dd55a	-0.014516199
66	0x3ea698bc	0.32538402
67	0x3e54b68a	0.20772758
68	0xbd8db82d	-0.06919894
69	0xbd02e8d9	-0.031960342
70	0x3dba755c	0.09104416
71	0xbe45e374	-0.19325048
72	0x3e06477b	0.13113205
73	0xbd0d7c64	-0.034542456
74	0xbd600854	-0.054695442
75	0x3d7fa919	0.062417123
76	0x3d91499f	0.0709412
77	0x3e337a39	0.17527093
78	0x3d5a16cb	0.053244393
79	0x3dd772c9	0.105199404
80	0xbdc006fa	-0.09376331
81	0xbd8c29b0	-0.06843889
82	0xbd385034	-0.044998363
83	0xbe4013a7	-0.18757497
84	0x3e4a34e9	0.19746746
85	0x3e05530d	0.13019963
86	0x3e2b01a8	0.1669985
87	0x3d626eda	0.055281498
88	0x3b6a125b	0.0035716507
89	0x3dce8522	0.10083987
90	0x3e19c9f8	0.15018451
91	0x3e936b5e	0.28792852
92	0xbd7013f4	-0.05861278
93	0x3cd16a40	0.02556336
94	0xbcc1d530	-0.023661226
95	0xbdb93c8f	-0.09044754
96	0x3e18e46e	0.14930889
97	0x3c59d640	0.01329571
98	0x3e429953	0.19003801
99	0xbdae53fb	-0.08512112
100	0x3ab075a1	0.001346279
101	0xbe47d011	-0.19512965
102	0x3d7ebbef	0.062190946
103	0x3e18599d	0.14877935
104	0x3e308575	0.1723841
105	0x3e83e9be	0.2576427
106	0x3e8a960e	0.27067608
107	0x3e320dd1	0.17388083
108	0x3d4c61cc	0.049897954
109	0x3a13e7f8	0.0005642171
110	0x3e0af1cb	0.13568799
111	0x3d9fcb10	0.07802403
112	0x3dd2f28e	0.1030017
113	0xbe4fa73d	-0.2027864
114	0x3e2512aa	0.16120401
115	0xbd0bf58b	-0.034169715
116	0xbd6a91b8	-0.057267874
117	0x3e31d98e	0.17368147
118	0x3df47c62	0.11937787
119	0xbd998deb	-0.07497772
120	0xbd79144c	-0.060810372
121	0xbcf70a5e	-0.03015631
122	0xbd1eee42	-0.03880144
123	0xbd91cf1a	-0.071195796
124	0xbda72f4e	-0.081633195
125	0xbb768ccf	-0.003762055
126	0xbd3a8e6a	-0.045545973
127	0x3d6ebc0d	0.058284808
128	0x3cea7b5a	0.028623272
129	0xbd91c130	-0.07116926
130	0xbd2ba5da	-0.041906215
131	0x3bf2f2db	0.0074142045
132	0xbcd3565b	-0.025798013
133	0xbdbfd68e	-0.09367095
134	0x3d21ac6d	0.03947108
135	0x3cc302e4	0.02380509
136	0xbdf16e14	-0.11788574
137	0xbe264bb5	-0.16239817
138	0x3e3fc31f	0.18726777
139	0x3df60b14	0.12013832
140	0xbd00d441	-0.03145242
141	0x3bcb4e0e	0.006204373
142	0xbdf89b02	-0.121389404
143	0xbc93ef74	-0.018058516
144	0x3d16a50e	0.036778502
145	0x3e0f33f9	0.1398467
146	0xbe0ba56b	-0.1363732
147	0xbe01cae0	-0.12675047
148	0xbcf54e62	-0.029944602
149	0x3e155fed	0.14587374
150	0x3d32e220	0.04367268
151	0xbda748d9	-0.081681915
152	0xbd47547f	-0.048664566
153	0x3e347feb	0.17626922
154	0xbd6d9893	-0.058006834
155	0x3da3bdc6	0.07995181
156	0xbde87fd5	-0.11352507
157	0x3d9f5bb2	0.07781161
158	0x379ce000	1.8700957e-05
159	0x3d215e1a	0.039396383
160	0x3d86b1a2	0.065768495
161	0xbdac1658	-0.08402699
162	0xbe074ae3	-0.13212161
163	0xbe0e66ce	-0.13906404
164	0xbd587644	-0.052847162
165	0xbcd2d666	-0.025736999
166	0xbdb682ec	-0.0891169
167	0xbd307a8b	-0.043085616
168	0x3db894ae	0.090127334
169	0x3d293905	0.041314144
170	0xbd1d3481	-0.03838015
171	0x3d61452e	0.054997616
172	0x3debb3e4	0.11508921
173	0xbe04a618	-0.12953985
174	0xbd0c79da	-0.034295894
175	0xbdccb9ae	-0.09996353
176	0xbd28c04f	-0.041199025
177	0x3d3ec498	0.046574205
178	0x3c7a2beb	0.01526926
179	0xbe0ab4bc	-0.13545507
180	0xbda6bcc1	-0.08141471
181	0x3d821471	0.06351555
182	0xbcf32536	-0.02968083
183	0x3e790709	0.2431909
184	0x3c31fd3c	0.010863598
185	0xbe0293ac	-0.12751645
186	0xbe25cb0f	-0.16190742
187	0xbe0eedb0	-0.13957858
188	0x3dc602d8	0.09668511
189	0xbde4db01	-0.11174584
190	0x3d396c3f	0.045269247
191	0x3d6e3133	0.05815239
192	0x3d019668	0.03163758
193	0x3cd85b71	0.02641079
194	0x3cc9397c	0.024563543
195	0xbe3b1184	-0.182684
196	0x3da2cb52	0.079489365
197	0x3e88aa9a	0.2669266
198	0xbdc00a1c	-0.09376928
199	0x3e221a48	0.15830338
200	0x3b1e43d6	0.002414932
201	0x3e384ed8	0.17998827
202	0x3d94ef83	0.07272246
203	0x3c574bb9	0.013140612
204	0xbd29c433	-0.041446876
205	0x3da64510	0.081186414
206	0x3d770ceb	0.060315054
207	0xbe031983	-0.128027
208	0x3da0cb6a	0.07851298
209	0x3e5fba94	0.21848518
210	0x3dbae70d	0.09126101
211	0x3e791f45	0.24328335
212	0xbc0f5ba2	-0.008749874
213	0x3d563cb0	0.05230397
214	0xbd90d2d7	-0.070714645
215	0xbd67be54	-0.056577995
216	0x3d7271d2	0.05919058
217	0x3e1a5b6b	0.15073936
218	0x3e233d45	0.15941341
219	0xbe2e76fc	-0.17037576
220	0x3e85b3f0	0.26113844
221	0x3d0c0800	0.034187317
222	0xbddd53bc	-0.10806987
223	0x3e0689e0	0.13138533
224	0x3d804419	0.062629886
225	0x3dcde6aa	0.10053761
226	0x3d85ceb4	0.06533566
227	0x3cf79e1f	0.030226765
228	0x3dff1400	0.124549866
229	0x3e0f4e74	0.13994771
230	0xbcc6f3f0	-0.02428624
231	0x3e028b29	0.12748398
232	0xbd97cfbb	-0.07412668
233	0x3dff08e3	0.12452867
234	0xbe556f39	-0.2084321
235	0x3ac063cc	0.0014678179
236	0xbdff31bc	-0.12460658
237	0x3cbe6a86	0.023244154
238	0x3dd956c8	0.10612255
239	0xbe1fe302	-0.1561394
240	0xbd8b9f09	-0.06817443
241	0xbc646257	-0.013939462
242	0xbdb1146d	-0.08646474
243	0x3b8853f3	0.004160398
244	0x3db3b7a2	0.087752596
245	0x3e03c81a	0.12869301
246	0x3e04945a	0.12947217
247	0x3e30ff86	0.17284974
248	0xbd2c2e35	-0.042036254
249	0x3d514c35	0.051098067
250	0x3c98152a	0.01856478
251	0xbd93fe31	-0.072262175
252	0x3e175e70	0.14782119
253	0xbc90ccc6	-0.017675769
254	0x3e8ba5aa	0.2727483
255	0xbdd06eb8	-0.10177368

fc2.bias f4 [64]
0	0x3da8e317	0.08246439
1	0x3e3e0e87	0.18560229
2	0xbcac98c8	-0.021068946
3	0x3cc6ad8c	0.024252675
4	0xbccafeb9	-0.024779664
5	0x3dca6040	0.098816395
6	0x3e02a8b3	0.12759666
7	0x3d619f86	0.055083774
8	0xbca697c5	-0.020336041
9	0xbdb7191e	-0.089403376
10	0x3d005cd3	0.031338524
11	0x3d8c563c	0.068523854
12	0x3e215ee9	0.15758862
13	0xbda52a7a	-0.080647424
14	0x3c3481b8	0.0110172555
15	0xbd267cef	-0.04064649
16	0xbd443b88	-0.047908336
17	0x3e014c4d	0.12626763
18	0x3d416719	0.047217462
19	0xbda89c1a	-0.08232899
20	0x3dc085d0	0.09400523
21	0x3c1f25f1	0.009713636
22	0x3d821daf	0.06353318
23	0xbb7bdd59	-0.0038431494
24	0x3e438199	0.19092406
25	0x3da0dbb5	0.07854406
26	0xbdecd44a	-0.115639284
27	0x3db69529	0.08915169
28	0x3dbe7151	0.09298957
29	0xbde2a8b8	-0.11067337
30	0xbde1ff0e	-0.11034976
31	0xbd90e1dc	-0.07074329
32	0x3e49b5d2	0.19698265
33	0x3e138682	0.1440678
34	0xbdaf22d6	-0.08551566
35	0xbde4d3f8	-0.11173242
36	0x3d0b1555	0.03395589
37	0xbd995e77	-0.07488721
38	0xbde3fb08	-0.11131865
39	0x3d2637fb	0.04058073
40	0x3e1ce837	0.15322958
41	0x3d67c27c	0.05658196
42	0x3d339539	0.04384348
43	0x3da4519e	0.0802338
44	0xbcaa4950	-0.020786911
45	0x3e57b213	0.21064024
46	0x3d3e01da	0.046388485
47	0x3cc4ba3d	0.024014587
48	0xbda524dd	-0.08063672
49	0xbc890feb	-0.016731223
50	0x3d8475eb	0.064678036
51	0xbca4a1b2	-0.020096634
52	0x3d5cf8f1	0.053948347
53	0x3d0eb0a2	0.03483642
54	0xbe0fa3f1	-0.14027382
55	0xba14bf33	-0.0005674243
56	0xbd1752fc	-0.036944374
57	0xbd822c38	-0.0635609
58	0xbd3af64a	-0.045645036
59	0xbc364c1e	-0.011126546
60	0x3dc22e1f	0.09481453
61	0x3b1c7416	0.0023872904
62	0x3e28bc08	0.16477978
63	0xbc9df74b	-0.019282958

fc3.weight f4 [1, 64]
0	0xbc1b1d3d	-0.00946742
1	0x3e448f9a	0.19195405
2	0x3d852489	0.06501109
3	0xbe3b306c	-0.1828019
4	0xbddccd11	-0.10781301
5	0xbe271824	-0.16317803
6	0x3dd41e3c	0.10357329
7	0xbe38b92b	-0.18039386
8	0x3d817259	0.06320638
9	0x3c404e24	0.01173738
10	0xbdfc7630	-0.1232723
11	0xbda9463d	-0.0826535
12	0x3e3410f2	0.17584589
13	0xbd2cef2d	-0.042220283
14	0x3c16623e	0.009178696
15	0xbd9b3437	-0.075783186
16	0xbb44efe2	-0.0030050208
17	0xbe24e347	-0.16102324
18	0x3e11d694	0.14242011
19	0x3d245cde	0.040127628
20	0x3e159b82	0.14610103
21	0xbc6c9264	-0.014439199
22	0xbdc49a10	-0.095996976
23	0xbdb0b4bd	-0.08628223
24	0x3e2f706b	0.17132728
25	0x3be28942	0.006913335
26	0x3d978336	0.073980734
27	0xbd8c7581	-0.068583496
28	0xbde7cc11	-0.113182195
29	0x3da5dd64	0.080988675
30	0x3d8f79b7	0.07005637
31	0xbbde8a32	-0.0067913765
32	0x3e361f9c	0.17785496
33	0x3e3ed22a	0.18634859
34	0xbd093073	-0.03349347
35	0x3da981a6	0.082766816
36	0xbd87d210	-0.06631863
37	0xbdfeada0	-0.1243546
38	0x3d7747b1	0.060371105
39	0xbe17957a	-0.14803115
40	0x3dd942a7	0.10608416
41	0x3dfa653e	0.12226342
42	0x3d89810e	0.06714068
43	0xbdeceb94	-0.115683705
44	0xbdc39f93	-0.09551921
45	0x3e54437a	0.20728865
46	0xbe045903	-0.1292458
47	0xbc06dd2c	-0.008231442
48	0x3db6e858	0.08931035
49	0xbe14e932	-0.14542082
50	0x3da83872	0.08213891
51	0xbdf9a39d	-0.1218941
52	0x3a15b816	0.000571133
53	0xbe16200f	-0.14660667
54	0x3db48e11	0.088161595
55	0x3db6f79c	0.089339465
56	0x3b1efd65	0.0024259922
57	0x3dc06513	0.093942784
58	0x3cc231ac	0.023705326
59	0x3c0945ed	0.008378488
60	0xbe1be89c	-0.15225452
61	0x3ddb2225	0.10699872
62	0xbdba08b9	-0.09083695
63	0xbd96eb5b	-0.07369109
