models/Q_net64_5_prF_4.pth (torch, 21015 bytes, 5 tensors)

fc1.weight f4 [64, 6]
00000000: c1dd 98bd 1814 ff3d b01a aa3d b224 fb3d
00000010: d96c 873e 2787 97be 38dc 97bc c44e c6be
00000020: 20c0 2bbe 1437 a43e 7845 833e be32 96be
00000030: 7bef 8a3e c5f9 653e 4136 3f3c 554d 333c
00000040: e2d8 b3be 05f7 ab3e 6378 c0bd 6ae6 c2be
00000050: 6655 863e 0504 1a3d eb96 f9bd 5db3 a13e
00000060: 4cbc 663e a410 af3e 73dd 94be 1fba 2b3e
00000070: 6286 3cbe 287c 0abe 08f3 b0bd f28f 9f3e
00000080: cd0e d33d 9b73 ed3d 66e5 b3be 0042 12bd
00000090: ffe4 403d 9c62 c3be 1a76 91be 9e5c aa3e
000000a0: ed1e 4d3e 4003 923e 75ba 92be f4f1 a13d
000000b0: 60b1 78be 1ff0 abbe 5e17 48be 9ce6 8fbe
000000c0: 35e2 69be e5f2 8a3e 5501 793e 5551 2ebe
000000d0: f710 273e b87a 893e b681 ef3c 1041 aabe
000000e0: b1c2 803e fa21 ccbe 5e7d 92be e343 7fbe
000000f0: 4000 c73c 9723 d73d 4b14 313e efff bb3e
00000100: d4f7 87be 2242 ce3e 6e20 273e 8912 51be
00000110: 856f 913d f206 853e e608 6f3e b393 883e
00000120: e36a fabc 03e0 dcbd 3356 1cbe d43f ab3e
00000130: 31f5 74be 7341 193e 59c8 cabe 0c71 723e
00000140: 7159 40be 8d1f 233e b7b9 c83e 0dc8 e73c
00000150: 29ac 4bbe d708 053d 775f 23bc 1616 c4bd
00000160: c39d dbbe 2bc8 c23e c591 ecbd 20f6 1abe
00000170: 38e7 dc3c b9c4 a8bd 9c12 8dbe eedb c23d
00000180: 90f4 363e c061 763e 6719 4abe aa9f 973e
00000190: 93f5 4fbe 750c 1e3e fe03 d2be 2f84 ff3d
000001a0: f916 64bd 31ca 0cbe 5f43 4d3e 7ebf b93e
000001b0: 97e9 03bd 5b9f b73e 0c84 993e e951 433e
000001c0: 2b5c 9fbe c4e6 bebb ee6d 493d 8008 afbe
000001d0: edd4 bd3d ed84 68be 1b2b 7bbc 235e 5fbd
000001e0: 5a73 06be e3f3 61be eda0 2bbe 07cc b0be
000001f0: 44ba afbc 82ee 8b3e 7309 b0be 24ce 9cbe
00000200: f9b2 e53d de6b 8abe 3ada da3d b054 5bbb
00000210: 78b9 393e 5db8 ba3e 0b2e edbc 35d7 14bd
00000220: 4423 023e 818c 303e 4351 193e c1df 5b3c
00000230: 34cc d83c 63ea 4c3e f66d 643d b588 9a3e
00000240: 9caf c23e 9977 c03e ded9 a7be 6f24 153e
00000250: 10d5 8fbe 19be b6be c502 a3be 2cc6 43be
00000260: a107 a3be f01b cf3e 62b3 9f3c c94c 0cbe
00000270: 7ad8 5b3e c68f d43d fdb4 c9bd f737 1d3e
00000280: a0b8 8fbe 5add cabe 5233 a83e 3e3f 3dbe
00000290: 9b0a 883e 0568 a13e 69a0 d9bd 6d35 883e
000002a0: 963c cd3d 064e 9fbd eb23 6abe 8a9d c73d
000002b0: beeb 893d 669b b3bd eb0f c83e 7400 4ebe
000002c0: c4cf 36be 1266 9d3e 40f6 983e 04b5 aabe
000002d0: 4e1d 383e 99c7 cdbe acab ac3e e3d7 59be
000002e0: 9818 87be 0e6f 6a3e bac0 383e f1fe e93d
000002f0: 8839 883e 2e96 a4bd 1c2a 70bc 926a 8c3e
00000300: 5081 7f3e c825 50be e01a e5bc f011 8ebc
00000310: 0256 33be 2700 613e 978b 26be 28a0 2a3d
00000320: e9c1 7ebe 279b 4cbe 36f5 9fbe c4be ab3c
00000330: f80b 64be 531b b8be 2501 6abe 3060 a4bd
00000340: 27c5 993d 926c 1e3e de35 903e 2e17 9e3e
00000350: 0793 72bc 3a83 d9bd e61f a8be 2af5 6e3e
00000360: af94 89be 0981 bf3e 818c 4cbe f4f9 963e
00000370: e811 463e 988f a43e 5a36 3dbe 0ba6 29be
00000380: d061 9b3d bfc4 d5bd 0e44 88be f6ff e9bd
00000390: f439 833e 908a bd3e 2244 683e eb34 cb3a
000003a0: da3f 523e e686 0abc 71b5 cebe 2285 8a3e
000003b0: 4e39 68be 914b a93e 61f1 bbbe 3c62 28be
000003c0: cb8a 89bd 35fe adbe 84e0 2dbd 7d19 bc3e
000003d0: aee8 ae3d 43ae 9b3b 882a 0c3e 6655 77bd
000003e0: bcda 1cbd 84db 69bd a9df cfbe 5901 813e
000003f0: d149 9f3c 9bac 983e f470 96be 50d7 a63e
-0.07464171 0.124550045 0.083058715 0.122628585 0.26450232 -0.295953 -0.018537626 -0.38731968
-0.16772509 0.3207327 0.25638938 -0.29335588 0.27135834 0.22458561 0.01167065 0.01094373
-0.35126406 0.33586898 -0.09397962 -0.38066417 0.2623703 0.03760149 -0.121869884 0.31582156
0.22532767 0.34192383 -0.29075202 0.16770218 -0.18410638 -0.13523924 -0.086401045 0.3116451
0.103055574 0.115943156 -0.35135955 -0.035707474 0.047093388 -0.3816117 -0.28410417 0.33273786
0.20031328 0.28518105 -0.2865788 0.07907477 -0.24286413 -0.33581635 -0.19540164 -0.28105628
-0.22840197 0.2713844 0.24316914 -0.17023213 0.16315065 0.2685144 0.029236656 -0.33252764
0.25148538 -0.39869672 -0.28611273 -0.2492824 0.024292111 0.10504835 0.17292897 0.367187
-0.26556265 0.4028483 0.16320965 -0.20417227 0.07101349 0.2598186 0.23343238 0.26675186
-0.030568546 -0.10784914 -0.15267257 0.33447134 -0.23921658 0.14966373 -0.39605978 0.23675936
-0.18784119 0.15930004 0.3920419 0.028293634 -0.19889893 0.032479133 -0.009971491 -0.09574525
-0.428938 0.3804334 -0.11551241 -0.15132952 0.026965722 -0.08240647 -0.2755326 0.095146045
0.1786673 0.24060726 -0.19736253 0.29614002 -0.20308523 0.1543444 -0.4101867 0.12476384
-0.05568597 -0.13749005 0.20045231 0.3627891 -0.03220519 0.35863766 0.29983556 0.19074215
-0.31125006 -0.0058258492 0.049177103 -0.34186172 0.09269128 -0.22706957 -0.015330101 -0.054533135
-0.1312994 -0.22065692 -0.16760607 -0.3453066 -0.021451123 0.27330405 -0.3438221 -0.30626023
0.11215777 -0.2703542 0.10686155 -0.0033467226 0.18137157 0.36468783 -0.028952619 -0.03633805
0.12708765 0.17241098 0.14972405 0.013420046 0.02646456 0.20011286 0.05576893 0.30182424
0.38024604 0.37591246 -0.32783407 0.1456468 -0.2809224 -0.35691908 -0.3183805 -0.19118565
-0.31841758 0.40451002 0.019494716 -0.13701166 0.21469298 0.10378985 -0.09848974 0.1535338
-0.28070545 -0.39622003 0.32851654 -0.18481156 0.2657059 0.31524673 -0.10626299 0.2660326
0.100213215 -0.07778554 -0.22865264 0.09746845 0.067344174 -0.08769874 0.39074644 -0.2011736
-0.17852694 0.30741936 0.29875374 -0.3334123 0.17979929 -0.40191343 0.33724725 -0.2127376
-0.2638595 0.22893927 0.1804227 0.11425579 0.26606393 -0.08036457 -0.014658477 0.27425057
0.24951673 -0.20326912 -0.027966917 -0.017342538 -0.17513278 0.21972714 -0.16264187 0.041656643
-0.24878658 -0.19981061 -0.3124177 0.020964988 -0.2227019 -0.35958347 -0.22851999 -0.08026159
0.07508307 0.15471104 0.28166097 0.3087706 -0.014805562 -0.106207326 -0.32836837 0.2333571
-0.2687125 0.37403134 -0.19975473 0.29487574 0.19342768 0.32140803 -0.18477765 -0.16567247
0.07587016 -0.10437917 -0.26614422 -0.11425774 0.25630152 0.37019777 0.2268224 0.0015503442
0.2053217 -0.008455014 -0.40372804 0.27054697 -0.2267811 0.33065465 -0.36707595 -0.16443723
-0.06715926 -0.33983007 -0.042450443 0.36738196 0.08540474 0.004750998 0.136881 -0.060384177
-0.03829454 -0.057094112 -0.40600327 0.2519634 0.019444378 0.29819188 -0.2938305 0.32586145

fc1.bias f4 [64]
00000000: 9b7e c43e e603 9abd 2646 983e b8c8 7a3e
00000010: a877 90be 0950 153e 6fbc 3b3c 238c a4be
00000020: e5f3 0fbe 1812 1cbe 87af 8ebd ac29 443e
00000030: bee5 a03e 7fd5 3dbe 34fd d7bd 1db1 143e
00000040: 503c 87be b3c9 4cbe 2597 d2bd 856b ee3d
00000050: d0fe a7bd b5f5 3ebe 0fd2 02be 04e7 dc3d
00000060: d94b f93b f988 a53d 0907 9a3e cc47 b3be
00000070: 9324 ac3e 80f3 a1bd 934e c8bd 2805 483e
00000080: 26a1 48be 925e a53c 3560 0fbe 3380 ae3e
00000090: b0db 8dbe 4743 72be 87ff f8bd 6d92 ebbd
000000a0: 4133 833e a6ad a0be 4020 503e b4aa b23e
000000b0: e9b4 73be c9b9 1fbe ea6c 7b3e aae7 f2bd
000000c0: 62b0 0abe e619 73be 78a5 5a3e 59da 22be
000000d0: 56d0 0abe 9cb1 a9be 1e7e ccbe c7d3 47be
000000e0: f597 87be f19e 3d3e 1f1f 703e fbb5 a2be
000000f0: dd7c ba3e b89f 683e 1ded 743e c999 c2be
0.38377842 -0.07520275 0.2974102 0.2449063 -0.2821629 0.14581312 0.0114585 -0.32138166
-0.14057882 -0.15241277 -0.06967073 0.19156522 0.3142528 -0.18538474 -0.105463415 0.14520688
-0.26413202 -0.19998817 -0.10282735 0.116416015 -0.082028985 -0.18648417 -0.12775443 0.1078625
0.0076079187 0.08082766 0.30083492 -0.35015714 0.33621654 -0.07907772 -0.09780612 0.19533217
-0.19592723 0.020186696 -0.14001544 0.34082183 -0.2770667 -0.23658477 -0.12158113 -0.11502538
0.2562504 -0.31382483 0.20324802 0.3489586 -0.2379948 -0.15598215 0.24553266 -0.11860593
-0.13543847 -0.23740348 0.21352184 -0.15903606 -0.13556036 -0.33143318 -0.3993997 -0.1951438
-0.26483122 0.18517663 0.23449372 -0.31779465 0.36423388 0.22717178 0.23918577 -0.38007954

fc2.weight f4 [64, 64]
00000000: 89cb d1bc 1b44 e2bd 3a86 363d 1976 15be
00000010: 66ab f6bd d195 993d 4555 283d 46fd 82bd
00000020: ff48 023a b8fb 4fbd 99d0 9f3c c91d da3b
00000030: ac98 08be ca69 e5bd 7478 c3bd 717e 163d
00000040: 19dc 91bd 31e8 4c3d 22ee bb3d ee4c 393d
00000050: 66a2 5d3d 3e38 6d3c bc0c e53c a20d be3d
00000060: 3b73 253d ec7a 773d b5e1 ca3c 68c4 183d
00000070: f2e6 52bb c9e9 edbc 0b65 f6bd d1a4 2abd
00000080: 70be fe3c 2d3c 763d 7145 c63d 88f9 9bbc
00000090: d27b e6bd 95dd 9bbd 30a7 963c fb5b 75bd
000000a0: 6570 2f3d bd1a b53d 9dff 863c af49 cabd
000000b0: 1def 8abd 7eca c1bc c0ad 04be c7f9 a93c
000000c0: b885 bbbb dfed c23b e966 2abd 8e67 623d
000000d0: 371b 25bd 2550 90bb 40a9 d4bb 23a4 ff3c
000000e0: ef37 833c d9e4 033d c08a 493d d95a 2a3d
000000f0: ea13 15bd 40ed 68bd be80 efbc 00b9 433b
00000100: 9fb8 52bd 8667 2e3d e442 f13d 3064 92bd
00000110: a736 12bd ac7f a63d d2ba 983d f442 e43c
00000120: 58f9 8e3d c1a1 acbd 3602 dcbd 28af 6dbd
00000130: 5a4c 6e3d 335c 1d3d 28e4 793d afcc cbbd
00000140: 57d5 613d 78e9 01bc 6466 413d 9700 9ebd
00000150: 00f5 8e3b 55c8 b2bd 8ee3 b4bd b77c d93c
00000160: 94a2 aabd 2a29 2f3c 6c7e e1bd 11d4 8bbd
00000170: 79da 8ebd f73d 14bc c25b f2bd 8994 74bd
00000180: ffac cc3c 6b5c a7bd 2a17 f13d 35f4 f33d
00000190: 39d3 8a3d 66f0 5e3d 39e2 c43c 5b7b 6cbc
000001a0: bf5d db3d 8b44 2abd d87a b53d 46d9 ccbc
000001b0: 880f f1bd 5215 3f3d b741 893d 1ec9 b23d
000001c0: b3a5 453d 0a79 0a3e 5159 5c3d 0238 96bd
000001d0: ae92 1cbc 23fb 033e 4180 0ebd 102e df3b
000001e0: 9bcf 573d 9141 15bd 88a2 11be 3a8e 0b3e
000001f0: 7eea 91bd 9a53 debd acdb bc3d 55eb d9bd
00000200: f707 bebd 5f42 b7bd 9f02 cebd 87c5 9a3d
00000210: 4559 203c c7cc 05be 9e48 fbbd bb73 743d
00000220: be61 703c 743f 3a3d 9ab0 4e3c 3460 b63d
00000230: 46c0 82bd 5f9f 13bd 6e46 c03d b065 ebbc
00000240: 8787 e0bd a459 fd3d bf8c c93d ec9b 6dbd
00000250: 34cd 633d 2a6b 523d cf16 7c3c 2ace 6f3d
00000260: 281b 99bc e5a2 823d aba7 91bd b34f 9b3d
00000270: 575f e4bc a9c5 15bb 3950 9f3d 4d83 1f3e
00000280: 4f0a 62bc d51d 25bd 88d0 94bd 6790 e83c
00000290: d263 75ba 36c5 16bd 74fc 8e3d 7388 a23d
000002a0: 96dc 13b9 95bb 27bd c998 27bd f1da 81bb
000002b0: d428 71bd 8c61 dabd 599c ecbc 20c2 153e
000002c0: 15f6 d43d ffe7 d93d 24fc 3bbd 3dfa 78bb
000002d0: c384 d13d e8f4 0a3e 902e 2b3c 37ab 53bd
000002e0: 68b9 043d 9339 0d3d 0060 823c 3b43 5c3d
000002f0: 2a8d b8bd 57bf 16bd 2b32 10bc 7f1d ddbd
00000300: 9395 f23d 1af9 73bd f3b8 21bd ac4b 9f3c
00000310: bcff 8cbd d5b0 713d 1861 cebc 0427 ed3d
00000320: 36ed 223d 264d 983d ca59 a33d 0bce fc3c
00000330: 4c60 f93d 4575 02be cf57 023c 85bf 023d
00000340: 6bb8 fabd dc2e ce3c baab f33d 36dc 223d
00000350: 1eda 543c e626 04bd 9c22 023e e7b2 a03b
00000360: 0a01 b43c 9dc0 14bb 7ec5 8c3d 6950 c53d
00000370: 75db e7bd 5ae8 5fbd 3e17 debb 9f8d 85bc
00000380: 92da bf3d 2474 3a3c f52b 1f3d e4e0 d33d
00000390: 73cc 2c3e 1662 52bd 93ce b33d a3bf d0bc
000003a0: 6ee2 8d3d b13a e33c 4aa6 6d3d 61a2 d2bc
000003b0: 18c8 13bd 6595 1c3d 50c7 a43d eca7 97bd
000003c0: 68e6 94bd 6d0d 9f3d 09b3 fc3d a305 153e
000003d0: 93b2 8bbb 2199 533d 1ae7 bc3d c596 ccbc
000003e0: 4309 90bd 3914 b3bc 317d 1bbe 4e16 693c
000003f0: 7d7e 163d 6083 42bc 648a 073e 7bfe 9a3d
-0.025609748 -0.11048146 0.044561602 -0.14595832 -0.120444104 0.07499278 0.041096944 -0.06395964
0.0004969984 -0.050777167 0.019508647 0.0066563827 -0.1333949 -0.11201818 -0.09544459 0.036741678
-0.071220584 0.050026122 0.091762796 0.04523938 0.054109953 0.014478741 0.027960174 0.09279944
0.040393095 0.06041996 0.024765829 0.037296683 -0.0032181111 -0.029042142 -0.12030991 -0.041661087
0.031096667 0.06011598 0.09681214 -0.019039884 -0.112540856 -0.07610623 0.018390268 -0.059902173
0.042831797 0.088429905 0.016479308 -0.09877335 -0.067838885 -0.023656126 -0.12956905 0.020748986
-0.0057227276 0.0059487666 -0.04160205 0.05527454 -0.040309157 -0.004404085 -0.0064899027 0.031206196
0.016017882 0.032200668 0.049204588 0.041590545 -0.036395945 -0.056866884 -0.029236194 0.0029864907
-0.0514456 0.042579196 0.117803365 -0.071480155 -0.03569665 0.0812982 0.07457508 0.027863957
0.06981152 -0.084292896 -0.10742609 -0.05802837 0.058178283 0.038418006 0.061008602 -0.0995115
0.055135097 -0.007929198 0.047216788 -0.07714956 0.0043627024 -0.087296166 -0.08832465 0.026548726
-0.083317906 0.010690967 -0.11010441 -0.06827558 -0.06975264 -0.009047977 -0.11833908 -0.059711967
0.024984835 -0.08171924 0.11771996 0.11911813 0.06778569 0.05442848 0.024033653 -0.014433707
0.1071124 -0.041569274 0.08861321 -0.025005948 -0.117705405 0.046651192 0.06701987 0.08729766
0.048253726 0.13522735 0.053796116 -0.073349014 -0.009556456 0.1288877 -0.03479028 0.006810911
0.052688222 -0.036439482 -0.14222157 0.13628474 -0.07124804 -0.108557895 0.092215866 -0.10640589
-0.09278863 -0.08948206 -0.10059094 0.075572066 0.0097869085 -0.13066398 -0.1226971 0.05968068
0.014671741 0.04547067 0.012615347 0.08905068 -0.063843295 -0.03604066 0.093884334 -0.028735012
-0.1096335 0.12370613 0.09841298 -0.058010027 0.05561562 0.05137173 0.015386297 0.058546223
-0.018689707 0.06378726 -0.07112058 0.07583561 -0.027877493 -0.002285341 0.07778973 0.15577431
-0.013796403 -0.040311653 -0.07266337 0.028389169 -0.00093608827 -0.03680917 0.06981745 0.07936182
-0.00014101187 -0.040950377 -0.04091719 -0.0039628674 -0.058876827 -0.10663137 -0.028883146 0.14624834
0.10398499 0.10639953 -0.045894757 -0.003799095 0.102304004 0.13569987 0.010448113 -0.051676955
0.03240338 0.034478735 0.015914917 0.053775053 -0.090113 -0.03680357 -0.0088010235 -0.107966416
0.11844935 -0.059563734 -0.039483022 0.019445263 -0.06884715 0.05900653 -0.025192782 0.11579707
0.039777003 0.0743659 0.0797611 0.030859968 0.1217657 -0.12740047 0.0079555055 0.03192093
-0.12242206 0.025168829 0.118979886 0.03976079 0.012991456 -0.03226366 0.12708515 0.0049041393
0.021973152 -0.0022697814 0.06873606 0.09634478 -0.11321155 -0.054664947 -0.006777673 -0.016302882
0.09367861 0.011380229 0.03886028 0.10345629 0.16874866 -0.051363073 0.08779635 -0.025482005
0.06927954 0.027737947 0.058019914 -0.025712194 -0.036079496 0.03822841 0.08045828 -0.074050754
-0.07270509 0.07766233 0.12338836 0.14552931 -0.004263231 0.051659707 0.092237666 -0.024974236
-0.070330165 -0.021860229 -0.15184475 0.014226509 0.036741722 -0.011872143 0.13236386 0.075680695

fc2.bias f4 [64]
00000000: 6680 ea3b 9353 ed3d f34d 93bd 5796 a93d
00000010: 4386 dbbd b586 803d a6a0 993d 5bea 50bd
00000020: 3ccf e03c 8f6a acbd 2540 95bd ad35 0d3d
00000030: 844b d8bc 7e65 f5bd f1f9 9fbd e388 f33d
00000040: f6b7 95bd 0058 cb3d b09b 993d f3f0 943b
00000050: 267f 143d d668 373b 1a60 68bd 4d42 bb3d
00000060: e4c9 28bd f8c6 32bd 5f61 c63d 58e4 843d
00000070: 0def 583d 113c a93b 29fb c33d 0210 8d3d
00000080: 38b7 b2bd 205c 6dbd 6043 0e3e 9edb 733d
00000090: 94d3 9fbd 6eed 463d 2a6b 4e3d 712e b1bd
000000a0: c4f3 903c 5e2a 8bbd 8d56 40bc bf21 bc3d
000000b0: 3891 d8bd 75c8 d13c 154f 3abd 3acd 1c3d
000000c0: 737f 623d b510 89bd 93b1 49ba dd42 c8bc
000000d0: 6283 09bd 67e2 f43d 27a3 b33c 80d7 e8bd
000000e0: b4a8 64bd 3b64 123d e994 31bd 51ab c1bd
000000f0: e62b 013d a1c4 783d 067f 823d cb23 c63d
0.0071564196 0.11588206 -0.07192602 0.08280628 -0.10718968 0.06275693 0.075013444 -0.05100475
0.027442567 -0.08418762 -0.07287625 0.034475017 -0.026403196 -0.11982249 -0.078113444 0.118913434
-0.073104784 0.09928894 0.07500398 0.004545325 0.03625407 0.002798607 -0.056732275 0.09143505
-0.041208163 -0.043646783 0.09686541 0.064888656 0.05296235 0.005164631 0.095693894 0.06887819
-0.087263525 -0.057949185 0.13892889 0.059535615 -0.07804027 0.048566274 0.05039517 -0.08651436
0.017694362 -0.0679519 -0.011739385 0.09186124 -0.10574573 0.02560828 -0.045485575 0.038281657
0.055297326 -0.0669264 -0.0007694002 -0.024445945 -0.033572562 0.11957245 0.021928383 -0.11369228
-0.05582495 0.03574012 -0.043354902 -0.09456504 0.031536005 0.060734395 0.06371884 0.09674796

fc3.weight f4 [1, 64]
00000000: 18e0 853d c452 f23d 9a06 cd3d 2c55 ee3d
00000010: ef95 94bb 4c77 5d3d e9c4 fd3d 70db 67bd
00000020: a73e 56bc 3316 50bd 52c9 04bd 69b7 b0bb
00000030: df05 3abd 02e1 3a3d b817 cabc a748 733d
00000040: f0e6 3e3d 65e2 fd3c a677 a13d 2d23 e3bd
00000050: 5ac1 f2bd 0ae2 aa3d 8d1f a2bc 19d0 b33d
00000060: 7c49 49bd aaf7 85bd 07cb 87bc b5c0 163c
00000070: 3f71 1abd 7954 23bd f151 b53d 4b19 87bd
00000080: 2dd7 923d d052 2bbc 39c3 0c3e c163 c4bd
00000090: 92ce 8abd 9e0a 103e 56c7 043c c72b f4bd
000000a0: 6fed a0bd 0f75 e23d 46f3 a93b e760 1d3b
000000b0: 6e05 cdbd 0cbb ccbd 7938 34bd 84af 85bc
000000c0: 762c 48bc 0427 99bb e30b 96bd b701 77bd
000000d0: 208d bb3d cd47 ddbd 2f74 b9bd ec05 cd3d
000000e0: 7aa9 46bc f187 b6bd a639 3bbd b68e 4bbc
000000f0: a130 1abd 71f6 ce3a 926d 4a3b cb09 d5b8
0.06536883 0.118321925 0.10011025 0.11637339 -0.004534475 0.05406885 0.12391073 -0.056605756
-0.013076461 -0.05080242 -0.032418557 -0.005392958 -0.045415755 0.04562474 -0.024669513 0.05939546
0.046606958 0.030991742 0.07884149 -0.110906936 -0.11853285 0.08343895 -0.019790435 0.08779926
-0.049142346 -0.06541379 -0.016576303 0.009201218 -0.037705656 -0.03987548 0.0885352 -0.06596621
0.07169948 -0.010456756 0.13746347 -0.09589339 -0.067776814 0.1406655 0.008104166 -0.11922412
-0.07857787 0.110574834 0.005186471 0.0024014057 -0.10010801 -0.09996614 -0.04399917 -0.016319044
-0.012217632 -0.0046738405 -0.07326486 -0.06030437 0.09157777 -0.108047105 -0.090553634 0.10010895
-0.012125367 -0.089126475 -0.045709275 -0.012424162 -0.037644032 0.0015789998 0.0030888063 -0.000101584556
