models/Q_net64_10_prF.pth (torch, 21007 bytes, 5 tensors)

fc1.weight f4 [64, 6]
0.04779515 -0.586158 0.17922398 -0.4766965 -0.08451888 -0.019530226 -0.14676304 0.07462576
0.12900187 -0.3702395 -0.34694993 -0.12785709 -0.3906908 -0.019499445 -0.08214012 -0.2511056
-0.24942976 0.23039562 0.4024214 -0.3188055 -0.011605365 -0.2977502 -0.20730945 0.29228932
-0.15917118 0.13269328 0.025469827 -0.16040322 0.21512437 -0.03307666 -0.3187138 -0.7202924
0.16176352 -0.76297927 -0.30099666 -0.1312331 0.2243793 -0.3077795 -0.35182685 0.16536653
0.075439185 0.11304998 -0.49432787 -0.03534275 0.15775229 0.03829039 -0.1764815 0.2722201
-0.29721394 -0.25874847 -0.28615105 -0.17998727 -0.20113079 -0.019887269 0.15352827 -0.54245955
0.05058631 0.046030056 -0.0649918 0.17835511 0.31847578 0.19577214 -0.50993 0.15320744
-0.089370936 0.07282921 0.3880793 0.27882758 -0.061710116 -0.06670897 0.31293923 -0.43582323
-0.37232637 -0.02029737 -0.09842444 -0.16576003 0.4010427 -0.07782259 -0.32785466 -0.32097414
-0.103572674 -0.4056837 -0.16469206 0.07033775 -0.2395947 -0.23348013 0.007773368 -0.19700539
-0.40533534 -0.22719459 -0.23433134 -0.16890462 -0.01601211 0.46692538 0.07808331 -0.10096688
0.28582072 -0.404725 0.014951637 -0.013997276 0.07506281 -0.3696802 0.40481097 -0.09417863
0.012280051 0.01854713 0.31196553 -0.24397227 -0.042980764 -0.24788229 -0.011249699 -0.8394644
0.041475385 0.0028223917 0.19086447 -0.30644563 0.32521224 -0.3733494 -0.17168123 -0.12246345
0.087726474 -0.32322246 -0.06992036 -0.39335895 0.20346421 -0.2317689 -0.14302494 -0.15997376
0.0060735177 -0.8855599 -0.17584395 0.17345613 0.35739183 -0.15215394 0.031145576 -0.38006198
-0.10934582 0.05444518 -0.16117853 -0.5989348 0.0053910683 -0.7674189 -0.22925273 -0.1288079
0.2106969 -0.13166524 0.0018359557 0.19817692 -0.11233914 0.47879145 -0.2232285 -0.111555755
-0.22889689 0.26495492 -0.120969355 0.3712494 -0.033160836 -0.35284635 -0.03747475 -0.058347937
0.29016906 -0.20891742 0.33640838 -0.12611637 -0.1796918 -0.2107946 -0.07004908 -0.14831017
-0.03500559 -0.07357528 0.17512515 -0.2825492 -0.23094599 -0.25908464 -0.14504713 -0.30698615
-0.07521796 -0.14895889 0.24424309 -0.29527447 0.027646154 -0.14815634 -0.3569986 -0.28277108
0.17410696 0.3839689 0.3990209 0.14290504 -0.09632136 -0.1233153 0.35940045 -0.15283318
0.2704019 -0.19655578 0.024976313 -0.23707956 -0.027878344 -0.30736867 0.004697063 -0.19926965
-0.14136706 0.2670706 -0.061429024 0.35929427 0.034402933 -0.3783704 -0.019363934 -0.38313445
-0.2582898 -0.12804411 -0.041953772 -0.18790981 -0.23134272 0.38102162 0.32685542 0.031741828
0.14828241 -0.055020124 0.00843969 0.0010227859 0.104397714 -0.39210045 -0.10268378 0.16064952
-0.29965088 -0.0033787098 -0.35229325 0.09212505 -0.26559213 -0.531491 0.13462836 -0.11170724
0.07767275 -0.02971719 -0.36231092 0.04505997 0.13586803 -0.1345835 -0.06025359 0.13504304
-0.24121 -0.2964929 0.16170374 -0.2789632 0.20485044 0.2474048 0.30681142 0.0047776806
-0.35149822 -0.26970324 0.39555454 0.35209417 -0.24854761 0.23999451 0.20149902 -0.33534822
00000000: d9c4 433d 730e 16bf 7e86 373e 9011 f4be
00000010: 3c18 adbd dafd 9fbc 0d49 16be 64d5 983d
00000020: 1119 043e 0890 bdbe 6ca3 b1be f8ec 02be
00000030: a008 c8be 4dbd 9fbc 1439 a8bd ea90 80be
00000040: 846a 7fbe d4ec 6b3e 2e0a ce3e 793a a3be
00000050: 6e24 3ebc b772 98be ee48 54be f2a6 953e
00000060: c5fd 22be bfe0 073e 19a6 d03c be40 24be
00000070: 9049 5c3e 647b 07bd 752e a3be 1565 38bf
00000080: 56a5 253e 9c52 43bf 3c1c 9abe f861 06be
00000090: b0c3 653e 4695 9dbe a622 b4be d855 293e
000000a0: dc7f 9a3d bf86 e73d 8b18 fdbe 8fc3 10bd
000000b0: d189 213e 62d6 1c3d 91b7 34be 6f60 8b3e
000000c0: 6d2c 98be ae7a 84be 6482 92be 954e 38be
000000d0: 3bf5 4dbe a0ea a2bc 8436 1d3e a1de 0abf
000000e0: 9733 4f3d 038a 3c3d 6c1a 85bd b9a2 363e
000000f0: 420f a33e 7e78 483e c68a 02bf 69e2 1c3e
00000100: 1c08 b7bd 7b27 953d 54b2 c63e 7dc2 8e3e
00000110: bfc3 7cbd b69e 88bd 9239 a03e 3924 dfbe
00000120: 90a1 bebe ac46 a6bc c192 c9bd ffbc 29be
00000130: 7855 cd3e 7361 9fbd 91dc a7be b956 a4be
00000140: e91d d4bd c6b5 cfbe 09a5 28be 3d0d 903d
00000150: 5058 75be 6a15 6fbe bdb7 fe3b c8bb 49be
00000160: 1d88 cfbe b3a5 68be 8ef4 6fbe 55f5 2cbe
00000170: d42b 83bc d810 ef3e 24ea 9f3d b9c7 cebd
00000180: 1857 923e 1d38 cfbe b6f7 743c d554 65bc
00000190: 88ba 993d b946 bdbe 6243 cf3e bae0 c0bd
000001a0: 4432 493c 27f0 973c f2b9 9f3e ded3 79be
000001b0: 990c 30bd dbd4 7dbe a850 38bc 24e7 56bf
000001c0: 18e2 293d e0f7 383b fa71 433e 71e6 9cbe
000001d0: 3882 a63e a727 bfbe 34cd 2fbe 1ece fabd
000001e0: f0a9 b33d 6a7d a5be 6832 8fbd 5866 c9be
000001f0: ec58 503e d454 6dbe 2175 12be 29d0 23be
00000200: 5c04 c73b 0eb4 62bf 7010 34be 7c9e 313e
00000210: 10fc b63e 3ece 1bbe 0225 ff3c 7c97 c2be
00000220: b4f0 dfbd e901 5f3d fc0b 25be cb53 19bf
00000230: 8fa7 b03b 9175 44bf 3ac1 6abe 38e6 03be
00000240: eec0 573e 41d3 06be 73a4 f03a e4ee 4a3e
00000250: 1012 e6bd 2724 f53e 0396 64be 5877 e4bd
00000260: f263 6abe 2ca8 873e c8be f7bd 6714 be3e
00000270: a8d3 07bd 47a8 b4be 207f 19bd 3ffe 6ebd
00000280: 0a91 943e 73ee 55be b83d ac3e a624 01be
00000290: 2101 38be 8ada 57be e475 8fbd 9fde 17be
000002a0: 0662 0fbd a3ae 96bd 0254 333e 4aaa 90be
000002b0: 1b7d 6cbe bea6 84be 3c87 14be 4a2d 9dbe
000002c0: e00b 9abd ae88 18be dc1a 7a3e 372e 97be
000002d0: 307a e23c 4cb6 17be 85c8 b6be 5fc7 90be
000002e0: 1849 323e 9297 c43e 784c cc3e b355 123e
000002f0: 2244 c5bd bb8c fcbd 5603 b83e 4d80 1cbe
00000300: 1e72 8a3e eb45 49be 209b cc3c fcc4 72be
00000310: 2061 e4bc 6d5f 9dbe d2e9 993b 580d 4cbe
00000320: 87c2 10be 7abd 883e 009d 7bbd 6bf5 b73e
00000330: 17ea 0c3d c4b9 c1be 1da1 9ebc 332a c4be
00000340: 903e 84be ff1d 03be b8d7 2bbd 6e6b 40be
00000350: 1be5 6cbe 4415 c33e 9859 a73e b803 023d
00000360: 58d7 173e c85c 61bd a046 0a3c 000f 863a
00000370: 78ce d53d 64c1 c8be e04b d2bd 4f81 243e
00000380: d76b 99be 586d 5dbb c85f b4be 0fac bc3d
00000390: b1fb 87be cb0f 08bf 04dc 093e c4c6 e4bd
000003a0: e412 9f3d 7771 f3bc d180 b9be ce90 383d
000003b0: fd20 0b3e 42d0 09be 78cc 76bd b948 0a3e
000003c0: c1ff 76be ebcd 97be aa95 253e 44d4 8ebe
000003d0: 50c4 513e af57 7d3e 6316 9d3e 178e 9c3b
000003e0: 93f7 b3be 8b16 8abe 2086 ca3e b045 b43e
000003f0: 4483 7ebe 1fc1 753e c255 4e3e c3b2 abbe

fc1.bias f4 [64]
0.31664315 -0.4191895 0.15856159 0.14228415 0.085706405 -0.13277477 -0.21462314 0.0070188157
-0.30099827 -0.38372093 -0.10158205 0.26741073 0.2164496 -0.47244176 -0.37291777 0.30809826
-0.41166818 -0.0237502 -0.44206598 0.35208938 -0.27453822 -0.06630352 0.355328 -0.035630006
-0.2647371 0.05274089 0.29726008 0.35056752 0.0287874 0.43388945 -0.12407111 0.31365862
0.18001615 0.029028008 0.3452824 -0.13284798 -0.39761594 -0.09546725 0.2281126 0.23926869
0.3263527 -0.13380705 0.03539379 -0.3557006 -0.16158156 -0.34817404 -0.05390013 0.1276205
0.05694659 0.29893744 0.4607696 0.34301972 -0.4387159 0.07391943 0.25548422 -0.46322548
0.20538945 0.38558686 -0.36612064 0.15097804 -0.13662593 0.12164301 0.034815483 -0.29719442
00000000: 0d1f a23e 02a0 d6be f85d 223e f0b2 113e
00000010: d786 af3d 1cf6 07be 2bc6 5bbe 18fe e53b
00000020: 721c 9abe 1277 c4be 400a d0bd 0fea 883e
00000030: f7a4 5d3e e3e3 f1be 14ef bebe 0ebf 9d3e
00000040: 2cc6 d2be c88f c2bc 7956 e2be 0f45 b43e
00000050: 4690 8cbe 24ca 87bd 8ded b53e c5f0 11bd
00000060: 9f8b 87be d506 583d 7932 983e 967d b33e
00000070: 8ed3 eb3c c226 de3e fe18 febd dd97 a03e
00000080: 2756 383e 25cc ed3c dbc8 b03e 4d09 08be
00000090: 5194 cbbe 5584 c3bd 5996 693e da02 753e
000000a0: b317 a73e b704 09be 14f9 103d 641e b6be
000000b0: a375 25be de43 b2be 62c6 5cbd f3ae 023e
000000c0: d440 693d 540e 993e fee9 eb3e 48a0 af3e
000000d0: 5f9f e0be 1263 973d d4ce 823e e42b edbe
000000e0: 9d51 523e a46b c53e 2a74 bbbe fd99 1a3e
000000f0: abe7 0bbe f81f f93d ae9a 0e3d de29 98be

fc2.weight f4 [64, 64]
0.13120243 -0.12408084 0.06822314 -0.06534927 -0.08588566 -0.08372927 0.044130586 -0.13990597
0.003770247 -0.018592674 -0.16747747 -0.020433819 -0.091647446 -0.060186036 0.031633724 -0.00011848237
-0.024569882 -0.08512659 0.044463437 -0.014878855 0.11611338 -0.07996268 -0.06008096 -0.0409208
0.0014860948 0.16655256 -0.011940178 0.13216037 -0.15578009 0.11142215 -0.03917062 0.12897398
-0.0096814325 0.09064989 -0.0006893373 0.009864405 -0.089152694 -0.091827594 0.08797605 -0.0826365
0.14558397 -0.033377208 0.015947798 -0.032246917 0.068902634 -0.18668333 0.05187652 -0.063490205
-0.14831765 -0.102238454 0.120643325 -0.021687059 -0.0016563714 0.0043833554 -0.0693632 -0.15050608
-0.047328245 -0.11875899 0.02308544 0.06808223 -0.043970227 -0.06033294 -0.018604772 -0.042643867
0.009256173 0.06493641 0.02365805 -0.032817163 -0.13617113 -0.007979435 -0.104206435 -0.13396688
-0.00063695014 0.05900802 0.026517276 -0.049533337 -0.040376168 -0.15126947 -0.16691948 0.04568243
0.113554 0.059325144 -0.1210595 0.070842616 -0.058522522 -0.12143053 0.073759325 0.03432668
0.026296264 0.08924597 -0.12681559 0.12794138 -0.008595333 -0.07383652 0.096282415 -0.030255012
-0.028950194 -0.08481963 -0.16082889 0.029610649 0.04933554 0.009528011 0.06896819 0.023456091
-0.07209602 0.078915164 -0.049326666 0.0231084 0.022269206 -0.15457311 0.13906787 -0.00342881
-0.04212739 -0.029069114 -0.022985453 0.10021881 0.05885391 -0.05037071 -0.23358063 -0.11121351
-0.015627105 -0.15194997 -0.058258537 0.08983846 -0.0030743983 -0.077062026 0.014516041 0.12341925
-0.0024974172 -0.0472809 -0.05679633 -0.076057866 -0.1516141 0.08602886 0.027706422 -0.017898917
-0.026313514 -0.09627208 0.10225065 -0.10984794 0.016453657 -0.047159195 0.012475169 -0.1234282
-0.0013400567 -0.066378735 -0.014515693 -0.086205415 -0.038948312 0.029129386 -0.080525726 0.026125275
0.048682034 0.068742044 0.11342085 0.048786715 0.083703294 -0.10143562 0.08766305 -0.078407034
0.06863004 -0.020876806 0.069290124 -0.09014377 -0.026546583 0.014344066 -0.049824107 0.053386167
-0.0696132 -0.15882619 -0.1475208 0.079115234 -0.023111142 -0.0011688918 0.094903685 0.024339112
-0.031059787 -0.024294203 -0.07026639 0.11969417 0.12700742 -0.08736825 -0.124893494 0.055256326
-0.0395001 0.00019587083 -0.09999619 -0.033115346 0.025061293 -0.11552401 0.00931704 0.033725984
0.18754952 0.23875223 0.065074794 0.07695665 0.013548017 0.0054708007 -0.085074805 -0.02060228
0.015037492 0.047354702 -0.026850706 -0.006011304 0.09998988 0.014270844 -0.030770939 -0.02876611
0.017598249 -0.061705828 0.14077796 0.09880728 -0.025525674 0.13892004 -0.091651835 -0.0332846
0.029529583 0.04038519 0.110262096 0.0012707434 -0.013897831 0.11826304 0.10091679 -0.07267635
0.035654545 0.019067882 -0.039142177 0.03655943 -0.11514066 -0.012011614 -0.034056388 0.054827396
0.18194576 -0.061673578 0.016541453 -0.036973786 0.17465699 0.086175494 0.0909158 -0.032756433
0.055382468 0.030636473 0.22464412 0.13898407 0.060658228 0.19768867 -0.043535117 -0.10814922
0.07425229 0.09881445 0.09349633 -0.042284615 0.032828536 -0.024711154 0.082756974 -0.011822913
00000000: ee59 063e 181e febd 93b8 8b3d d7d5 85bd
00000010: d2e4 afbd 407a abbd 46c2 343d 8343 0fbe
00000020: 4016 773b aa4f 98bc 377f 2bbe d364 a7bc
00000030: a8b1 bbbd a285 76bd 5d92 013d bd79 f8b8
00000040: c746 c9bc da56 aebd 4b1f 363d 71c6 73bc
00000050: dacc ed3d 79c3 a3bd 7417 76bd 929c 27bd
00000060: 11c9 c23a c18c 2a3e bda0 43bc 0c55 073e
00000070: d184 1fbe 4c31 e43d 5f71 20bd c111 043e
00000080: df9e 1ebc a6a6 b93d a5b4 34ba 509e 213c
00000090: b095 b6bd 1b10 bcbd ca2c b43d 533d a9bd
000000a0: f713 153e 8ab6 08bd f5a4 823c 5815 04bd
000000b0: d31c 8d3d ea29 3fbe 797c 543d 2707 82bd
000000c0: 95e0 17be 6562 d1bd d913 f73d 0fa9 b1bc
000000d0: 9a1a d9ba 40a2 8f3b 4b0e 8ebd 441e 1abe
000000e0: 43db 41bd ea37 f3bd ad1d bd3c b26e 8b3d
000000f0: 201a 34bd ac1f 77bd 0969 98bc 56ab 2ebd
00000100: 34a7 173c 61fd 843d 87ce c13c 4a6b 06bd
00000110: 7270 0bbe 2dbc 02bc 2f6a d5bd 9d2e 09be
00000120: 00f9 26ba 65b2 713d c23a d93c 78e3 4abd
00000130: 7b61 25bd 62e6 1abe f1ec 2abe 801d 3b3d
00000140: 008f e83d ecfe 723d 0bee f7bd ef15 913d
00000150: 50b5 6fbd 92b0 f8bd 210f 973d 229a 0c3d
00000160: 436b d73c 97c6 b63d f2db 01be 1103 033e
00000170: 71d3 0cbc 9a37 97bd b72f c53d 5cd9 f7bc
00000180: f528 edbc eab5 adbd 54b0 24be 0892 f23c
00000190: 1014 4a3d 601b 1c3c 323f 8d3d fd26 c03c
000001a0: 14a7 93bd 469e a13d c20a 4abd d44d bd3c
000001b0: e96d b63c 6a48 1ebe cf67 0e3e e3b5 60bb
000001c0: c58d 2cbd 5a22 eebc fd4b bcbc 853f cd3d
000001d0: cc10 713d 8551 4ebd c32f 6fbe e9c3 e3bd
000001e0: 6a04 80bc c698 1bbe 81a0 6ebd 3afd b73d
000001f0: d87b 49bb b2d2 9dbd b0d4 6d3c 3bc3 fc3d
00000200: b5ab 23bb 9ea9 41bd 45a3 68bd 3ac4 9bbd
00000210: ba40 1bbe e62f b03d 94f8 e23c c0a0 92bc
00000220: 708f d7bc 4c2a c5bd ca68 d13d f5f7 e0bd
00000230: d2c9 863c 002a 41bd a764 4c3c edc7 fcbd
00000240: d7a4 afba 93f1 87bd 3bd3 6dbc 778c b0bd
00000250: 4488 1fbd c0a0 ee3c acea a4bd ac04 d63c
00000260: d066 473d a1c8 8c3d 3149 e83d 94d4 473d
00000270: a26c ab3d 7abd cfbd af88 b33d de93 a0bd
00000280: e88d 8c3d d605 abbc fbe7 8d3d 4c9d b8bd
00000290: 3878 d9bc 6003 6b3c 5d14 4cbd 74ab 5a3d
000002a0: 5e91 8ebd 55a3 22be b10f 17be 2b07 a23d
000002b0: 9453 bdbc 8035 99ba dd5c c23d d162 c73c
000002c0: 1871 febc a304 c7bc d3e7 8fbd 3822 f53d
000002d0: 3c0e 023e 20ee b2bd 29c8 ffbd 7554 623d
000002e0: dbca 21bd ad62 4d39 cdca ccbd f5a3 07bd
000002f0: 574d cd3c da97 ecbd 80a6 183c 4224 0a3d
00000300: fb0c 403e 777b 743e ef45 853d 739b 9d3d
00000310: 80f8 5d3c 6744 b33b b33b aebd 1dc6 a8bc
00000320: d05f 763c 01f7 413d 03f6 dbbc 79fa c4bb
00000330: 7fc7 cc3d 42d0 693c 5613 fcbc e8a6 ebbc
00000340: 342a 903c 40bf 7cbd 1928 103e 795b ca3d
00000350: 381b d1bc 0e41 0e3e f5b3 bbbd 6f55 08bd
00000360: 06e8 f13c f16a 253d 18d1 e13d 138f a63a
00000370: bab3 63bc e533 f23d 76ad ce3d 57d7 94bd
00000380: 800a 123d 3f34 9c3c 8c53 20bd 57bf 153d
00000390: dece ebbd 5ccc 44bc b67e 0bbd b192 603d
000003a0: fd4f 3a3e 6f9d 7cbd f181 873c d371 17bd
000003b0: 48d9 323e c77c b03d 1032 ba3d 9c2b 06bd
000003c0: bad8 623d 57f9 fa3c 1c09 663e d751 0e3e
000003d0: c374 783d e66e 4a3e e151 32bd 577d ddbd
000003e0: 9611 983d 3b5f ca3d 017b bf3d a232 2dbd
000003f0: 3777 063d 0c6f cabc 7d7c a93d e4b4 41bc

fc2.bias f4 [64]
0.023849012 -0.0583624 -0.05073731 0.05107985 -0.13723172 0.010524888 -0.039043814 0.06678065
-0.0033859357 -0.00016810672 -0.07417839 -0.08222395 0.02381583 -0.048792813 -0.11433066 -0.009018391
-0.101449296 -0.012646356 0.007905392 -0.13240203 -0.048089497 0.04390749 -0.0034524621 -0.08037237
0.12711884 -0.07826578 -0.021152068 -0.042668607 0.007367752 -0.10413836 0.10074815 -0.039476506
0.077802666 0.09190976 0.036341153 -0.006102395 -0.08376158 0.10285372 -0.08382804 0.0018609811
-0.01053554 -0.048080537 -0.05301049 -0.122292906 -0.13282605 -0.08168359 0.043451093 0.14645177
0.041243862 -0.043702535 -0.054826073 0.06489823 0.07232614 0.07728463 0.043609917 -0.055362567
0.017885985 0.073884726 -0.09754905 0.10021632 0.0010707801 -0.1196226 0.08275119 -0.030294767
00000000: 015f c33c 690d 6fbd edd1 4fbd 1b39 513d
00000010: 7986 0cbe 9470 2c3c 68ec 1fbd 4bc4 883d
00000020: 93e6 5dbb ce45 30b9 d7ea 97bd 0865 a8bd
00000030: 6a19 c33c f9da 47bd 3126 eabd e0c1 13bc
00000040: a6c4 cfbd a932 4fbc 9e85 013c 6694 07be
00000050: 7ef9 44bd 57d8 333d b442 62bb 459a a4bd
00000060: 712b 023e cf49 a0bd 1a47 adbc 47c5 2ebd
00000070: 2f6d f13b 7e46 d5bd 0c55 ce3d 1eb2 21bd
00000080: 0157 9f3d 2f3b bc3d 76da 143d 99f6 c7bb
00000090: 318b abbd f9a4 d23d 09ae abbd 2aec f33a
000000a0: 429d 2cbc 19f0 44bd 8721 59bd b474 fabd
000000b0: 8d03 08be ba49 a7bd c6f9 313d 74f7 153e
000000c0: 53ef 283d 6e01 33bd 4e91 60bd 5de9 843d
000000d0: ba1f 943d 6747 9e3d 50a0 323d dcc3 62bd
000000e0: a185 923c e050 973d ccc7 c7bd 373e cd3d
000000f0: 6b59 8c3a b2fc f4bd 7579 a93d bb2c f8bc

fc3.weight f4 [1, 64]
-0.030700324 -0.08277507 -0.00032670685 -0.11485626 0.0042367303 0.069412015 -0.08256627 0.1227314
-0.011590189 0.0384672 -0.08477283 0.013979391 0.07269639 0.0015181312 0.079185866 0.1425866
0.02424969 0.0049306033 -0.019610047 -0.0068365573 0.045385003 -0.030106023 -0.1374835 0.14194775
-0.124240756 -0.052325856 0.123606086 -0.052665073 -0.012811686 -0.10468988 -0.1346985 -0.045190662
0.043823816 -0.11494389 0.014420671 0.09418252 -0.083528 0.029120311 0.024928179 0.0022729205
0.040306434 0.014791586 0.042862404 -0.055863246 0.026026396 0.03294268 -0.009756215 -0.13928795
0.0022678485 -0.10464857 -0.057661448 0.015385934 0.1334856 -0.0062250136 0.09797829 0.01842324
0.13565004 -0.14429715 -0.05363337 -0.076842606 -0.063168764 0.029827414 -0.1758381 0.11470431
00000000: 3f7f fbbc fa85 a9bd da49 abb9 c239 ebbd
00000010: 45d4 8a3b e327 8e3d 8118 a9bd 9a5a fb3d
00000020: c7e4 3dbc c88f 1d3d 619d adbd d109 653c
00000030: d8e1 943d 08fc c63a 332c a23d 3902 123e
00000040: 49a7 c63c e690 a13b 40a5 a0bc 3305 e0bb
00000050: a0e5 393d e8a0 f6bc 7ac8 0cbe c05a 113e
00000060: f071 febd a353 56bd 3025 fd3d 55b7 57bd
00000070: 1be8 51bc a667 d6bd 67ee 09be d819 39bd
00000080: 9a80 333d b467 ebbd ae44 6c3c c4e2 c03d
00000090: ba10 abbd b88d ee3c 2e36 cc3c 47f5 143b
000000a0: 5c18 253d 6958 723c 7d90 2f3d dcd0 64bd
000000b0: 4f35 d53c e7ee 063d 88d8 1fbc 80a1 0ebe
000000c0: 2fa0 143b fd51 d6bd 692e 6cbd 4915 7c3c
000000d0: 73b0 083e 33fb cbbb d7a8 c83d 56ec 963c
000000e0: d8e7 0a3e a2c2 13be aaae 5bbd a85f 9dbd
000000f0: a05e 81bd 9f58 f43c e70e 34be 18ea ea3d
