models/Q_net64_5_prT.pth (torch, 20999 bytes, 5 tensors)

fc1.weight f4 [64, 6]
000000 7e dc f5 3d 8e da 71 3e 76 2a c6 3e 71 d3 e7 3d
       0.12004946 0.23618528 0.3870427 0.11319626
000010 84 fb 9f 3d bd 09 d3 3e 5e c4 13 3e ca b4 49 be
       0.07811645 0.41218367 0.14430377 -0.19697872
000020 3b 0f 2e 3e 7a d3 d2 3e 13 bc b7 be aa b4 74 3e
       0.16997997 0.4117697 -0.35885677 0.23897043
000030 ea 8f c3 bd e3 12 af 3e 6e cc 88 3d 12 34 ad be
       -0.09548934 0.34194097 0.06679617 -0.3382879
000040 88 ac d2 bd ed 87 b6 3d 50 e2 4c 3d 90 30 60 3e
       -0.10286814 0.089126445 0.050020516 0.21893525
000050 10 82 2f 3e f1 a4 d5 bd 90 e8 08 bd 50 fb 6a 3e
       0.17139459 -0.10431851 -0.033424914 0.2294743
000060 8c 59 ea 3b 5d d3 c0 3e f7 71 a7 3e 2c dd e8 be
       0.007151788 0.37661257 0.32704136 -0.4548124
000070 a8 a8 5b 3e e4 e9 61 be c7 5c 44 be 0c b6 3a be
       0.21451056 -0.22061878 -0.19176017 -0.18233508
000080 7a fe ad 3e 07 be 1c 3e 1a ff 8b be 84 61 b5 be
       0.33983213 0.15306865 -0.27343065 -0.3542596
000090 df a9 9b 3e 8f d7 07 be 63 1a 80 3e e3 a9 cc 3e
       0.3040304 -0.13265823 0.2502013 0.39973363
0000a0 08 f0 a3 3e 95 54 0b be 0a b3 85 3e 27 e9 52 bd
       0.32019067 -0.13606484 0.26113158 -0.051491883
0000b0 fe 50 a9 be 4f 25 c9 bd d3 0d 94 be 7c d0 bc be
       -0.33069605 -0.09821569 -0.28916797 -0.3687781
0000c0 4e a6 8c 3e 31 51 b0 3c 2b 48 a3 be d5 1c b5 be
       0.2747063 0.02152309 -0.31890997 -0.3537356
0000d0 c7 d2 c4 be 88 a7 25 be 56 a1 a5 be 14 5e 28 be
       -0.3844206 -0.1617719 -0.32349652 -0.16442138
0000e0 28 a5 f6 bd c6 30 5d 3e 88 20 fb 3d 29 2a 4b be
       -0.1204322 0.21600637 0.12262064 -0.19840302
0000f0 9b 8f ab bd fc 0b b1 3e fb 15 05 3d 43 d0 65 bd
       -0.08377 0.34579456 0.032491665 -0.056106817
000100 f0 85 d7 bd 9b 4c 03 3d de db a5 3e 0d 71 b5 3e
       -0.105235934 0.03205548 0.32394308 0.35437813
000110 13 ea 9e be 0e 0d ee be 80 d4 df 3d 12 1a 05 be
       -0.3103796 -0.46494335 0.10929203 -0.12998226
000120 7c ad 03 3e cb 43 44 3e 66 14 18 3e 39 79 d6 bd
       0.12859148 0.19166486 0.14851531 -0.1047234
000130 2a 29 a9 3e 79 37 b1 be b5 8f 5d 3e 4f 13 21 be
       0.33039218 -0.34612635 0.21636851 -0.15730022
000140 85 52 81 bb a3 b4 25 3d 2c 3e 94 3e f7 06 a8 3e
       -0.0039466047 0.04045547 0.28953683 0.32817814
000150 c0 ad 02 bf 87 d1 88 3e cb 2e 40 be 83 7d a5 be
       -0.5104637 0.26722357 -0.1876785 -0.3232232
000160 10 4b c7 3d aa f3 1d 3e 3c 51 af 3e 80 3c 76 be
       0.09731114 0.15424982 0.34241664 -0.24046516
000170 af a7 bb 3c 54 bf e9 bd a8 e8 98 3e b6 25 1f be
       0.022907106 -0.11413446 0.29865003 -0.1554173
000180 52 49 85 3e 71 f2 5f 3a 0f 2f be be f4 c4 94 3e
       0.260325 0.00085429015 -0.37145278 0.29056513
000190 fb ab 2b be 33 06 86 3d 57 d1 c8 3e 5b 6a 55 be
       -0.16764824 0.06544151 0.39222214 -0.20841353
0001a0 e0 69 9a 3e b6 e5 50 3e c2 99 0d be 1c 2a 9a 3e
       0.301589 0.20400128 -0.13828185 0.30110252
0001b0 a2 7f ed bd 61 9e 28 be 65 fa 53 be 94 4a 4a 3e
       -0.1159661 -0.16466667 -0.20700987 0.19755012
0001c0 ac a5 13 3e 48 30 1e bd 32 1b ad 3e 67 5a 89 be
       0.14418668 -0.038620263 0.3380981 -0.26826784
0001d0 d4 1a ac be 2f 82 d0 3e 90 d3 ef bd 1f 23 b3 3e
       -0.33614218 0.40724322 -0.11710274 0.34987733
0001e0 60 9c 61 3e d0 09 a3 be e5 04 00 be 83 09 b7 3c
       0.22032309 -0.31843424 -0.12501867 0.022343403
0001f0 0c e6 20 be 05 22 d2 bd 9b e5 f1 3d be f0 cf 3d
       -0.15712756 -0.10260395 0.11811372 0.1015334
000200 3b 30 08 3e e3 eb 42 3e 44 3a cb be f3 e3 87 3b
       0.13299648 0.19035296 -0.3969289 0.0041470467
000210 14 d9 17 be 6d 51 34 be a3 d2 b9 3e f0 64 65 be
       -0.14828902 -0.17609186 0.36293516 -0.22401786
000220 1d 87 c1 be db 79 88 3c ac 89 4a be 7e 4e 56 3e
       -0.37798396 0.016659668 -0.1977908 0.2092838
000230 31 d5 90 3e bc b1 09 bf 88 bc 7a 3e fb d1 e3 bd
       0.28287652 -0.53786826 0.24485981 -0.11124035
000240 e3 cc d4 3d e6 9a b8 be 29 6e ae 3e e8 0a 8e 3d
       0.103906415 -0.36055678 0.3406842 0.06935674
000250 0a 61 90 3e 66 ac 01 3e 94 24 36 3e 2a 8e 9c 3e
       0.28199035 0.12663421 0.17787391 0.30577213
000260 f7 aa c9 be 82 be b4 3d b4 d6 2c 3e b3 93 6c 3e
       -0.39388248 0.08825399 0.16878778 0.23103218
000270 03 8d 8d 3d 37 9e f3 3d 5d 91 86 3e 0b 9a 3e 3d
       0.069116615 0.118954115 0.26282778 0.046533626
000280 52 f3 14 be f2 5a cf 3d 3e 79 76 3e eb 40 6a be
       -0.14545944 0.10124768 0.24069688 -0.22876327
000290 a9 33 7d 3e a0 70 22 be a4 d5 93 3d 60 ab 65 bd
       0.24726738 -0.15863276 0.07218483 -0.05607164
0002a0 58 d4 52 3e ec 26 ed 3d be 15 94 3d 1e df 87 3d
       0.20588815 0.115796894 0.072307095 0.06634353
0002b0 50 f7 c2 bc 5b 38 58 be b9 83 32 3e 03 df 74 bc
       -0.023799568 -0.21115248 0.1743306 -0.014945748
0002c0 8d 77 06 3e 26 ef e9 bd 06 08 b2 be 29 fa c2 3d
       0.13131543 -0.11422567 -0.34771746 0.095203705
0002d0 04 e7 e4 bd e8 51 db 3e 84 8d 9f 3e 92 d3 b2 3e
       -0.11176875 0.42835927 0.31162655 0.3492704
0002e0 80 0b 0c 3b ae 8f b1 3e 64 c5 31 3d 34 8b e4 3e
       0.002136916 0.3467993 0.043401137 0.44637454
0002f0 6d 8e 9b bd e6 cf 0a 3f 7d 68 9d be 47 28 ba 3e
       -0.07595525 0.5422348 -0.3074378 0.36358854
000300 4e 3e c1 bd 12 2f 07 3e db a2 8f bd 4d 17 c2 be
       -0.09435712 0.1320155 -0.07013484 -0.37908402
000310 0a e4 10 be 00 27 cb 3e 84 bc 09 3e 1d 4c 89 3c
       -0.1414949 0.39678192 0.13450819 0.016759926
000320 2a 25 20 3e b8 50 c4 3d 60 ab c8 3d 92 a6 2f 3e
       0.15639177 0.095857084 0.09798312 0.17153385
000330 d7 3a df bd 1a a7 b1 be 49 65 91 be 1a c5 bb 3e
       -0.10899895 -0.346978 -0.28397587 0.36673814
000340 2c 36 25 3e 9b 4b 7f be 02 51 eb be 11 e1 7c 3e
       0.16133946 -0.24931185 -0.45960242 0.24695231
000350 21 d0 ac bc 64 a5 5b be 9b a2 34 be 69 23 35 be
       -0.021095337 -0.2144981 -0.17640154 -0.17689289
000360 93 da 9f 3e 23 bd aa be e2 29 c7 3e 6e 08 e2 be
       0.31221446 -0.33347425 0.38899142 -0.44147056
000370 e4 d6 5a 3e c6 56 25 3e 24 12 50 3e 25 e9 57 bd
       0.21371037 0.16146383 0.2031942 -0.05271258
000380 8e 7b f7 3d 18 be e2 be 6a f1 77 be 57 29 a7 3e
       0.12084113 -0.44285655 -0.24213186 0.32648727
000390 01 45 9b be 27 b8 bc 3d 51 fb 89 be f8 7f e7 3e
       -0.30326083 0.09214812 -0.26949552 0.4521482
0003a0 c4 70 0d 3e 01 5a e0 bd dd 37 70 be ac 92 b9 3e
       0.13812548 -0.10954667 -0.2345881 0.36244714
0003b0 cd 83 10 3d 81 c5 fc 3e 64 af b3 3e c7 76 7f be
       0.035281945 0.49369434 0.3509475 -0.24947654
0003c0 0c de 37 3c 88 0a 9b bc a6 08 bd be 24 24 ac 3e
       0.011222374 -0.01892592 -0.3692066 0.33621323
0003d0 b4 80 13 3e 45 dc c8 bd e9 a7 6a 3d ff 8e 08 3e
       0.14404565 -0.09807638 0.057289038 0.13335799
0003e0 36 4b ee be 44 0b 51 be 80 01 c8 be a1 aa 6d 3e
       -0.46541756 -0.20414454 -0.39063644 0.23209621
0003f0 ce c7 5a 3c 6d 97 6b 3e 64 4b 97 3e b7 84 5e be
       0.013353301 0.23006983 0.29549706 -0.21730314

fc1.bias f4 [64]
000000 bf 7a c8 3e 9a 97 7e be db 92 c8 3e ef 52 87 be
       0.39156148 -0.24862519 0.39174542 -0.2643046
000010 07 5b 32 3e 58 11 fd 3b 07 e7 75 3e 68 34 a4 3e
       0.17417537 0.007723015 0.24013911 0.32071233
000020 03 74 b6 bd f9 56 93 3d 5a d8 c3 be 1e 5e 8b 3e
       -0.08908846 0.07194323 -0.38251 0.27220243
000030 29 81 7a be ad b0 9c 3e 2f eb cb 3e 2f 8e 39 be
       -0.24463333 0.30603543 0.39827868 -0.18120645
000040 00 60 06 bc a8 fe e4 bd 73 01 8e be 99 c3 dc 3d
       -0.008201599 -0.11181384 -0.2773548 0.10779495
000050 a5 ca f8 3d e7 e9 19 3e 06 35 82 be b0 02 a8 be
       0.121480264 0.15030633 -0.2543108 -0.3281455
000060 c0 ed 14 be 5e b3 16 be b1 28 09 bf 74 9e af be
       -0.1454382 -0.1471686 -0.53577715 -0.34300578
000070 26 b8 c5 be 36 94 25 3e 50 5b 04 be c0 50 8b 3d
       -0.38617057 0.16169819 -0.12925458 0.06802511
000080 71 20 3d 3e 28 f5 ae bd 1c bd 1e 3e b4 d6 c6 bd
       0.18469407 -0.085428536 0.15501827 -0.0970892
000090 14 26 4f 3d 7e e1 84 3e 73 4b d7 3e ca 95 9b be
       0.050573424 0.25953287 0.4204975 -0.30387717
0000a0 f6 8d 92 bd f0 c4 9a 3d de 09 34 be bd 89 dc 3e
       -0.07155983 0.07557094 -0.17581889 0.43073836
0000b0 a7 71 da 3e 60 a5 20 3e d1 c7 b9 3d 45 c7 c0 3b
       0.42664835 0.15688086 0.09071315 0.00588313
0000c0 c7 58 c4 3e 03 11 79 bc fa 05 ab be f1 51 c7 be
       0.38348982 -0.01520181 -0.33402997 -0.38929704
0000d0 9d 11 2d bc 6d 80 98 3e f9 5d b2 be f4 9a 7f be
       -0.010563281 0.2978548 -0.3483732 -0.24961454
0000e0 83 b5 bb 3a 2b c7 9e 3e 54 85 67 bd 36 aa 0f be
       0.0014321062 0.31011328 -0.056523636 -0.14029774
0000f0 1b c2 9e be 2c 8a 5b be 1e 7a b7 3d 29 45 ce 3e
       -0.31007466 -0.21439427 0.08958839 0.4028714

fc2.weight f4 [64, 64]
000000 4a ea 79 bd e7 d2 a3 bd a2 b1 42 3e b2 cc c1 bd
       -0.06101445 -0.07999211 0.19013074 -0.09462871
000010 e2 f0 96 bc 6b a1 9c b9 62 d3 4e 3d c5 83 44 bc
       -0.018425409 -0.00029874904 0.05049456 -0.011994307
000020 7a 3a 81 3c 8d 57 03 3e 15 84 40 3d 87 c0 12 be
       0.015774954 0.12826367 0.047000963 -0.14331256
000030 45 7a 39 be 86 b9 13 bd e6 40 8a 3d 45 22 47 3c
       -0.18113048 -0.0360656 0.0675066 0.012154167
000040 31 7a 49 3d 45 4a cd 3c 8a 9c 05 3d 42 0c 89 3b
       0.049188796 0.025059829 0.03261999 0.0041823694
000050 a7 1c 5a 3d 55 70 8e bc 8f 5b 32 3d 78 60 b4 3c
       0.05324998 -0.017387548 0.04354435 0.022018656
000060 79 2b 45 be a5 4d 87 3c b8 18 df 3c 1e 63 4c be
       -0.19254865 0.016516516 0.027233467 -0.19959685
000070 3a cd be 3d ba 4b 09 be 7e a7 85 3d 25 bf e8 3c
       0.093164876 -0.13407794 0.06526087 0.028411457
000080 b1 da 63 3d 34 01 20 be 07 79 f6 bd 67 44 7b bd
       0.055628482 -0.15625459 -0.12034803 -0.06134453
000090 a5 ee 62 3d 2d 7c c1 bd 6c 1f c8 3b 7e 46 c8 bd
       0.05540337 -0.09447513 0.0061072614 -0.0977907
0000a0 d9 71 f0 3d a7 27 3c 3d 53 cc b6 3b 6c 6f 25 3c
       0.11740465 0.045936253 0.0055785566 0.010097366
0000b0 50 9e a1 3d 23 a7 0a 3e 77 2d c9 bd b4 be aa bc
       0.07891524 0.1354032 -0.09823125 -0.020842887
0000c0 3b 15 b0 3d b5 2a 6f bd a6 26 c6 3d 27 87 8c 3d
       0.085977994 -0.058390338 0.0967534 0.06861716
0000d0 ec db bf 3d a5 8c 06 be 42 fd c5 bd b7 27 12 3c
       0.09368119 -0.13139589 -0.09667446 0.008920602
0000e0 df c4 fb 3d 5c 14 0f bd 7b f0 da bd 29 04 0f be
       0.122934096 -0.034931526 -0.10690399 -0.1396643
0000f0 ce 66 a8 3d 88 0a c3 3d 60 66 bf bd d9 f1 b0 3d
       0.082227334 0.09523493 -0.09345698 0.08639879
000100 84 9b da bd fa 9a c0 bd 26 93 7b bc ac 83 b5 bc
       -0.106741935 -0.094045594 -0.015354907 -0.022157513
000110 f2 e3 07 bc 6d 20 f7 bd 4f cc e5 bd 81 02 98 3d
       -0.0082940925 -0.120667316 -0.112206094 0.074223526
000120 18 70 c2 bd ff d6 58 3c 45 2f 9b 3d 5c 04 52 ba
       -0.094940364 0.013234853 0.07577375 -0.0008011514
000130 ed 70 aa bd d3 66 f0 3d 9d 73 bf 3d 00 22 f1 3a
       -0.0832232 0.11738362 0.09348223 0.0018396974
000140 88 83 b1 bd 7f 4d 5d 3c 20 b2 70 3c 0a e9 13 3d
       -0.08667666 0.013507246 0.014690906 0.036110915
000150 fb fe dd bc eb 55 8b bd 1b 95 af bd c1 b9 a2 bc
       -0.027099123 -0.06803497 -0.085733615 -0.019863965
000160 2f 39 10 be d6 6a 08 3d 51 2d 6c bd dd 2b 2f 3c
       -0.14084314 0.03330501 -0.057660405 0.01069161
000170 00 37 80 bb 17 42 9a bc a7 d5 e4 bd 4d f9 9d bd
       -0.0039128065 -0.018830342 -0.111735635 -0.07713566
000180 cb f9 6d 3b 26 dc f7 3b 00 16 e6 3d 70 7a 3f bc
       0.0036312218 0.0075640855 0.11234665 -0.011686906
000190 1f a2 b0 bd d3 d3 07 bd 04 f0 ac bd cb ea 0b bd
       -0.08624672 -0.033160996 -0.08444217 -0.034159463
0001a0 58 a9 c2 3c fb 51 8c bd 5a 4a d7 39 21 49 7f 3d
       0.02376239 -0.06851574 0.00041063392 0.0623256
0001b0 0d 68 72 3d 8d 2d b2 3d c9 47 ee 3c 09 13 41 3d
       0.05918126 0.08700094 0.029086964 0.047137294
0001c0 70 da 46 bd c1 ef 43 3d b2 c9 8e 3d b4 00 e3 bc
       -0.048548162 0.04783607 0.06972064 -0.027710296
0001d0 a3 c0 ce 3d 1a 75 81 3d 48 5b f8 bd bd b4 b4 3d
       0.10095336 0.063211635 -0.121267855 0.088235356
0001e0 a0 e1 cd bc 84 4f ac 3d ad b1 b3 3d 49 ce 75 3b
       -0.025132 0.08413604 0.08774123 0.0037506989
0001f0 60 39 61 bd cb c1 db 3b 5c 47 3a 3d b4 18 bc bb
       -0.054986358 0.0067064515 0.04547821 -0.0057402495
000200 47 6a 80 bd f2 2d a5 bc 44 c5 a6 3d fa 5d ae bd
       -0.06270271 -0.02016351 0.08143094 -0.08514018
000210 bc b3 cf 3d ba d5 89 bd 23 4b 7f 3d b3 3b f9 3d
       0.101417035 -0.06730218 0.062327515 0.1216959
000220 9c 64 29 3d bb 3f 07 3e fe da b3 bd b4 ec 06 3d
       0.041355714 0.13207905 -0.08782004 0.03294058
000230 5f 49 c8 bd b7 98 5d bd c1 98 84 bd 90 88 ef 3d
       -0.097796194 -0.05410072 -0.06474448 0.11695969
000240 68 51 a2 bd 00 74 1f be a6 97 ad 3d 74 e9 a5 bc
       -0.07925683 -0.15571594 0.0847619 -0.02025292
000250 82 81 34 3d 06 40 46 3c 38 fd 7b 3d a2 c6 09 3c
       0.04406882 0.012100225 0.061520785 0.008409174
000260 49 5e b6 bd 00 6a 65 bc 30 69 8f bc 6a 0a 49 bd
       -0.08904702 -0.014002323 -0.017506212 -0.049082197
000270 0c 47 70 bc 16 28 ea 3d 72 c5 e7 bd 31 5d bc 3d
       -0.014665376 0.11433427 -0.113169566 0.09197462
000280 66 e4 29 3e 55 bc f5 bd f5 2e b7 3d 39 a2 40 bd
       0.16591033 -0.11998812 0.08944503 -0.047029708
000290 24 e1 64 bc 52 30 71 bd 3b 78 07 bb 2e f8 25 3c
       -0.013969693 -0.058883972 -0.0020671028 0.010129971
0002a0 21 10 18 bd 1d bf 88 3a 68 89 c2 bd b2 82 ae 3d
       -0.037124757 0.0010432933 -0.094988644 0.08521022
0002b0 ff 51 c0 bc 5f 51 0c bd 76 5e 01 3e 6c fd de bd
       -0.023476599 -0.03425729 0.1263369 -0.1088818
0002c0 93 f8 f7 3b 23 64 34 bc 0c b1 9e 3d b6 1f 9d bd
       0.007567474 -0.011010203 0.07748613 -0.07672064
0002d0 d6 4b 4d 3d ee 22 a8 3d 5c de 77 bd 25 f1 a4 bd
       0.05012115 0.08209787 -0.060514793 -0.08053807
0002e0 78 80 34 3d 22 4c 1c bd b1 8b d4 ba 38 aa 71 bd
       0.04406783 -0.038158543 -0.0016215948 -0.059000224
0002f0 c1 52 67 bd ff 28 57 3c 95 7c c1 3c 71 a7 8a bc
       -0.056475405 0.013132333 0.023618976 -0.016925545
000300 ac e4 8f 3c f7 b4 91 bd 30 b3 65 bd fe 8a c1 b6
       0.017565094 -0.071145944 -0.05607909 -5.768029e-06
000310 4e 7f 3a 3d 49 8d 88 bd c3 6f c1 3d 9d 52 96 3d
       0.045531563 -0.06667573 0.09445145 0.07339976
000320 6e 7e ca 3d e5 da d4 bd 9e a7 e2 bc da 72 35 bc
       0.09887396 -0.10393313 -0.027667817 -0.011074746
000330 33 ae 59 bd 8b 4d dc 3d a6 79 c3 3d cc fe 28 3d
       -0.053144645 0.10756978 0.09544687 0.04125862
000340 f3 ab 5e bd 1b 5e a1 bd c0 1c 75 bd 05 a1 f8 bd
       -0.054363202 -0.07879277 -0.05984187 -0.12140087
000350 b3 08 b2 3d 30 af 0e bd a8 92 de bc 37 4b 0b be
       0.086930655 -0.03483504 -0.02716954 -0.13602911
000360 26 f9 0e bd ab d6 4a bc 7f c0 03 be c9 58 18 3c
       -0.034905575 -0.012380282 -0.128664 0.009298512
000370 34 57 43 bd 6d 00 88 3b 0c 48 86 3d bb e9 8c bc
       -0.047690585 0.0041504414 0.065567106 -0.017201295
000380 30 99 63 3d 94 ca 05 be f4 54 d1 bd d3 03 29 be
       0.055566013 -0.13065559 -0.10221282 -0.16505365
000390 90 15 30 3c b9 7c db 3d c7 bf 65 bd c0 2e af bd
       0.010747328 0.10717148 -0.056091096 -0.08553839
0003a0 22 0d 1b bc 14 0c 94 bd dc 24 a1 bd d0 44 7a bd
       -0.00946358 -0.07228866 -0.078683585 -0.06110078
0003b0 f0 7b 89 3d c1 4e fd bc 38 c3 27 bd 89 a9 b4 3d
       0.06713092 -0.030921342 -0.04095766 0.08821399
0003c0 0b 7b 98 3d 5f d8 b9 bb 7e 07 a1 3d 80 22 2d be
       0.074453436 -0.0056715454 0.07862757 -0.16907692
0003d0 2c 19 cb bc 31 09 4b bc 7e ad e8 bd f6 0d 87 bd
       -0.024792276 -0.012392328 -0.11361216 -0.0659446
0003e0 63 5e e5 3c fb 8e 53 3d 93 77 e4 bd 62 52 a4 bd
       0.027999109 0.05165003 -0.111556195 -0.08023526
0003f0 00 74 47 bd 85 d7 28 3d 02 a3 42 bd f8 7c 15 3e
       -0.04869461 0.04122116 -0.047518738 0.14598453

fc2.bias f4 [64]
000000 24 78 be 3c a1 fe b4 3d 3c d1 bb bd 15 a5 a4 3c
       0.023250647 0.08837629 -0.09170768 0.020098248
000010 36 03 75 3d 20 cb 1c 3d 93 f7 76 bd 6f 2c f6 bb
       0.059817515 0.038279653 -0.0602947 -0.007512621
000020 33 65 a6 bc e9 7d 9f 3d 46 63 f5 bc 72 9d 63 bc
       -0.020311927 0.07787687 -0.029954564 -0.013892518
000030 74 71 f1 bd 56 7e 95 bc a1 df e1 bd 86 69 6c 3c
       -0.117892176 -0.018248718 -0.11028982 0.014429456
000040 fe d3 14 be 3f 6d 9a 3d ef 4c 87 3d 6e b6 8e bd
       -0.14533994 0.07540368 0.06606471 -0.069683895
000050 f9 0e 11 3d 93 24 a7 bd 10 ee cf bd b0 50 10 be
       0.03541467 -0.08161273 -0.10152829 -0.1409328
000060 96 f0 0a bd 4b 38 d5 bd 63 5d 01 3c a8 2d 25 3d
       -0.033920847 -0.10411128 0.0078958 0.040326744
000070 8b 71 93 bd 41 16 e3 3c 64 9e 93 3d ac 01 39 3d
       -0.07199391 0.027720572 0.07207945 0.04516761
000080 26 5a a5 3d fb 87 f0 bd 9f 36 5d 3c de ce 0a bd
       0.08073835 -0.11744686 0.013501792 -0.03388869
000090 3b 20 c4 3d 89 f3 86 3d e0 38 ed 3d ff 92 f4 bd
       0.0957646 0.065894194 0.11583114 -0.119421
0000a0 5b 00 aa bc 87 03 91 bd 62 d4 07 be 7f 2c 14 3d
       -0.020752123 -0.07080751 -0.13264611 0.036175247
0000b0 7f c3 ad 3c b8 d2 d3 3d 03 da 9e bc 7d 4c d8 3d
       0.021211384 0.10342926 -0.019391065 0.10561464
0000c0 26 eb 6c bd 38 9c 91 bd cc 06 03 be c1 ce 64 bb
       -0.057841443 -0.071098745 -0.12795562 -0.0034913274
0000d0 7c 32 bf 3c 5d d2 b9 bd a0 f7 a2 bc 83 30 c3 bd
       0.023339503 -0.09073327 -0.019893467 -0.09530737
0000e0 6e c4 ca 3d 89 2b 5b 3d 0b b9 4a 3d 6b da ba bd
       0.09900747 0.053508315 0.049492877 -0.09123691
0000f0 dc a3 e3 3c 4a e4 c1 bd 96 9f 54 bd af 09 61 bd
       0.027788095 -0.09467371 -0.051910006 -0.054940876

fc3.weight f4 [1, 64]
000000 86 ea 98 3c 5c 8d b3 bd 9d ba c9 bc bd f4 ae bd
       0.018666517 -0.087671965 -0.024625117 -0.08542774
000010 37 ce 8f bb a5 91 cf 3b 56 2e 9e bd 15 c0 7d bd
       -0.0043885964 0.006334501 -0.07723682 -0.06195076
000020 31 9c 83 3c b3 c9 41 bd 32 7e 4c bd 39 a7 b3 bd
       0.016065689 -0.047311496 -0.049925037 -0.087721296
000030 ee 62 bf bc f7 ea 8e bd 72 27 cf bd 40 6a 1c bd
       -0.023362603 -0.0697841 -0.101149455 -0.038187265
000040 6c 3e c8 bc 0e b4 7c bd fb a2 e2 bc 74 f5 dd bd
       -0.024443828 -0.06169515 -0.027665606 -0.10837832
000050 df 7f 72 bb 45 c7 01 bd 59 3d d1 3d b7 4b c9 bb
       -0.0037002487 -0.03168418 0.10216779 -0.006143059
000060 21 c4 f5 bc ea 9b 95 bd c6 f7 8f 3d dc 51 ed 3c
       -0.030000748 -0.07305129 0.07029681 0.028969698
000070 c8 01 6a 3d 83 53 86 3d 6c fb a7 bc 55 a6 b7 3c
       0.057130605 0.06558897 -0.02050563 0.02241818
000080 39 d8 d0 bd 52 6a cc 3c e6 5b 86 38 3a 3d 7d 3a
       -0.10197491 0.024953041 6.406735e-05 0.00096603076
000090 72 76 06 bd e0 38 0b bd 92 3c ef bd 3e 4f 4d 3c
       -0.032827802 -0.033989787 -0.11681475 0.0125311
0000a0 d0 53 4e 3d 33 91 02 bd 8d f4 98 3c 71 a4 a0 bc
       0.0503729 -0.031876754 0.018671298 -0.019609662
0000b0 21 de ca 3d 99 0b b2 bc d1 72 ac bd e1 af 86 3c
       0.09905649 -0.021734046 -0.08420337 0.016441287
0000c0 da 4c de bc 12 58 34 bc 4a 88 36 3d 0b b7 9b bd
       -0.027136255 -0.011007326 0.04456357 -0.07603272
0000d0 16 14 af bd 4a d6 1a ba b4 43 98 bd 00 b2 9f 3a
       -0.08548753 -0.00059065653 -0.07434788 0.0012183785
0000e0 fa c1 b0 3d 51 b1 e7 b8 df dc fc bd 3f 0f 76 bd
       0.08630748 -0.00011047966 -0.12346815 -0.060073134
0000f0 40 9b 7f bc 93 c9 c6 3d 83 eb bb bd 17 e9 7b 3d
       -0.015600979 0.09706416 -0.0917578 0.06150159
