models/Q_net64_15_prF.pth (torch, 21007 bytes, 5 tensors)

fc1.weight f4 [64, 6]
-0.3472139 -0.034619845 -0.02997931 -0.90083116 -0.1949369 0.026965585 0.057312876 -0.29630333
-0.34239733 -0.18804011 -0.07264945 -0.19840895 -0.15450922 -0.2568579 -0.10922092 -0.2082822
0.3592214 0.30991003 0.041465133 0.1536122 -0.07058963 0.30388787 -0.4076945 0.096341565
0.011262538 -0.4793111 -0.07905078 -0.023467889 0.29083955 -0.15320133 -0.3859088 -0.22218885
-0.20700751 0.4570551 -0.1063495 -0.01884 0.13569278 0.15295227 -0.0019869287 -0.20622315
-0.14226857 0.09426554 -0.19285673 -0.5640903 -0.10783809 -0.40866283 -0.29700336 -0.02776209
0.087189466 0.46769303 -0.268212 0.16786274 -0.3233174 0.39692226 -0.2608317 -0.39350122
-0.04062535 -1.1905367 0.29147267 0.0071763094 -0.03007424 -0.31430385 0.13062528 -0.3604956
0.109722435 0.08333257 0.1745817 -0.34953174 -0.21099657 0.013484538 0.3629769 -0.3667635
0.29716966 0.22755557 0.09910965 -0.3287306 0.23821706 0.28709823 0.0035581556 -0.12762932
-0.30430838 0.2896812 -0.08370349 0.16975455 -0.13673855 -0.4238653 0.050565645 -0.0900183
-0.07841575 -0.31236 -0.28826368 -0.53294003 0.13273837 -0.4767021 -0.29593712 -0.25871018
0.107310355 0.02507368 0.27894664 -0.27945074 -0.06965676 0.19002254 0.023918668 0.4867913
-0.004743152 -0.2880299 -0.25766832 0.10367695 -0.09189164 -0.032657273 -0.035970725 -0.19675958
0.0016816258 0.4183804 -0.41644645 0.09325623 0.5170319 0.3561681 0.14657187 0.19495891
0.16831641 -0.00038376288 -0.13529566 0.46377444 0.037103176 -0.08345195 0.05886087 -0.21603097
-0.3922319 -0.2668795 -0.094898045 0.014998227 -0.22361572 0.084705785 0.053196155 0.456915
-0.00011742115 0.45367995 0.39967233 0.23582497 -0.19138701 -0.41973022 -0.39112586 -0.036120173
-0.1292819 -0.3460877 -0.108205326 0.04161999 -0.04320416 0.11672883 0.2737178 0.29797676
0.1942245 -0.23339471 -0.1194357 0.124816075 0.09869226 -0.39147303 0.094276465 -0.34493086
0.2294994 0.0039470447 0.21203673 0.27432826 -0.22462504 0.011231501 0.37367725 0.15970115
-0.35248867 -0.58736837 0.22622411 -0.5921389 0.09906745 -0.47959977 0.36675715 0.29812482
-0.24218369 0.05538515 -0.18411131 0.06964517 0.18577524 -0.73793226 0.1339452 -0.81607586
-0.29370967 0.032456562 -0.2486223 0.34070387 -0.13330725 -0.1528605 0.3602603 0.20993856
-0.14465934 -0.04751286 -0.08933239 -0.29090524 -0.080595106 -0.40908444 -0.22344834 0.561016
-0.13006972 0.32382005 -0.32026958 0.40653205 -0.25658298 -0.42280814 -0.113345616 -0.46631172
-0.32770848 -0.054464664 0.3231174 0.44204262 -0.03893435 -0.09514032 0.035073996 0.45266315
0.4489657 0.074930586 -0.03659407 0.24092656 -0.08856496 0.45353997 -0.269156 -0.78334427
0.23657884 -0.31937683 0.34355062 -0.32126462 0.00877021 -0.18052495 -0.25797996 -0.15284958
0.3671549 0.19716862 -0.11835757 -0.4740797 0.09911467 -1.0138463 -0.2667542 -0.07410587
0.24141604 0.33298212 -0.34072256 -0.20075372 -0.36933523 -0.28982854 0.0059529543 0.4534552
-0.036698673 -0.17806195 0.23215163 -0.10357101 -0.17462619 -0.41629753 -0.11593391 -0.27088988
00000000: 05c6 b1be 8acd 0dbd 2c97 f5bc df9c 66bf
00000010: 8a9d 47be eee6 dc3c e8c0 6a3d 12b5 97be
00000020: b44e afbe 968d 40be 3cc9 94bd b72b 4bbe
00000030: aa37 1ebe e182 83be 38af dfbd ee47 55be
00000040: deeb b73e 87ac 9e3e 58d7 293d 844c 1d3e
00000050: 4c91 90bd 3197 9b3e 55bd d0be ba4e c53d
00000060: 8286 383c 4468 f5be 60e5 a1bd bb3f c0bc
00000070: ece8 943e cfe0 1cbe d795 c5be 7985 63be
00000080: c7f9 53be 2003 ea3e c4cd d9bd 5856 9abc
00000090: 0cf3 0a3e 859f 1c3e 2237 02bb 292c 53be
000000a0: daae 11be 4b0e c13d 3c7c 45be 3968 10bf
000000b0: 37da dcbd 413c d1be d310 98be 536d e3bc
000000c0: 6490 b23d 7675 ef3e 1553 89be 36e4 2b3e
000000d0: dc89 a5be 6539 cb3e bc8b 85be fe78 c9be
000000e0: c466 26bd 8263 98bf e83b 953e 3f27 eb3b
000000f0: 415e f6bc 6fec a0be a2c2 053e e192 b8be
00000100: 28b6 e03d 44aa aa3d 8cc5 323e d3f5 b2be
00000110: 7c0f 58be 40ee 5c3c 1cd8 b93e 6dc8 bbbe
00000120: 9f26 983e 5404 693e 00fa ca3d 614f a8be
00000130: 2cef 733e 8afe 923e f22f 693b 43b1 02be
00000140: 4fce 9bbe 1851 943e bc6c abbd 23d4 2d3e
00000150: 3105 0cbe df04 d9be ec1d 4f3d 845b b8bd
00000160: 7098 a0bd a6ed 9fbe 4c97 93be c26e 08bf
00000170: 91ec 073e 4c12 f4be 1285 97be a975 84be
00000180: 88c5 db3d 5167 cd3c 18d2 8e3e 2b14 8fbe
00000190: 34a8 8ebd 4595 423e 15f1 c33c b63c f93e
000001a0: 716c 9bbb a878 93be 1aed 83be 9554 d43d
000001b0: af31 bcbd a2c3 05bd 0a56 13bd 587b 49be
000001c0: 006a dc3a f535 d63e 7838 d5be 1ffd be3d
000001d0: 345c 043f aa5b b63e f016 163e 4fa3 473e
000001e0: 235b 2c3e c833 c9b9 f28a 0abe d873 ed3e
000001f0: 80f9 173d dbe8 aabd 1818 713d 3937 5dbe
00000200: 9fd2 c8be 6ea4 88be e859 c2bd 20bb 753c
00000210: 85fb 64be 3a7a ad3d 36e4 593d c3f0 e93e
00000220: 0040 f6b8 bd48 e83e daa1 cc3e 1a7c 713e
00000230: f5fa 43be e1e6 d6be a641 c8be bff2 13bd
00000240: 7962 04be 6832 b1be c19a ddbd b979 2a3d
00000250: d8f6 30bd 860f ef3d bd24 8c3e 6990 983e
00000260: cae2 463e 06ff 6ebe b49a f4bd 929f ff3d
00000270: 2b1f ca3d 276f c8be 0514 c13d c79a b0be
00000280: e401 6b3e 3656 813b 2820 593e c174 8c3e
00000290: 1b04 66be 5404 383c a052 bf3e b388 233e
000002a0: 6579 b4be c65d 16bf 4ba7 673e 6a96 17bf
000002b0: e0e3 ca3d 1a8e f5be 98c7 bb3e d1a3 983e
000002c0: 00ff 77be 8adb 623d ad87 3cbe 20a2 8e3d
000002d0: dd3b 3e3e 21e9 3cbf ee28 093e 59ea 50bf
000002e0: 1d61 96be 2cf1 043d d896 7ebe bd70 ae3e
000002f0: b281 08be 7787 1cbe 0a74 b83e 22fa 563e
00000300: 9421 14be d89c 42bd e6f3 b6bd 88f1 94be
00000310: 0c0f a5bd 8473 d1be a4cf 64be bf9e 0f3f
00000320: ff30 05be becb a53e 60fa a3be f824 d03e
00000330: d85e 83be 4f7a d8be bf21 e8bd 69c0 eebe
00000340: 68c9 a7be 5716 5fbd a56f a53e 6953 e23e
00000350: a079 1fbd eed8 c2bd c0a9 0f3d 77c3 e73e
00000360: d5de e53e 3575 993d aae3 15bd 74b5 763e
00000370: 8c61 b5bd 6436 e83e d1ce 89be 4089 48bf
00000380: b941 723e 5c85 a3be dee5 af3e cc7c a4be
00000390: edb0 0f3c 88db 38be f315 84be 9a84 1cbe
000003a0: bafb bb3e 92e6 493e 7465 f2bd 93ba f2be
000003b0: a2fc ca3d b7c5 81bf 0294 88be d2c4 97bd
000003c0: c435 773e a27c aa3e 3073 aebe 6292 4dbe
000003d0: 8219 bdbe 6864 94be 0011 c33b 482b e83e
000003e0: 5951 16bd df55 36be 28b9 6d3e 0a1d d4bd
000003f0: 35d1 32be f324 d5be c26e edbd 14b2 8abe

fc1.bias f4 [64]
-0.2450261 -0.048392743 0.32338846 0.44007397 0.31973106 0.5216361 0.21334559 0.067485824
-0.14499998 0.027701786 0.30072314 0.29271975 0.21281908 -0.2508478 0.2549622 -0.166411
0.25547373 -0.15783247 0.21865864 0.063438244 0.07859905 -0.19305864 0.28945726 0.4932524
0.18206951 0.13877869 0.030309757 0.120995395 -0.4204921 -0.11322498 -0.21614751 0.05301399
0.030956237 0.3283263 -0.36296922 0.5423501 -0.37366733 -0.20913205 -0.1702378 -0.2558461
-0.41778177 0.10694112 0.035832427 0.017660055 0.08356129 -0.26646772 0.008064604 0.013361357
0.35237464 0.40769857 -0.3025142 -0.16191196 -0.01663926 -0.15801471 -0.40710184 -0.21080606
0.5316794 0.16273347 -0.15334891 0.20480265 -0.1731225 -0.34557724 -0.00091018446 -0.39659458
00000000: 1fe8 7abe 7837 46bd 2c93 a53e 6051 e13e
00000010: cab3 a33e f289 053f 4477 5a3e 0236 8a3d
00000020: e07a 14be dbee e23c 62f8 993e 5ddf 953e
00000030: 3fed 593e 1f6f 80be 688a 823e a567 2abe
00000040: 74cd 823e d69e 21be 0de8 5f3e e9eb 813d
00000050: 8af8 a03d 2ab1 45be be33 943e 948b fc3e
00000060: 6e70 3a3e 001c 0e3e 2b4c f83c 6fcc f73d
00000070: be4a d7be 80e2 e7bd c655 5dbe 3325 593d
00000080: ef97 fd3c 631a a83e 1ad7 b9be 75d7 0a3f
00000090: 5351 bfbe b626 56be d152 2ebe 43fe 82be
000000a0: 7ee7 d5be f203 db3d 06c5 123d d2ab 903c
000000b0: 2e22 ab3d 756e 88be 6721 043c 98e9 5a3c
000000c0: 736a b43e debd d03e 24e3 9abe 40cc 25be
000000d0: 0f4f 88bc 9cce 21be a76f d0be 8bdd 57be
000000e0: 241c 083f 9aa3 263e 7f07 1dbe c9b7 513e
000000f0: 0647 31be 80ef b0be 7299 6eba 720e cbbe

fc2.weight f4 [64, 64]
0.13523681 -0.060065717 0.12332976 0.18705623 -0.00062171754 -0.0893438 0.006595037 0.014650155
-0.14525886 0.15543865 -0.096147776 0.044524014 0.34246883 -0.02186186 -0.006988664 -0.038030416
0.09829951 0.04729993 0.15724024 -0.031365413 0.06265138 0.054365084 -0.07498874 -0.05267326
-0.015344355 -0.092914715 0.1709707 0.3139086 -0.015532249 -0.17534626 0.043406233 0.15057826
-0.015451134 -0.27247182 -0.03765672 -0.0891852 0.19563769 0.055300005 0.15446031 0.060476046
0.012720529 -0.15156451 0.020257557 -0.11519921 0.19301595 -0.00765987 0.15921953 -0.04748522
0.08109562 -0.0745979 0.059414987 -0.08996895 -0.02071147 0.12541255 -0.047177922 -0.14164002
0.024654135 0.1020594 0.09159692 0.23470955 0.046064727 -0.102127545 0.1065982 -0.06741245
0.0219421 0.11967863 0.17760928 -0.15271424 -0.060288385 0.15254821 -0.011978785 -0.09107592
0.0649396 0.105644055 0.05792376 0.124933675 -0.09159543 0.10211979 -0.10467328 0.01593978
0.050941143 -0.26849383 -0.0066276807 0.0540843 -0.0020832107 -0.11975786 -0.030176166 -0.036460795
0.09219645 -0.09156125 -0.14909777 -0.26602262 -0.028692491 0.07008076 0.09897867 -0.3088528
-0.13267656 -0.044980947 0.17317985 0.1691305 -0.08468608 -0.06572264 -0.048388716 0.034691054
-0.13660446 0.091772355 0.016950997 0.12810066 -0.27405423 -0.15125655 -0.084286004 0.12979482
0.073150896 -0.031514414 -0.02052697 -0.08778786 -0.35163036 -0.1896178 0.09181168 -0.16018952
0.042281877 -0.030158546 -0.028264053 -0.14166509 0.13664037 -0.048379067 0.061547693 -0.030540554
-0.025814861 0.041141495 -0.11269252 0.10621012 0.04393338 -0.03327623 -0.0013195854 0.028164238
-0.096221596 0.0020502624 0.04327531 0.0047074356 0.21830918 -0.005728947 -0.09638416 0.0873156
-0.0003483707 0.05832265 0.074753925 0.09204103 -0.1508848 0.11371362 -0.16232488 -0.06301112
0.07185776 -0.007781342 0.13393888 0.20801288 0.08767821 -0.06307458 0.12768674 0.15865056
-0.0689955 -0.17235348 -0.02519576 -0.052089494 0.29317546 -0.013646771 0.06924083 0.13779111
0.14065155 0.0008841243 0.013833631 -0.21650511 0.071429476 0.024230827 0.21132699 0.10927834
0.031323187 -0.099248156 0.0065224757 0.018581185 0.04744323 0.08879555 0.037014015 -0.08678239
0.149178 0.16286443 -0.019730223 0.2918508 0.093439415 -0.07285442 0.06857195 0.17147423
0.041512262 0.115114495 0.13614526 0.21649393 -0.1323651 -0.009287153 0.10179082 0.008261182
-0.1404455 -0.031827077 -0.012277377 0.14053825 0.14595056 -0.120892406 0.017957168 0.07895002
0.05328396 0.015812362 0.03561145 0.059266277 0.021616261 -0.08098297 -0.08604548 -0.06462264
0.023730926 -0.0898694 -0.00838816 0.29368857 -0.062215734 -0.06047118 -0.056467365 0.093650155
0.067651525 -0.25852233 -0.0957672 -0.2027572 0.18169215 -0.033062983 0.0501761 -0.002661986
0.12187353 -0.1886365 0.13781781 0.01710485 0.08328946 0.1796477 0.15133919 0.03785044
-0.10758137 -0.12000671 -0.10086039 -0.044677045 0.042980026 0.12652451 -0.049826596 0.032565348
-0.1094299 0.18446581 0.14809613 0.1857005 0.1019087 0.027897669 0.051707916 -0.10523086
00000000: 857b 0a3e 7807 76bd 5094 fc3d ab8b 3f3e
00000010: c2fa 22ba e2f9 b6bd 2e1b d83b 3407 703c
00000020: bdbe 14be 4f2b 1f3e 20e9 c4bd d05e 363d
00000030: 1358 af3e a517 b3bc 2a01 e5bb c8c5 1bbd
00000040: 4151 c93d 92bd 413d 9603 213e 0579 00bd
00000050: 5e4f 803d ecad 5e3d b293 99bd ebbf 57bd
00000060: e466 7bbc 124a bebd f112 2f3e a1b8 a03e
00000070: f97a 7ebc f88d 33be bcca 313d 3031 1a3e
00000080: c126 7dbc 6d81 8bbe ef3d 1abd bba6 b6bd
00000090: 3f55 483e 4282 623d d82a 1e3e bbb5 773d
000000a0: c469 503c ba33 1bbe 2df3 a53c 90ed ebbd
000000b0: f9a5 453e a6ff fabb 720a 233e dd7f 42bd
000000c0: 7615 a63d c9c6 98bd 215d 733d a441 b8bd
000000d0: 1aab a9bc 266c 003e a33d 41bd 150a 11be
000000e0: 78f7 c93c 8504 d13d 2a97 bb3d b357 703e
000000f0: 5eae 3c3d 3f28 d1bd 2850 da3d 8a0f 8abd
00000100: ebbf b33c 121a f53d 35df 353e 1f61 1cbe
00000110: f4f0 76bd 9935 1c3e aa42 44bc 0386 babd
00000120: 0eff 843d e95b d83d 7741 6d3d 3add ff3d
00000130: 6396 bbbd 2e24 d13d f25e d6bd 2494 823c
00000140: a9a7 503d 0678 89be 042d d9bb 8087 5d3d
00000150: 7a86 08bb 9c43 f5bd 0234 f7bc ea57 15bd
00000160: 7ed1 bc3d 7784 bbbd 16ad 18be 1e34 88be
00000170: 840c ebbc 8086 8f3d 54b5 ca3d f421 9ebe
00000180: 5ddc 07be f13d 38bd 0f56 313e 8c30 2d3e
00000190: e56f adbd 9799 86bd 3f33 46bd 3518 0e3d
000001a0: 0ae2 0bbe 25f3 bb3d d1dc 8a3c d22c 033e
000001b0: d650 8cbe ffe2 1abe 249e acbd efe8 043e
000001c0: 23d0 953d 4215 01bd 2d28 a8bc 1fca b3bd
000001d0: e508 b4be 2b2b 42be c307 bc3d b908 24be
000001e0: c32f 2d3d 0e0f f7bc 048a e7bc a710 11be
000001f0: 74eb 0b3e 2129 46bd 6f19 7c3d 2f30 fabc
00000200: b079 d3bc fc83 283d 56cb e6bd b184 d93d
00000210: 7df3 333d a84c 08bd f0f5 acba b0b8 e63c
00000220: d40f c5bd b25d 063b 7441 313d d540 9a3b
00000230: 718c 5f3e e4b9 bbbb 0f65 c5bd 85d2 b23d
00000240: 86a5 b6b9 bbe3 6e3d 9618 993d 0280 bc3d
00000250: 8c81 1abe b0e2 e83d 7e38 26be f90b 81bd
00000260: 292a 933d a1fa febb 4627 093e 5401 553e
00000270: a290 b33d 3f2d 81bd 50c0 023e 4b75 223e
00000280: 834d 8dbd 6e7d 30be 5767 cebc cb5b 55bd
00000290: 181b 963e b596 5fbc 23ce 8d3d 1d19 0d3e
000002a0: f606 103e 94c4 673a 74a6 623c 84b3 5dbe
000002b0: 9e49 923d ba7f c63c 1a66 583e 53cd df3d
000002c0: be4c 003d 9e42 cbbd 7eba d53b 9237 983c
000002d0: d553 423d 71da b53d 029c 173d f7ba b1bd
000002e0: 1ec2 183e efc5 263e 47a1 a1bc 786d 953e
000002f0: 2a5d bf3d b334 95bd 736f 8c3d f196 2f3e
00000300: c308 2a3d 26c1 eb3d aa69 0b3e 96b0 5d3e
00000310: b78a 07be 2529 18bc b577 d03d e959 073c
00000320: f2d0 0fbe 1c5d 02bd 0d27 49bc 42e9 0f3e
00000330: 1074 153e 7096 f7bd e91a 933c 8cb0 a13d
00000340: 4840 5a3d ed88 813c 50dd 113d 32c1 723d
00000350: 9614 b13c 66da a5bd 9d38 b0bd e058 84bd
00000360: 5c67 c23c 730d b8bd 7e6e 09bc 595e 963e
00000370: edd5 7ebd a1b0 77bd 534a 67bd a7cb bf3d
00000380: e28c 8a3d 0a5d 84be 9821 c4bd 959f 4fbe
00000390: 820d 3a3e 0d6d 07bd 7485 4d3d b774 2ebb
000003a0: d498 f93d ed29 41be 1d20 0d3e 781f 8c3c
000003b0: aa93 aa3d 91f5 373e a9f8 1a3e 1009 1b3d
000003c0: 9f53 dcbd 14c6 f5bd e48f cebd 47ff 36bd
000003d0: d30b 303d a48f 013e f916 4cbd 3e63 053d
000003e0: c91c e0bd 9be4 3c3e 83a6 173e 4628 3e3e
000003f0: 82b5 d03d a789 e43c aecb 533d 4783 d7bd

fc2.bias f4 [64]
-0.09265794 -0.10185452 -0.038734857 -0.01921041 0.021500664 0.02550995 -0.026350038 0.0081113875
-0.17318721 0.22071724 -0.108482085 -0.11906 -0.11913845 -0.050343264 -0.0060497373 -0.10722368
-0.12853521 -0.046430547 -0.009678483 -0.07710609 0.019416507 0.15977271 -0.07874042 -0.0056887125
-0.119662054 -0.16958691 0.07361858 -0.13269776 0.038692087 0.1119779 0.05614081 0.13472933
-0.1430022 0.09601479 -0.0657442 -0.043060374 -0.074339986 -0.15054968 -0.05640617 -0.0046207467
-0.07044916 0.0087224115 0.10983775 0.070835255 0.050776612 0.16773698 -0.035163727 0.10023149
0.056937106 0.016810507 -0.06301167 0.012996343 0.009429472 -0.053507674 0.27340758 0.0779429
-0.003900188 0.006715848 -0.042730626 0.04806052 -0.038070567 -0.01645842 -0.13833933 0.02332439
00000000: 72c3 bdbd 1a99 d0bd 71a8 1ebd 265f 9dbc
00000010: 2922 b03c 3efa d03c 09dc d7bc a0e5 043c
00000020: fd57 31be b303 623e db2b debd bbd5 f3bd
00000030: dcfe f3bd bd34 4ebd e03c c6bb 1798 dbbd
00000040: bc9e 03be f52d 3ebd 8092 1ebc cce9 9dbd
00000050: 5e0f 9f3c 759b 233e a842 a1bd 6168 babb
00000060: 6111 f5bd 31a8 2dbe 57c5 963d ece1 07be
00000070: 987b 1e3d ab54 e53d e8f3 653d 7cf6 093e
00000080: 2b6f 12be 67a3 c43d e5a4 86bd 1360 30bd
00000090: 903f 98bd b229 1abe 280a 67bd a269 97bb
000000a0: a647 90bd 72e8 0e3c 9df2 e03d 1312 913d
000000b0: 23fb 4f3d 3ec3 2b3e d707 10bd 2b46 cd3d
000000c0: e236 693d 30b6 893c 430c 81bd 9dee 543c
000000d0: 127e 1a3c dd2a 5bbd 14fc 8b3e 87a0 9f3d
000000e0: 4c9a 7fbb 9e10 dc3b 4f06 2fbd 1cdb 443d
000000f0: e2ef 1bbd cfd3 86bc d3a8 0dbe cb12 bf3c

fc3.weight f4 [1, 64]
-0.05302158 0.010673074 -0.061056294 -0.02181235 0.037199628 -0.008019055 0.0353833 0.085006684
0.0021578353 0.27511117 0.00084939186 0.034188546 0.09111954 0.045621105 -0.008173168 0.055802565
-0.020846404 -0.03292178 -0.021410257 -0.0126667265 -0.02330237 0.20245719 0.0330281 0.008389777
0.002978449 -0.074136175 0.014060956 -0.10050084 -0.004089149 0.055890266 -0.015360622 -0.038760696
-0.06543927 -0.04107203 -0.0004390621 0.009880493 -0.023720393 -0.046622388 -0.0064392765 0.033482216
-0.06407679 -0.035629522 0.05632089 -0.13761805 -0.045992274 0.2534778 0.049359545 0.008955997
0.25350198 -0.061942276 -0.004837795 -0.08584261 -0.030092642 -0.033990834 0.25415885 -0.0010503855
-0.0035051252 -0.034578998 0.0019925772 -0.01147329 0.012944773 -0.0015867004 -0.0074703074 -0.007873263
00000000: 282d 59bd 1ede 2e3c 2a16 7abd d0af b2bc
00000010: a35e 183d 5b62 03bc 14ee 103d fc17 ae3d
00000020: 786a 0d3b 5fdb 8c3e b9a9 5e3a 4a09 0c3d
00000030: e29c ba3d 32dd 3a3d c0e8 05bc 3b91 643d
00000040: 14c6 aabc fdd8 06bd 9064 afbc 1a88 4fbc
00000050: 9de4 bebc f050 4f3e 7948 073d 4675 093c
00000060: 1532 433b b5d4 97bd ed5f 663c 62d3 cdbd
00000070: 45fe 85bb 31ed 643d 1eab 7bbc 89c3 1ebd
00000080: 0605 86bd 253b 28bd eb31 e6b9 cbe1 213c
00000090: 4551 c2bc 1ef7 3ebd 9100 d3bb a624 093d
000000a0: b13a 83bd 43f0 11bd bcb0 663d bfeb 0cbe
000000b0: 6562 3cbd d8c7 813e 3c2d 4a3d 2dbc 123c
000000c0: 03cb 813e 2fb7 7dbd 5e86 9ebb 40ce afbd
000000d0: d884 f6bc f939 0bbd 1c21 823e 17ad 89ba
000000e0: 3eb6 65bb b5a2 0dbd e695 023b 77fa 3bbc
000000f0: 5016 543c d5f8 cfba 7bc9 f4bb dcfe 00bc
