models/Q_net64_5_prTpro.pth (torch, 21023 bytes, 5 tensors)

fc1.weight f4 [64, 6]
0	0x3dc6fded	0.09716401
1	0xbdb9b774	-0.09068194
2	0x3ecf1e79	0.40452936
3	0x3db0dc19	0.0863573
4	0x3e8ab9f2	0.2709499
5	0xbd70ae50	-0.058759987
6	0x3e156726	0.1459013
7	0x3ecafb88	0.39645028
8	0xbe912d0c	-0.2835468
9	0x3e8ad418	0.2711494
10	0x3ea68e48	0.32530427
11	0xbdd52f80	-0.104094505
12	0xbd0fbbc3	-0.035091173
13	0xbe1674c0	-0.14692974
14	0xbe3369c7	-0.1752082
15	0x3d84f8b2	0.06492747
16	0xbe8fd664	-0.28093255
17	0x3d8fe570	0.070261836
18	0xbdab3375	-0.08359424
19	0xbe7a747e	-0.244585
20	0xbeaaf541	-0.3339024
21	0x3e73922d	0.2378623
22	0x3ebfae0c	0.37437475
23	0xbe982d1a	-0.2972191
24	0xbee70ef9	-0.4512861
25	0x3d6567e8	0.056007296
26	0x3e7edcd4	0.24888927
27	0xbebead45	-0.3724157
28	0xbdaf4c70	-0.08559501
29	0x3ec98624	0.39360154
30	0x3e29fd47	0.16600524
31	0x3ce8c250	0.028412968
32	0x3e7e0b9b	0.24809115
33	0xbea47c26	-0.32125968
34	0xbeb786b8	-0.3584497
35	0xbe890eb2	-0.26769024
36	0xbda15ed2	-0.07879414
37	0xbe983e53	-0.2973505
38	0x3df21d6a	0.118220165
39	0xbded5697	-0.11588781
40	0x3d7e6220	0.062105298
41	0xbd173640	-0.03691697
42	0x3cd86873	0.026416993
43	0x3e4ff348	0.20307648
44	0xbea9ea3a	-0.33186513
45	0x3ebca09d	0.36841288
46	0x3e86ba96	0.2631423
47	0x3e349a70	0.17637038
48	0xbe9765de	-0.29569906
49	0x3eb62bbe	0.35580248
50	0x3e5e072e	0.21682426
51	0xbea39a77	-0.31953785
52	0x3ec5f3ba	0.3866251
53	0x3e7bec94	0.24601966
54	0xbe8e3682	-0.2777596
55	0xbd2112a0	-0.039324403
56	0x3eb334e0	0.35001278
57	0xbdbd21dd	-0.092349745
58	0xbc8fded0	-0.0175623
59	0x3dda14f0	0.10648525
60	0x3e16254e	0.14662668
61	0x3e35cc8c	0.1775381
62	0x3e25bd29	0.1618544
63	0x3ecaa4f6	0.3957898
64	0x3e99135c	0.29897583
65	0xbe932dc7	-0.28745863
66	0x3cf7d7dd	0.030254299
67	0xbe607d7c	-0.21922868
68	0x3dc24c96	0.09487264
69	0xbe53a26f	-0.20667432
70	0x3da4ac64	0.080406934
71	0xbdb046fc	-0.08607289
72	0x3e9d5866	0.30731505
73	0xbe3165fa	-0.17324057
74	0x3e66d761	0.22543098
75	0x3ede2fef	0.43395945
76	0x3dbdb010	0.09262097
77	0x3eceaba8	0.40365338
78	0x3e988b52	0.29793793
79	0xbebd16e5	-0.3693153
80	0x3deaebd0	0.11470759
81	0xbe6d1051	-0.23150755
82	0x3e715644	0.23568064
83	0xbebd4f45	-0.3697454
84	0xbebf7fb3	-0.37402114
85	0xbe853c25	-0.2602245
86	0xbe884319	-0.2661369
87	0x3cb0a95f	0.021565137
88	0x3e83b8f4	0.25727046
89	0x3d8497c0	0.064742565
90	0x3e47c1b0	0.1950748
91	0x3d387158	0.045029968
92	0xbe53d85e	-0.20688006
93	0xbe5da69c	-0.21645588
94	0xbd9f4e4c	-0.07778606
95	0xbeab96e4	-0.33513558
96	0x3e7a303c	0.24432462
97	0xbec69619	-0.3878639
98	0xbd947084	-0.07248023
99	0x3ed13bf7	0.40866062
100	0xbec61d74	-0.38694346
101	0x3ebe6c0c	0.37191808
102	0x3ea9c928	0.33161283
103	0x3ec0d732	0.3766418
104	0xbec0f762	-0.37688738
105	0xbea3dde3	-0.32005224
106	0xbebda2e3	-0.37038335
107	0x3d93784c	0.07200679
108	0xbeb25a8d	-0.3483471
109	0xbeabcb85	-0.3355371
110	0xbdd2db5a	-0.10295744
111	0xbee5218d	-0.4475216
112	0xbea797e6	-0.32733077
113	0xbeb38381	-0.35061267
114	0x3e2d7a00	0.1694107
115	0xbe3a902a	-0.18219057
116	0xbc0f93e0	-0.0087632835
117	0x3e35356d	0.17696162
118	0x3e004af4	0.12528592
119	0xbe77534e	-0.24152872
120	0x3e81f1c6	0.2537977
121	0x3eb5c1dc	0.35499465
122	0xbeb18701	-0.34673312
123	0xbcb25c7d	-0.021772617
124	0x3ea290d2	0.31751114
125	0x3e571190	0.21002793
126	0x3ebf65ea	0.37382442
127	0x3ec7e3ec	0.39041078
128	0x3e188c50	0.14897275
129	0xbe22e2fe	-0.15906903
130	0xbeaf4cde	-0.34238333
131	0xbce3eb70	-0.027822226
132	0xbeb1239f	-0.3459749
133	0xbea77375	-0.32705274
134	0x3d250370	0.04028648
135	0xbe45a9c7	-0.19303046
136	0xbce256d0	-0.027629286
137	0xbeae5196	-0.3404662
138	0xbea298d9	-0.31757239
139	0x3dc4bd88	0.09606463
140	0xbe0a65d5	-0.13515408
141	0xbe18bbd1	-0.14915396
142	0x3dba26b8	0.09089416
143	0x3e114278	0.14185512
144	0x3e8dc00c	0.27685583
145	0xbe95c25e	-0.29249853
146	0xbcc168e0	-0.023609579
147	0xbd8c70f3	-0.06857481
148	0x3ec4c2de	0.38429922
149	0xbe6c5ed8	-0.23083055
150	0x3ebcf3a0	0.3690462
151	0xbecc5cb7	-0.39914486
152	0x3e824fb8	0.25451446
153	0x3e633fed	0.22192355
154	0x3d047c50	0.032345116
155	0x3ecc3956	0.39887494
156	0xbeac3fe0	-0.33642483
157	0x3e06d3ec	0.1316678
158	0x3e1b8ff8	0.15191638
159	0x3e4b0238	0.19825065
160	0xbe680c95	-0.2266105
161	0x3df07d28	0.11742622
162	0x3da15f37	0.07879489
163	0xbe5d9a5a	-0.21640912
164	0xbc4452bc	-0.011982616
165	0x3d7ca98b	0.061685126
166	0x3db18c0c	0.0866929
167	0x3e16634c	0.14686316
168	0x3e92c382	0.28664786
169	0xbeb8ac5f	-0.3606901
170	0xbeaf780f	-0.34271285
171	0xbe1a0357	-0.15040337
172	0x3e0ba6cc	0.13637847
173	0xbe9541e8	-0.29151845
174	0xbe44add4	-0.19206935
175	0xbe134b9c	-0.14384311
176	0x3d2e635c	0.042575225
177	0x3d0ee042	0.034881838
178	0x3eca620a	0.39527923
179	0xbe345579	-0.1761073
180	0xbe39b324	-0.18134743
181	0xbd1347d0	-0.035957158
182	0xbdad4a95	-0.08461491
183	0xbe555003	-0.20831303
184	0xbeb55d33	-0.35422668
185	0x3de80da0	0.11330724
186	0x3e5719ba	0.21005908
187	0xbdf50a00	-0.11964798
188	0x3e1d63a2	0.15370038
189	0xbe09cd32	-0.13457182
190	0xbe132884	-0.14370924
191	0x3d2c3e70	0.042051733
192	0x3e205dbf	0.15660761
193	0xbdce7964	-0.10081747
194	0xbe70cc8c	-0.23515528
195	0x3ea58c98	0.32333827
196	0xbeb16de9	-0.34654167
197	0xbeb3b276	-0.35097092
198	0x3dbc3b75	0.09191028
199	0xbd611640	-0.05495286
200	0x3dbf6e24	0.093471795
201	0x3e59af23	0.21258216
202	0x3d004ad0	0.031321347
203	0xbe2014c4	-0.15632921
204	0x3d889f2b	0.06670984
205	0x3e98ba0e	0.29829448
206	0xbeaf0293	-0.3418165
207	0x3ea8d31a	0.32973558
208	0xbe2d59aa	-0.16928735
209	0xbd7b37d0	-0.061332524
210	0xbe02fa0e	-0.12790701
211	0x3eaef5c4	0.3417188
212	0xbe8481bc	-0.2588023
213	0xbd1f9200	-0.038957596
214	0x3c1d15e0	0.009587735
215	0xbe3d6d33	-0.18498687
216	0x3e1ae100	0.15124893
217	0xbd1d0bd8	-0.038341373
218	0xbe76ecce	-0.24113771
219	0x3e7f9efa	0.24962988
220	0xbecefdb4	-0.40427935
221	0x3dcac9a0	0.09901738
222	0xbe206c43	-0.15666299
223	0xbe932bb3	-0.28744277
224	0x3dc1bbe8	0.094596684
225	0x3e315297	0.17316662
226	0x3e516824	0.20449883
227	0xbe10694e	-0.1410267
228	0x3ec9980e	0.3937382
229	0xbbe165c0	-0.0068785846
230	0x3d85b328	0.06528312
231	0x3c6cd600	0.014455318
232	0xbebd080f	-0.3692021
233	0x3e7b2b58	0.24528253
234	0x3e723ee4	0.23656803
235	0x3e3b7ec0	0.1831007
236	0x3e551c61	0.20811607
237	0xbc839dea	-0.01606651
238	0xbe0d7d22	-0.13817266
239	0x3ddf9e98	0.10918921
240	0xbe6e3413	-0.23262052
241	0xbe650cd2	-0.22368172
242	0x3d92def0	0.07171428
243	0x3e93ae70	0.28844023
244	0xbde7d954	-0.11320749
245	0x3ea77478	0.32706046
246	0x3e878bca	0.26473838
247	0x3d8469d4	0.064654976
248	0xbcbb0430	-0.022829145
249	0xbe99ce05	-0.30039993
250	0x3e06e5fc	0.1317367
251	0xbdc9219c	-0.098208636
252	0x3dee8a86	0.11647515
253	0x3ec50e7e	0.3848762
254	0x3e61700e	0.22015402
255	0xbeb25e28	-0.3483746

fc1.bias f4 [64]
0	0x3eafc1b0	0.3432746
1	0xbe3bb785	-0.18331726
2	0x3e729e37	0.23693167
3	0x3e0bb0ea	0.13641706
4	0x3e135b09	0.14390196
5	0xbe8da9ca	-0.276686
6	0x3e7091bc	0.23493093
7	0xbeb9472f	-0.3618712
8	0xbebbb6ad	-0.36662808
9	0xbe885cfb	-0.26633438
10	0x3ce9e31c	0.028550677
11	0xbe574439	-0.21022119
12	0x3e9318f9	0.2872999
13	0xbe1d1c90	-0.15342927
14	0xbe35e469	-0.17762913
15	0xbecc8886	-0.3994791
16	0x3e898a4c	0.26863325
17	0x3ed03f96	0.40673512
18	0x3c32cb4c	0.010912728
19	0x3d611aed	0.05495732
20	0x3e1e6599	0.15468444
21	0x3db5f4c4	0.08884576
22	0x3d88a05d	0.06671212
23	0x3e93c4d3	0.28861102
24	0x3e6d0ff7	0.23150621
25	0xbe811f00	-0.25218964
26	0x3ec2e34d	0.38064042
27	0x3de22c1a	0.11043568
28	0x3eb45a4c	0.3522514
29	0xbe92b5a3	-0.28654203
30	0xbedba7b2	-0.4290138
31	0x3e0718d1	0.1319306
32	0x3ea45815	0.3209845
33	0xbec36df2	-0.3816982
34	0x3e0a2d97	0.13493954
35	0xbeb1c2b3	-0.34718856
36	0x3e837a1a	0.25679094
37	0xbece75e1	-0.4032431
38	0xbe4657ae	-0.19369385
39	0x3c8e2891	0.017353328
40	0xbe8c3be8	-0.27389455
41	0xbe294d2c	-0.16533345
42	0xbed31d9e	-0.41233534
43	0xbe20b762	-0.15694955
44	0xbe8ba43f	-0.27273747
45	0x3ca1df5d	0.019759828
46	0xbe987446	-0.2977621
47	0xbe805b08	-0.2506945
48	0xbcf607ea	-0.03003307
49	0x3e2c45d2	0.1682351
50	0x3eb89075	0.36047712
51	0x3da82428	0.08210021
52	0x3eaae5b4	0.33378375
53	0x3e88932e	0.2667479
54	0x3edc2c89	0.43002728
55	0xbe4454d2	-0.19172981
56	0x3e8211a7	0.25404093
57	0xbe599f28	-0.2125212
58	0xbec21b57	-0.37911484
59	0xbdb5384b	-0.08848628
60	0xbea99e8a	-0.33128768
61	0x3e7b1cf4	0.24522763
62	0xbdb707d9	-0.08937044
63	0xbdf297b6	-0.11845343

fc2.weight f4 [64, 64]
0	0x3d58c524	0.052922383
1	0xbd0f011c	-0.034913167
2	0x3dc046bc	0.093884915
3	0x3b2e8f0a	0.002663555
4	0xbde2a647	-0.11066871
5	0x3d450249	0.048097882
6	0xbcc5e112	-0.024155173
7	0x3d1f6df5	0.038923223
8	0xbc93e1cb	-0.018052002
9	0xbd02dff2	-0.031951852
10	0xbd8ab742	-0.06773235
11	0x3d22d7f8	0.039756745
12	0x3c56f800	0.013120651
13	0xbb691bc0	-0.0035569519
14	0xbbae2553	-0.005314508
15	0x3d646078	0.055756062
16	0xbd90d18f	-0.0707122
17	0x3d9bb07a	0.076020196
18	0xbd4fe3a2	-0.050754197
19	0xbd21f8f2	-0.039544053
20	0xbd35c230	-0.044374645
21	0xbd94d54c	-0.07267246
22	0xbd6103c6	-0.05493524
23	0xbdd562f7	-0.10419267
24	0xbda473d0	-0.08029902
25	0x3d0b4e58	0.03401026
26	0xbd5463d5	-0.05185302
27	0xbd8c7206	-0.06857686
28	0x3c8e136a	0.017343242
29	0x3de67798	0.112532794
30	0xbd95ea9f	-0.07320141
31	0x3da425ee	0.08015047
32	0x3dd288c7	0.102799945
33	0x3d780110	0.06054789
34	0x3de25dcc	0.110530466
35	0x3c426f50	0.011867359
36	0xbc9d1790	-0.019176275
37	0x3db7eb62	0.089804426
38	0xbdcaa77a	-0.09895225
39	0xbd4119d2	-0.047143765
40	0x3cc217bd	0.02369296
41	0x3d1d5b6c	0.038417265
42	0x3d58accd	0.05289917
43	0x3d840f6e	0.064482555
44	0xbd87e1d8	-0.06634873
45	0xbd8c131f	-0.068395846
46	0xbdc02311	-0.093816884
47	0x3d8d9490	0.06913102
48	0xbd30bde5	-0.043149848
49	0xbd24f84c	-0.040275857
50	0xbcb203b0	-0.021730274
51	0xbd3a56fe	-0.04549312
52	0xbdd8512e	-0.10562359
53	0x3db0b11d	0.08627532
54	0xbd34d912	-0.044152327
55	0xbd4db390	-0.050220072
56	0xbdd8fd45	-0.10595182
57	0x3d9ae053	0.07562318
58	0xbdfcf23d	-0.12350891
59	0xbd946651	-0.07246078
60	0xbd0bb305	-0.034106273
61	0x3cbc2b02	0.022969726
62	0xbc0aff10	-0.008483663
63	0x3db18487	0.08667856
64	0x3c99abe0	0.018758714
65	0x3d6ed3ee	0.05830758
66	0x3d97f485	0.07419685
67	0x3db033d3	0.08603635
68	0xbc83c643	-0.01608575
69	0x3de79ae4	0.1130884
70	0x3db7eba2	0.0898049
71	0xbd04a8ae	-0.032387428
72	0xbdc70662	-0.09718014
73	0xbe0b4b2d	-0.13602896
74	0xbd7983b1	-0.060916606
75	0xbd9de3ee	-0.0770949
76	0xbd55bec1	-0.05218387
77	0xbcaa3340	-0.020776391
78	0xbe210b64	-0.15727001
79	0xbdaa52c0	-0.083165646
80	0xbd522c07	-0.05131152
81	0x3db17610	0.08665097
82	0x3d38c67a	0.045111157
83	0x3da3b565	0.07993583
84	0x3df693fc	0.120399445
85	0x3deea8e4	0.11653307
86	0xbd50124b	-0.050798696
87	0x3d0afbe2	0.03393162
88	0x3dfda23c	0.123844594
89	0x3db4e556	0.08832805
90	0xbbbcf4d1	-0.005766489
91	0xbe0bdfc4	-0.13659579
92	0xbc125cad	-0.008933228
93	0xbdea3735	-0.11436311
94	0xbe1adcf6	-0.15123352
95	0x3d5996f2	0.05312247
96	0xbcf1e9aa	-0.029530365
97	0x3cba9ef3	0.022780871
98	0x3d64ca92	0.05585725
99	0x3d4e5cec	0.050381586
100	0x3d3d30d0	0.04618913
101	0xbdc71068	-0.09719926
102	0xbcd33f68	-0.02578707
103	0x3daf9a25	0.085743226
104	0x3deac86c	0.11464009
105	0xbd0cf718	-0.034415334
106	0xbe01c302	-0.12672046
107	0xbd0d5588	-0.034505397
108	0xbda40160	-0.08008075
109	0x3cca4f01	0.024695875
110	0x3c06af94	0.008220572
111	0xbced3448	-0.028955594
112	0xbc66252b	-0.0140469475
113	0xbdb0a2b4	-0.08624783
114	0x3b484b11	0.0030562321
115	0x3df7ffda	0.12109347
116	0xbc67d9b2	-0.014151024
117	0x3e05bfdc	0.1306147
118	0x3de585a1	0.11207128
119	0xbe2dacb9	-0.1696042
120	0x3c6d4672	0.0144821275
121	0xbb9fa87c	-0.00487238
122	0x3cef24fe	0.029192444
123	0xbd53cf6f	-0.051711496
124	0xbd8445be	-0.06458615
125	0x3d86e54a	0.06586702
126	0xbd33eb26	-0.043925427
127	0x3da41945	0.08012632
128	0x3d5f2cd2	0.054486103
129	0xbdd5bab3	-0.10436001
130	0x3d85da37	0.06535762
131	0xbd7661cf	-0.06015187
132	0x3e135ed8	0.14391649
133	0x3cfd66f8	0.030932888
134	0x3de20a87	0.11037164
135	0xbe092443	-0.13392739
136	0xbd17703d	-0.036972273
137	0x3e169d98	0.14708555
138	0x3c5a23d3	0.013314205
139	0x3dcc1c45	0.099663295
140	0xbc4dabed	-0.012553197
141	0xbc85cc98	-0.01633291
142	0x3dba22d9	0.09088678
143	0xbc8dd600	-0.017313957
144	0x3e01a666	0.12661132
145	0x3de3dd21	0.11126161
146	0xbcf0d729	-0.029399471
147	0xbdb9e1a3	-0.0907624
148	0x3d169f8c	0.03677325
149	0xbc97f0be	-0.018547412
150	0xbd68a6c7	-0.056799676
151	0x3e3c0e9b	0.18364947
152	0xbde5544e	-0.111977205
153	0xbcbe3e91	-0.023223193
154	0xbd813e44	-0.06310704
155	0xbde6cb64	-0.112692624
156	0xbd8503ce	-0.06494866
157	0xbdb0de60	-0.08636165
158	0x3dbf98cd	0.09355316
159	0xbd97f69c	-0.07420084
160	0x3dc8bd71	0.09801758
161	0xbd8fdea5	-0.07024888
162	0xbdb89b56	-0.09014003
163	0x3dd7c008	0.10534674
164	0x3e1a40b9	0.15063752
165	0x3dfd3fee	0.12365709
166	0x3dd933ce	0.10605584
167	0xbd358c0c	-0.044323012
168	0x3dc0fb13	0.094228886
169	0x3deb08ea	0.114763096
170	0x3c375e74	0.011191953
171	0xbdf1ae14	-0.11800781
172	0x3c3685e8	0.011140324
173	0xbcf9792e	-0.03045329
174	0xbd7d6087	-0.061859634
175	0x3ded6e94	0.11593357
176	0x3db259fa	0.08708568
177	0x3dfaeb68	0.122519314
178	0xbdb127c9	-0.086501665
179	0x3e042932	0.1290634
180	0xbc529718	-0.012853406
181	0xbbacfb3b	-0.0052789724
182	0x3e27ca1b	0.16385691
183	0xbcf7f9d7	-0.0302705
184	0x3d029ab6	0.031885825
185	0xbc79a261	-0.015236468
186	0xbd48b365	-0.04899921
187	0xbd351d29	-0.044217262
188	0xbd1d8dc8	-0.03846529
189	0xbd77789c	-0.060417756
190	0x3c7a2271	0.0152670005
191	0xbce48efb	-0.02790021
192	0x3c5aa702	0.013345482
193	0xbdd8374a	-0.105574206
194	0x3da0bd47	0.07848602
195	0x3d9e3b13	0.07726111
196	0x3dadf266	0.084934995
197	0xbd59aed0	-0.05314523
198	0xbd5b771e	-0.053580396
199	0xbd52fc89	-0.051510368
200	0xbda10426	-0.078621194
201	0x3b7349e4	0.00371229
202	0xbdc3baf5	-0.095571436
203	0xbd479b22	-0.04873193
204	0x3dca6698	0.098828495
205	0x3d99ad20	0.07503724
206	0xbd637de4	-0.05553998
207	0x3de4a7e6	0.111648366
208	0xbc65f442	-0.014035286
209	0x3dc70c49	0.0971914
210	0x3e00ce88	0.12578785
211	0x3dcb831d	0.09937117
212	0xbc8ea568	-0.017412856
213	0xbdb4f657	-0.08836048
214	0xbd51f75b	-0.051261287
215	0x3da39f28	0.07989341
216	0x3dcac6cd	0.099011995
217	0xbdbf4477	-0.093392305
218	0x3d297e0f	0.041379984
219	0x3c021cba	0.007941419
220	0x3cbb08a5	0.02283127
221	0x3a33daa2	0.0006860887
222	0x3d99dab0	0.075124145
223	0xbc8d0659	-0.01721494
224	0x3ddc8dd1	0.10769237
225	0x3d2ef589	0.04271463
226	0x3b8e8625	0.0043494874
227	0x3d2ef3d0	0.042712986
228	0x3ddc5489	0.10758311
229	0x3c144acd	0.009051037
230	0xbb0ed700	-0.002179563
231	0xbdf5277f	-0.11970424
232	0xbdedb5cc	-0.116069406
233	0xbdf2086e	-0.11818014
234	0x3d4ed8f0	0.050499856
235	0x3d53d308	0.051714927
236	0xbb33ac4e	-0.0027415934
237	0xbdc757fc	-0.097335786
238	0xbd7c3499	-0.0615736
239	0x3ddb97ea	0.10722335
240	0xbd8d2441	-0.068916805
241	0xbc3b9c57	-0.011450849
242	0x3d07317b	0.033006173
243	0xbd2fb33a	-0.042895533
244	0xbd03514e	-0.03205996
245	0xbd3ee549	-0.046605382
246	0xbdaa6b2b	-0.08321222
247	0x3dc840aa	0.09777959
248	0x3d3b6d2b	0.045758408
249	0x3d81b86c	0.06334004
250	0xbdef86e3	-0.116956495
251	0x3db49b82	0.08818723
252	0xbdefa3c7	-0.1170116
253	0x3d3bdf12	0.045867033
254	0xbdec81d8	-0.11548203
255	0x3d61d1d8	0.055131763

fc2.bias f4 [64]
0	0xbd1f91e1	-0.03895748
1	0x3db61502	0.08890726
2	0x3a8881a0	0.0010414608
3	0xbdda6db8	-0.106654584
4	0x3a8b2485	0.0010615742
5	0x3c4b2664	0.01239929
6	0xbd84a066	-0.06475906
7	0x3d84c29c	0.06482431
8	0xbcd1ef66	-0.02562685
9	0xbd9544f3	-0.07288542
10	0xbdedde1c	-0.116146296
11	0x3dc06005	0.09393314
12	0xbd77e186	-0.06051781
13	0x3d92a240	0.07159853
14	0x3de03513	0.10947623
15	0x3caf1d16	0.021376174
16	0xbdc750bc	-0.09732196
17	0x3d5d26f5	0.05399223
18	0x3da55c09	0.08074195
19	0x3dd7c669	0.105358906
20	0xbc28de78	-0.010306947
21	0xbca4f4fd	-0.02013635
22	0x3d5e1472	0.054218717
23	0x3dc2b339	0.0950684
24	0x3d29a5fc	0.04141806
25	0x3dc2fe61	0.09521175
26	0xbd8e4350	-0.069464326
27	0x3d2b093e	0.04175686
28	0x3dd0103b	0.10159346
29	0x3d4152f6	0.04719826
30	0xbdc8b0e6	-0.09799366
31	0xbd45a38c	-0.048251674
32	0xbd9df6d3	-0.077130936
33	0xbcb339eb	-0.021878203
34	0xbde9a322	-0.11408068
35	0x3d86a32c	0.06574091
36	0x3d909c1e	0.07061027
37	0xbdcab3d7	-0.09897583
38	0xbd8140a1	-0.06311155
39	0x3ca291bf	0.019844888
40	0xbde370ae	-0.11105476
41	0x3dfa73e8	0.122291386
42	0xbd89be64	-0.06725767
43	0xbd67e1e6	-0.056611918
44	0xbc68505b	-0.0141793145
45	0x3dc9ac6f	0.09847342
46	0xbc25b52b	-0.010113995
47	0x3d28cdfd	0.04121207
48	0x3d0d907a	0.03456161
49	0xbdcadd79	-0.09905524
50	0x3dcc48a3	0.09974792
51	0x3d76f07d	0.06028794
52	0xbd754c67	-0.059887316
53	0xbd9e952a	-0.077432945
54	0x3dbbe98b	0.09175404
55	0xbda6d596	-0.08146207
56	0xbd82371e	-0.06358169
57	0xbc084993	-0.008318323
58	0x3d4edce6	0.050503634
59	0xbcc585b3	-0.024111604
60	0xbd3f91b0	-0.046769798
61	0x3dc5ad16	0.09652154
62	0x3d8dcd81	0.069239624
63	0xbcab72fa	-0.020928849

fc3.weight f4 [1, 64]
0	0xbddab6c6	-0.106793925
1	0xbd91f455	-0.07126681
2	0xbdc58f75	-0.09646503
3	0xbcacb2e9	-0.021081405
4	0x3d08e7f2	0.033424325
5	0x3d671f75	0.056426484
6	0xbd2f9a2d	-0.042871643
7	0x3d595313	0.05305774
8	0x3de6981a	0.1125948
9	0xbd0de7f6	-0.034645043
10	0xbcfb4927	-0.03067453
11	0x3d86c36e	0.06580244
12	0xbdc92e14	-0.09823242
13	0x3c85bb0e	0.016324546
14	0x3c489425	0.012242352
15	0x3dacde71	0.08440865
16	0xbdb2acd9	-0.08724374
17	0x3da9baf8	0.082876146
18	0xbd6a1120	-0.057145238
19	0xbd81efb2	-0.063445464
20	0x3db53b3f	0.08849191
21	0x3d7c8199	0.06164703
22	0x3dbd50d1	0.0924393
23	0x3aad799a	0.0013235093
24	0x3d8f71d0	0.0700413
25	0x3de0adac	0.10970625
26	0xbda9cc00	-0.08290863
27	0x3a01749d	0.0004938336
28	0x3c2adf25	0.010429178
29	0xbb2340c0	-0.002491042
30	0xbbe6c9e0	-0.0070431083
31	0x3db4cdba	0.08828302
32	0x3cf75e60	0.030196369
33	0xbdb8b0f4	-0.09018126
34	0x3c954892	0.01822308
35	0xbde00478	-0.10938352
36	0x3e19129f	0.1494851
37	0x3b76593c	0.003758981
38	0xbdbbc4e7	-0.091684155
39	0xbde752f6	-0.112951204
40	0x3ca856e0	0.020549238
41	0x3d9a9e1d	0.07549689
42	0xbdebdd00	-0.11516762
43	0xbd0c3047	-0.03422573
44	0x3dcd215f	0.10016131
45	0xbded1e54	-0.1157805
46	0x3a7817b2	0.000946398
47	0xbd521200	-0.051286697
48	0xbdadf098	-0.08493155
49	0xbd114a26	-0.035471104
50	0xbdc3a845	-0.09553579
51	0x3d398498	0.045292467
52	0xbdb97a7c	-0.09056565
53	0x3d1ffe75	0.03906103
54	0x3c159b4c	0.009131264
55	0xbd4195d1	-0.047262017
56	0xbd22dbf8	-0.03976056
57	0xbd22bd9b	-0.039731603
58	0xbbde3504	-0.0067812223
59	0xbd3d849d	-0.046269048
60	0x3d9555a9	0.07291729
61	0xbdbeb41b	-0.09311696
62	0xbdefda09	-0.11711509
63	0xbe0edd8a	-0.13951698
