models/Q_net64_5_prF_1.pth (torch, 21015 bytes, 5 tensors)

fc1.weight f4 [64, 6]
0.15921587 0.12113547 0.24863327 0.37369543 0.011273861 -0.07657281 -0.3145501 0.34122896
0.33512786 -0.1354448 0.12189144 -0.22748776 0.031831175 0.16835636 -0.12433118 -0.092614114
-0.21005237 -0.18317953 -0.25102118 0.36436993 -0.18877926 0.45064905 -0.17422909 -0.3774522
-0.43228126 0.27225423 -0.18098117 0.2774281 0.3403148 0.036598574 -0.1304026 -0.2873712
-0.08623655 0.08734407 0.1347453 -0.4215732 0.15623122 0.19808489 -0.22572446 0.33493674
0.007313907 0.08024752 -0.21297841 -0.16122231 -0.38647848 0.3859973 -0.034374416 0.35714376
0.2851316 -0.23172306 -0.018625168 -0.34554458 0.11416626 -0.009991187 0.07899222 -0.20995834
0.13023223 0.2715363 -0.26384157 -0.2131836 -0.0076663927 -0.33963603 -0.14274779 0.10535222
0.26509297 0.009080646 0.0347881 -0.06926492 -0.032304566 -0.019907802 0.3719054 -0.13137278
0.37053794 -0.12652093 0.43349996 0.3589707 0.28478217 -0.13478768 0.26056746 0.0013393164
0.058873974 -0.029352656 0.37596565 0.35471213 0.20935468 0.24834234 0.16919078 -0.0067480914
-0.10398018 0.005322608 -0.14044045 0.33880287 0.3017835 -0.094112664 -0.13671014 -0.31496224
0.015046507 0.12306005 0.0037345712 -0.021629836 -0.2964648 -0.437477 -0.16208884 0.38680077
-0.0063087237 -0.34558478 0.088567704 0.12090646 0.35896012 0.1948821 0.3355381 0.3288026
0.3005454 -0.14391005 0.032399047 0.018017352 0.04592039 0.05094451 0.18907005 0.041197896
0.18273439 0.25291467 0.15536457 0.19075802 -0.3971566 0.15216814 0.04765311 0.048716158
0.09080587 -0.08463419 -0.32826984 -0.19465612 0.37784234 0.39187723 0.15477736 0.2877855
-0.0025979877 0.024710106 0.55541193 -0.14357802 0.14752302 0.39666685 -0.15241528 -0.22430675
-0.07451369 0.39997143 -0.29092905 0.35470623 -0.2672391 0.34276798 0.32713914 -0.22261566
-0.115311235 -0.32826376 0.28508097 -0.13787475 0.36458653 0.13861918 -0.11238688 -0.33876887
0.35956103 -0.30982947 -0.00734881 -0.25262022 -0.34008956 -0.31757772 0.3340028 0.34973797
0.1339125 0.31411576 0.03396522 -0.027949633 -0.40691024 0.00947631 -0.17540032 0.24475676
-0.35093918 -0.32968116 0.12530857 0.15830287 0.051743522 -0.0931344 0.051629152 -0.13495935
0.19426519 -0.013466873 0.068721056 -0.09207669 0.0050295675 0.41726118 -0.24442028 0.22418296
-0.27666938 0.14647818 0.22766271 0.12103321 -0.09937975 0.14865053 0.15421009 0.3844458
-0.37711322 -0.3201299 0.33688378 0.13658522 -0.060913295 0.11703551 -0.37500626 0.22289813
0.35025293 -0.27699846 0.00023426469 0.25427073 -0.041741468 -0.03313737 0.22044188 -0.16030721
-0.35503802 -0.046458483 -0.3974165 -0.0008381903 0.28085846 -0.20592542 0.07194233 0.27136034
-0.059863046 -0.23054191 0.33251834 0.29798523 -0.04057417 0.21566403 0.07728379 0.058102105
-0.37510905 -0.36951995 -0.10682518 0.15507716 -0.3328724 -0.3787804 -0.3020182 0.330141
-0.34567514 -0.035358906 -0.32603234 -0.16552879 0.39535522 -0.2803167 0.1551354 -0.39204073
0.10847674 -0.33586282 -0.07353014 -0.059632428 0.20992947 -0.09488082 0.03607145 0.015112847
00000000: 7c09 233e e015 f83d b899 7e3e 0255 bf3e
00000010: 00b6 383c 35d2 9cbd b60c a1be 90b5 ae3e
00000020: e195 ab3e 0bb2 0abe 38a2 f93d 8df2 68be
00000030: 6861 023d 9c65 2c3e 58a1 febd 78ac bdbd
00000040: f817 57be 6a93 3bbe d985 80be b28e ba3e
00000050: 5a4f 41be 79bb e63e 1c69 32be 6a41 c1be
00000060: f853 ddbe e864 8b3e 2153 39be 0e0b 8e3e
00000070: be3d ae3e 63e8 153d 4288 05be 5122 93be
00000080: ca9c b0bd 73e1 b23d acfa 093e 71d8 d7be
00000090: 14fb 1f3e c4d6 4a3e 5024 67be d47c ab3e
000000a0: 80a9 ef3b d058 a43d 0317 5abe 7617 25be
000000b0: 82e0 c5be 70a1 c53e 30cc 0cbd 8cdb b63e
000000c0: c5fc 913e cf48 6dbe cf93 98bc 38eb b0be
000000d0: 00d0 e93d 13b2 23bc acc6 a13d 52ff 56be
000000e0: 995b 053e ce06 8b3e 3e16 87be cd4c 5abe
000000f0: 5d36 fbbb c6e4 adbe 7a2c 12be e8c2 d73d
00000100: 44ba 873e fdc6 143c f77d 0e3d c4da 8dbd
00000110: cb51 04bd b015 a3bc 626a be3e 9686 06be
00000120: 26b7 bd3e b48e 01be b5f3 dd3e 02cb b73e
00000130: f8ce 913e c805 0abe 1969 853e 008c af3a
00000140: d625 713d fb74 f0bc 927e c03e d49c b53e
00000150: 1361 563e 744d 7e3e 5940 2d3e 181f ddbb
00000160: 90f3 d4bd 4669 ae3b 9fcf 0fbe 9277 ad3e
00000170: 5e83 9a3e 24be c0bd befd 0bbe bb42 a1be
00000180: a085 763c e806 fc3d b5bf 743b 0e31 b1bc
00000190: 3cca 97be fcfc dfbe 9efa 25be c00a c63e
000001a0: 69b9 cebb 7df0 b0be fc62 b53d ce9d f73d
000001b0: 9fc9 b73e 2c8f 473e a6cb ab3e d058 a83e
000001c0: 16e1 993e 285d 13be ddb4 043d 2099 933c
000001d0: 0517 3c3d 31ab 503d 949b 413e 20bf 283d
000001e0: b91e 3b3e 087e 813e e417 1f3e 1256 433e
000001f0: 1c58 cbbe f7d1 1b3e e82f 433d 988a 473d
00000200: 6ef8 b93d b154 adbd fc12 a8be ef53 47be
00000210: 8d74 c13e 22a4 c83e f57d 1e3e 9f58 933e
00000220: 0043 2abb d96c ca3c 7a2f 0e3f 1e06 13be
00000230: 4610 173e eb17 cb3e c012 1cbe abb0 65be
00000240: a29a 98bd 0ec9 cc3e a7f4 94be 0e9c b53e
00000250: 90d3 88be 497f af3e c87e a73e 5cf5 63be
00000260: 4c28 ecbd 3012 a8be 22f6 913e 0a2f 0dbe
00000270: 16ab ba3e 30f2 0d3e 182b e6bd 1d73 adbe
00000280: 6218 b83e f8a1 9ebe 49ce f0bb 7057 81be
00000290: 3820 aebe 8c99 a2be 6a02 ab3e db10 b33e
000002a0: 5c20 093e c8d3 a03e 1d1f 0b3d a1f6 e4bc
000002b0: 8a56 d0be 8642 1b3c 249c 33be 84a1 7a3e
000002c0: 4dae b3be f8cb a8be e450 003e 261a 223e
000002d0: 04f1 533d 40bd bebd 1779 533d c932 0abe
000002e0: 74ed 463e 29a4 5cbc a0bd 8c3d b492 bcbd
000002f0: 12cf a43b 42a3 d53e 4f49 7abe 3890 653e
00000300: 9ca7 8dbe 60fe 153e 6a20 693e 42e0 f73d
00000310: 9c87 cbbd d837 183e 40e9 1d3e 14d6 c43e
00000320: fc14 c1be 11e8 a3be 087c ac3e ffdc 0b3e
00000330: 3880 79bd 50b0 ef3d d200 c0be 683f 643e
00000340: 5a54 b33e bed2 8dbe f3a4 7539 c62f 823e
00000350: 1af9 2abd 0dbb 07bd 84bb 613e 9327 24be
00000360: 8bc7 b5be 404b 3ebd 2d7a cbbe 00ba 5bba
00000370: aecc 8f3e 1dde 52be 8056 933d beef 8a3e
00000380: f432 75bd 2e13 6cbe d83f aa3e 8591 983e
00000390: 1a31 26bd 08d7 5c3e f746 9e3d 79fc 6d3d
000003a0: 4b0e c0be b831 bdbe 29c7 dabd 8ccc 1e3e
000003b0: 406e aabe 81ef c1be 21a2 9abe 3e08 a93e
000003c0: 55fc b0be 80d4 10bd b6ed a6be 6180 29be
000003d0: 006c ca3e ac85 8fbe d0db 1e3e 90b9 c8be
000003e0: 0e29 de3d 36f6 abbe f896 96bd 2241 74bd
000003f0: c0f7 563e e050 c2bd a8bf 133d e09b 773c

fc1.bias f4 [64]
-0.34679067 0.14090694 -0.22001699 0.1869211 0.42997837 -0.1225009 -0.3520116 -0.030938474
0.37093365 -0.08827114 0.3070185 0.23471494 -0.06209146 -0.26563373 0.37629297 -0.004265155
-0.17673925 -0.25678384 0.13577014 0.15641303 0.23520006 -0.52312064 0.24414773 0.05377603
0.37872636 -0.35997868 -0.34795964 -0.30184236 -0.6294832 -0.11926005 -0.005199455 -0.36135697
-0.083869256 -0.12429323 0.03549667 0.45217666 -0.3301704 0.24621844 0.07736058 0.059796177
0.10951874 -0.095671594 -0.3507082 0.33276066 -0.3877046 -0.05865687 0.20685525 -0.022989962
-0.15590408 -0.1483091 -0.5106287 -0.18128859 -0.13212927 -0.5245593 0.30044654 -0.204354
-0.012811263 -0.37349024 0.34137613 0.35054582 0.24095365 -0.049120504 0.039553594 -0.3202996
00000000: 8c8e b1be e949 103e 224c 61be 3f68 3f3e
00000010: 2026 dc3e c0e1 fabd dd3a b4be af72 fdbc
00000020: 04eb bd3e 80c7 b4bd 8731 9d3e 1d59 703e
00000030: 9d53 7ebd 2501 88be 79a9 c03e b7c2 8bbb
00000040: 22fb 34be 2c79 83be 5407 0b3e bd2a 203e
00000050: 49d8 703e 3ceb 05bf dd01 7a3e 4144 5c3d
00000060: 6ce8 c13e 204f b8be c427 b2be 158b 9abe
00000070: d025 21bf 9d3e f4bd 3160 aabb c803 b9be
00000080: a5c3 abbd 738d febd f564 113d b383 e73e
00000090: 180c a9be b020 7c3e 396f 9e3d d6ec 743d
000000a0: 5c4b e03d 78ef c3bd 0690 b3be 9b5f aa3e
000000b0: 3881 c6be 3042 70bd ddd1 533e 7255 bcbc
000000c0: 52a5 1fbe 57de 17be 90b8 02bf b7a3 39be
000000d0: e54c 07be 8549 06bf 21d4 993e 2d42 51be
000000e0: 55e6 51bc 1d3a bfbe dac8 ae3e be7a b33e
000000f0: 8ebc 763e 9532 49bd f302 223d 4ffe a3be

fc2.weight f4 [64, 64]
-0.059065096 -0.09122964 -0.056750923 0.040467434 0.038840465 -0.057880793 0.010443926 0.075614266
0.122878104 -0.0753245 0.059248682 -0.0055600274 0.049063366 -0.018710772 0.023583882 0.017175922
-0.13015264 0.054592073 0.014727893 0.12151036 0.10305187 0.07563143 -0.037226915 0.018331993
0.10463323 0.019600183 0.06752208 0.036251202 0.06924892 -0.05660876 0.087727614 -0.10745263
-0.109519675 -0.041853663 0.070572756 -0.0019679717 -0.004310608 0.049175967 0.0060857004 -0.071675315
0.021258088 -0.0274172 0.09766632 0.13881727 0.02383843 0.015379161 0.007786597 -0.11802796
0.012849316 -0.124894604 -0.007113441 -0.06436925 0.092938736 -0.12741384 -0.065234974 0.09822895
0.0312477 -0.07416625 0.10456862 0.0030737987 0.087525055 -0.033946306 0.021541514 -0.08880354
0.03738388 0.15832672 -0.044738024 0.0053327535 0.0584905 0.06531257 0.06899214 -0.006808905
0.14843413 0.009339977 0.03978032 -0.009952717 -0.004652215 -0.122742355 0.08890785 -0.029231649
0.08192049 -0.09365167 0.16566232 0.02081979 0.017446524 -0.13321647 0.006084798 0.12339734
0.06151479 0.087879375 0.11087343 0.06866638 0.111071214 0.026215993 -0.11213887 0.032547906
0.07466989 -0.007674289 0.13150612 -0.036040366 -0.09176971 0.067022465 0.16643386 0.155662
0.0641199 -0.028059285 0.05003886 -0.06652584 -0.022135632 -0.120278135 0.11510941 -0.046018243
-0.0374341 -0.121907264 -0.04257754 -0.12263137 -0.06737025 0.12644647 -0.012093167 -0.055542007
-0.07920251 -0.13028409 0.108443566 0.24852481 0.11561413 0.054356508 0.039036907 0.056303557
-0.14290188 -0.03099731 0.024099141 0.09283977 -0.008395131 0.059674937 0.030615002 -0.012426891
0.14172369 -0.09329311 0.010363034 0.12792937 -0.122775935 -0.12875913 0.009695101 -0.047605697
-0.0076152356 0.05487903 0.06539151 0.011771335 0.13971734 -0.047786374 0.015091956 -0.014689861
0.031733513 -0.08786139 -0.08858484 0.044192664 -0.053678438 -0.15227881 -0.10075483 0.04152903
-0.08992992 0.014254667 0.06606547 0.19180183 0.06976098 0.07818201 -0.047454186 0.068997435
0.08177547 -0.005057364 -0.07889049 0.090277046 -0.11108531 -0.05317229 0.11975082 -0.049123697
-0.019877493 -0.08693634 -0.037666522 -0.1150715 0.013834864 -0.0052421624 -0.048449147 -0.004824087
0.09842839 -0.069866255 0.019980444 0.12572001 0.06479146 -0.07843092 -0.011660065 -0.08573776
-0.22871722 0.06326671 -0.010366961 0.006549481 0.0297162 -0.037929345 -0.06134677 0.03516869
0.18455553 -0.013781666 0.06883461 0.1468463 -0.06721927 0.04662795 0.08207135 0.13895339
0.03377275 -0.11238017 0.20447364 -0.036001623 -0.004273041 0.0020317652 -0.11822223 0.017058853
0.049417213 -0.07628377 0.05974777 0.013898443 0.08357125 0.075139165 -0.15513185 0.012101883
0.04423281 0.055929687 0.06699583 0.0577927 0.09706788 0.19398221 0.09319965 0.18206108
-0.0024102898 -0.16054392 0.009282276 0.07800039 -0.056141302 -0.10262886 0.105069414 0.022846
0.10061914 -0.06370135 0.056535088 0.027093396 0.14962332 -0.12923601 0.17225915 -0.06057833
-0.093855575 -0.19129924 -0.0121704275 0.04028198 0.18325973 0.050244875 0.012750149 -0.1330318
00000000: 3eee 71bd 9bd6 babd a873 68bd 2ec1 253d
00000010: 2e17 1f3d 6914 6dbd 001d 2b3c a7db 9a3d
00000020: 84a7 fb3d bb43 9abd bfae 723d e430 b6bb
00000030: abf6 483d 5547 99bc fc32 c13c 85b4 8c3c
00000040: bc46 05be f09b 5f3d 434d 713c 6cda f83d
00000050: dc0c d33d a7e4 9a3d 407b 18bd fa2c 963c
00000060: f249 d63d 9090 a03c 0449 8a3d 247c 143d
00000070: 61d2 8d3d 96de 67bd 89aa b33d 2010 dcbd
00000080: da4b e0bd bf6e 2bbd 7388 903d 16f9 00bb
00000090: 0040 8dbb bd6c 493d 8e6a c73b 82ca 92bd
000000a0: 7125 ae3c 099a e0bc 4805 c83d 1d26 0e3e
000000b0: d048 c33c e0f8 7b3c b626 ff3b a5b8 f1bd
000000c0: f085 523c bec8 ffbd de17 e9bb 06d4 83bd
000000d0: aa56 be3d c678 02be ea99 85bd 422c c93d
000000e0: 2dfb ff3c 7ae4 97bd 1328 d63d c971 493b
000000f0: 5640 b33d 480b 0bbd d477 b03c a1de b5bd
00000100: d71f 193d 6620 223e 383f 37bd 61be ae3b
00000110: bc93 6f3d 99c2 853d c04b 8d3d 3c1d dfbb
00000120: 1eff 173e b406 193c b0f0 223d b910 23bc
00000130: 9c71 98bb 5860 fbbd 5215 b63d 3677 efbc
00000140: eec5 a73d 72cc bfbd 62a3 293e 448e aa3c
00000150: 03ec 8e3c e669 08be fc62 c73b bfb7 fc3d
00000160: eff6 7b3d 1afa b33d 9c11 e33d f6a0 8c3d
00000170: 4e79 e33d ecc2 d63c 10a9 e5bd f450 053d
00000180: 87ec 983d 9a78 fbbb 8aa9 063e 109f 13bd
00000190: c2f1 bbbd 1343 893d a36d 2a3e dc65 1f3e
000001a0: 4b51 833d 96dc e5bc 8cf5 4c3d b33e 88bd
000001b0: c955 b5bc 6254 f6bd 7bbe eb3d a07d 3cbd
000001c0: 8054 19bd 84aa f9bd c965 2ebd 2826 fbbd
000001d0: 6af9 89bd 2f7b 013e 6b22 46bc 0480 63bd
000001e0: ed34 a2bd 3169 05be a917 de3d 4a7d 7e3e
000001f0: 1ac7 ec3d eea4 5e3d 2ae5 1f3d 8f9e 663d
00000200: df54 12be 12ee fdbc 906b c53c c722 be3d
00000210: bb8b 09bc b56d 743d 50cc fa3c 299a 4bbc
00000220: 0420 113e 7510 bfbd b7c9 293c ebff 023e
00000230: f371 fbbd 6fd9 03be 33d8 1e3c 31fe 42bd
00000240: 3a89 f9bb d5c8 603d fceb 853d 8fdc 403c
00000250: 1012 0f3e a5bb 43bd 4044 773c bead 70bc
00000260: 00fb 013d acf0 b3bd f86b b5bd 5e03 353d
00000270: ecdd 5bbd faee 1bbe 8c58 cebd 581a 2a3d
00000280: 2e2d b8bd 688c 693c 554d 873d b367 443e
00000290: d8de 8e3d e41d a03d 525f 42bd 874e 8d3d
000002a0: e679 a73d 3eb8 a5bb 5691 a1bd 2ce3 b83d
000002b0: b280 e3bd 30cb 59bd eb3f f53d ee35 49bd
000002c0: 20d6 a2bc ae0b b2bd 3648 1abd 9baa ebbd
000002d0: a0ab 623c 72c6 abbb 9d72 46bd 6013 9ebb
000002e0: d394 c93d 0a16 8fbd 07ae a33c bfbc 003e
000002f0: 63b1 843d 64a0 a0bd db09 3fbc 4797 afbd
00000300: d934 6abe fa91 813d 30da 29bc 079d d63b
00000310: 636f f33c cd5b 1bbd c046 7bbd 0b0d 103d
00000320: 20fc 3c3e 7fcc 61bc 29f9 8c3d e05e 163e
00000330: 42aa 89bd f3fc 3e3d 0615 a83d cc49 0e3e
00000340: 4c55 0a3d 9327 e6bd 8a61 513e 7076 13bd
00000350: de04 8cbb 5d27 053b 7f1e f2bd 02bf 8b3c
00000360: b469 4a3d aa3a 9cbd 14ba 743d 4cb6 633c
00000370: 6727 ab3d 90e2 993d e2da 1ebe fa46 463c
00000380: 772d 353d 8716 653d 1c35 893d 0ab8 6c3d
00000390: 86cb c63d 46a3 463e 75df be3d 386e 3a3e
000003a0: f4f5 1dbb a065 24be b014 183c abbe 9f3d
000003b0: 6cf4 65bd 142f d2bd a22e d73d 8927 bb3c
000003c0: 6811 ce3d da75 82bd 5691 673d f8f2 dd3c
000003d0: db36 193e 7256 04be b464 303e fc20 78bd
000003e0: 5a37 c0bd f3e3 43be 7966 47bc b8fe 243d
000003f0: 70a8 3b3e 92cd 4d3d 00e6 503c 7d39 08be

fc2.bias f4 [64]
-0.07830929 0.057545424 0.09682824 0.12520945 -0.022940459 -0.0027818084 -0.11952765 0.02179387
-0.012283062 0.031008562 0.038933296 0.04905472 0.11602541 -0.03532258 0.160305 0.122372955
0.06267814 -0.08942783 0.13843432 0.06497991 0.058003277 0.0891253 0.040890995 -0.13069601
-0.011148941 0.036438596 0.057395708 0.09374524 -0.04442337 0.16131581 0.078233376 -0.097996585
0.03669849 -0.11277116 -0.06629933 -0.05900736 -0.12325232 0.048369523 0.089225315 0.01985829
0.07178365 -0.108806394 0.07711966 0.013785226 -0.09493637 -0.06660953 0.015100876 -0.0147074275
0.05522065 0.0067802877 0.12536572 -0.064501256 -0.054706074 0.07129472 0.073287785 0.025489118
-0.016533157 -0.12650959 0.020019416 0.055832103 0.09787493 -0.14205475 -0.005653161 0.019728247
00000000: 9f60 a0bd c0b4 6b3d e24d c63d e836 003e
00000010: a1ed bbbc 004f 36bb eaca f4bd 0f89 b23c
00000020: e53e 49bc ab05 fe3c 8578 1f3d 9aed 483d
00000030: bb9e ed3d 69ae 10bd fe26 243e ac9e fa3d
00000040: 665d 803d f025 b7bd bac1 0d3e 3014 853d
00000050: d894 6d3d 5387 b63d 517d 273d 2dd5 05be
00000060: 0caa 36bc a340 153d c317 6b3d 81fd bf3d
00000070: 48f5 35bd f92f 253e d238 a03d 6fb2 c8bd
00000080: 2851 163d 91f4 e6bd f1c7 87bd b4b1 71bd
00000090: b66b fcbd 1f1f 463d c3bb b63d daad a23c
000000a0: 4e03 933d e3d5 debd eaf0 9d3d 6edb 613c
000000b0: 006e c2bd 946a 88bd aa69 773c 6cf7 70bc
000000c0: 0c2f 623d 2d2d de3b df5f 003e 3c19 84bd
000000d0: 7a13 60bd f702 923d e817 963d 8ece d03c
000000e0: 8b70 87bc bb8b 01be c2ff a33c 34b0 643d
000000f0: a772 c83d cd76 11be 273e b9bb 229d a13c

fc3.weight f4 [1, 64]
-0.13281856 -0.09496248 -0.03220824 -0.047067456 -0.11657895 0.027982399 -0.0862007 -0.02991992
0.09004483 0.13453726 0.01724354 0.0006596631 -0.1256035 -0.00056423905 -0.06826883 -0.11689785
0.014813184 0.060184915 -0.045319434 0.008115108 0.07973026 -0.013391856 0.05233187 -0.06609337
0.12591389 0.074133225 0.023382582 0.04217814 0.06587458 -0.07505996 0.07581455 -0.0922823
-0.029015305 -0.043831624 -0.03704292 -0.04015208 0.0027980534 -0.06889289 0.019939048 0.12192224
-0.118179515 -0.100184776 -0.120104 0.059216607 -0.042615462 0.015411918 -0.07450219 0.11479633
-0.06939772 0.014393359 0.07159335 0.029229747 0.006647652 0.07542197 0.09176634 0.092412226
0.13076858 0.041683573 0.097490296 0.07261503 -0.103330426 -0.018843437 0.076276496 0.05842362
00000000: 9701 08be b07b c2bd caec 03bd cec9 40bd
00000010: f2c0 eebd 583b e53c fe89 b0bd 9f1a f5bc
00000020: 6d69 b83d 23c4 093e 5342 8d3c 3eed 2c3a
00000030: 349e 00be 71e9 13ba 87d0 8bbd 2468 efbd
00000040: ffb2 723c 7584 763d dfa0 39bd 3bf5 043c
00000050: 9e49 a33d 8469 5bbc f159 563d f65b 87bd
00000060: 92ef 003e 29d3 973d d48c bf3c fcc2 2c3d
00000070: 40e9 863d 09b9 99bd a944 9b3d 81fe bcbd
00000080: 81b1 edbc ca88 33bd 51ba 17bd 8276 24bd
00000090: 8c5f 373b b717 8dbd 3757 a33c 5eb2 f93d
000000a0: 1a08 f2bd ad2d cdbd 16f9 f5bd 1d8d 723d
000000b0: 8d8d 2ebd 4582 7c3c 9b94 98bd 571a eb3d
000000c0: 6420 8ebd 20d2 6b3c 899f 923d 3973 ef3c
000000d0: 8cd4 d93b d576 9a3d feef bb3d 9f42 bd3d
000000e0: 33e8 053e 65bc 2a3d fea8 c73d 30b7 943d
000000f0: e79e d3bd 8d5d 9abc da36 9c3d 9b4d 6f3d
