models/Q_net64_15_prT.pth (torch, 21007 bytes, 5 tensors)

fc1.weight f4 [64, 6]
00000000: 7e23 743d 9d55 e6be c136 28bc ebd1 1cbd
00000010: f0ae 1ebe 1152 af3d bfac 8fbe 95bf bbbe
00000020: 6948 8abe ac6e c73e 9aef a63e 520a 02bd
00000030: 0b04 e73d 3db7 37be 99e0 c5be 2255 08be
00000040: b052 b03c b904 b13e 799c 8f3d 4740 c3be
00000050: a42d 913d 4798 e8be 88b5 023e adeb d3bd
00000060: e351 2f3e e473 5f3e 76ca 413e 68b5 eabe
00000070: 0885 f7bd ae16 4cbe 6d6a ba3e 4f4b eb3d
00000080: 4049 8fbd 2237 043e 40a5 ca3b fed8 883e
00000090: 392b 0f3e 560e 863e 9d25 71bc 5a68 92be
000000a0: da71 a83e 26c9 eb3c dd1a 77bd 1a47 7abe
000000b0: 1818 bc3c b7fb 19be e8bc 583e 2d11 1a3e
000000c0: 388a b03d 8fd5 41be e4ef 063d 8cf7 7b3e
000000d0: 201b 833c 8be9 4bbe 6e8b 8ebd c06f 1f3e
000000e0: 53da 61be 8400 a6be e812 c63e f5a2 72be
000000f0: 0351 8ebe efab 233d bae7 d7be 2d13 e1be
00000100: 22e4 08be 50ae 62be 78e7 ce3e 4a60 abbe
00000110: acc0 30be 68de e8bd 0090 0d3e b00f d6bd
00000120: 54dc 33bd 742e 33bd 25dc 44be aa0a bb3e
00000130: 6095 a1be a06d d1be 4094 653e 7373 5d3e
00000140: c2b3 86be 6c07 c8bd fc73 c7be cc80 56be
00000150: 2b34 a8be 80f5 873e 9acd 74be d2c0 45bd
00000160: 78e5 563e 6e83 753d 8bd6 c8be 216c cdbe
00000170: 527f 98be 179c 8bbe 787a 223e fa2f 4dbe
00000180: 7fa3 61bd 1d36 b2be e0c6 85bd aa38 b5be
00000190: e014 193d 17dc d8be aef3 75be d3fc 9bbe
000001a0: 32cd a8bd 8572 5dbe b454 a63e 9bd5 8f3e
000001b0: 4ea0 debe 786e 92be c211 74be e017 14be
000001c0: 802d a73c ffed e63e 53e3 c1bd 8513 d4bd
000001d0: ffc9 043e aed7 66be 0087 d13b e100 abbe
000001e0: b1b4 903d 4384 85be 9300 9f3d 71c1 5b3d
000001f0: a813 c53d cbfa f63c 3f92 8dbe 2766 9dbe
00000200: 3534 afbe 1be3 c13e d042 d13d b7e6 9cbe
00000210: 89b2 42bd 13a1 3b3e bdd1 93bd f1cf b13e
00000220: b6cd a03e 62b7 f2be 6667 c7be 7811 9b3d
00000230: 6cd4 07bf b0a1 d6be 3fb5 93be 54c5 43be
00000240: 5c4d cb3e 4fad 453e 11e8 b4bd 6d03 8b3e
00000250: e4aa 0abe 0e71 cbbd d8bf 2fbd a67f 51bd
00000260: 8a2e 8dbd 19ad 153e 6000 d9bc 8cea 0cbe
00000270: dba0 82be e72e 76be 3ac5 46bd 777c efbd
00000280: 1974 b6be ce6c abbe a0c5 4a3c 5785 7a3e
00000290: 7a0e 41be 0701 9c3b 0386 aebe f63c 4bbe
000002a0: ee23 1a3e 6a9d babe 37ac 98bd 6c10 353e
000002b0: 588e eb3d 302f 223e 5e14 8d3d eb77 d7be
000002c0: 0b88 a83d b26f 0337 08cb d53d 59dc 14be
000002d0: e764 c13d ba32 bfbe aed0 cb3d 1f43 f8be
000002e0: 3c9a c4be ea40 103c 783a c1be 8389 cdbd
000002f0: dec7 a23e 00ea 15ba 751b c8be 8217 1bbe
00000300: 5fed 39be 625e 8ebd 1d76 0cbe bdde 0ebf
00000310: f662 803e 40e6 893e 71e1 e0bd a728 f6be
00000320: 9289 143e b191 00be 5c74 4d3e da70 88be
00000330: e940 a13e 0993 9ebe 924b 0bbc 9924 333e
00000340: 1834 093d 7758 a0be 3887 96be ab08 1ebc
00000350: e5b3 0abd aa8c 56bf 009d 01bc 5212 c23c
00000360: ce4e 5e3e 9daa 823e 12a3 c73c f8f0 e03e
00000370: 5c8c 0c3e e825 003f edc5 893e a3b0 f8be
00000380: 06ac 453d 0cad 26bf 1421 5e3e 723d 593e
00000390: b9fe fbbb ca34 8abe db9d e2bd 7a5e af3e
000003a0: 6038 1c3c 4832 8cbe 7988 bbbe fa94 aabe
000003b0: 9da7 2cbd 54a6 bbbe a090 e73d 05c9 98be
000003c0: 4b33 17be 9513 22be 51b0 913d 879f e8bd
000003d0: 68a1 ae3d 56d4 a13e 350a 22be 9dd3 eabe
000003e0: d0ef 713d bb4a 9fbe f80e 68bd 890a e93c
000003f0: 1a81 d4bd eaee 6bbe 9707 833d 5a23 c5be
0.05960416 -0.44987193 -0.010266961 -0.03828613 -0.15496421 0.08560575 -0.28061482 -0.36669603
-0.2700837 0.38951623 0.32604676 -0.031748123 0.11280068 -0.17940994 -0.38647917 -0.13313726
0.021523803 0.34573916 0.07012267 -0.38134977 0.070887834 -0.45428678 0.12764561 -0.10347686
0.17121081 0.21821553 0.18924889 -0.45841527 -0.120859206 -0.19930527 0.3640932 0.11488973
-0.06996393 0.12911656 0.00618425 0.26728052 0.13981332 0.26182812 -0.01471844 -0.2859524
0.32899362 0.028782438 -0.060328353 -0.24441186 0.022960708 -0.15037428 0.21165812 0.15045615
0.08620113 -0.18929122 0.03294362 0.2460615 0.016004145 -0.19913308 -0.06960188 0.15569973
-0.2205594 -0.32422268 0.386863 -0.23694976 -0.27796182 0.03995889 -0.4216898 -0.43959942
-0.13368276 -0.22136807 0.40410972 -0.334719 -0.17260998 -0.113705456 0.13824463 -0.10452211
-0.043911293 -0.043745473 -0.19224603 0.36531574 -0.31559277 -0.4090395 0.22419834 0.21626072
-0.2630902 -0.097670406 -0.38955677 -0.2094757 -0.328523 0.2655449 -0.23906556 -0.04827959
0.20985973 0.059939794 -0.39226183 -0.40121558 -0.29784638 -0.27267525 0.1586703 -0.20037833
-0.055087563 -0.3480691 -0.06532073 -0.35394794 0.037373424 -0.42355415 -0.24018738 -0.30466327
-0.08242263 -0.21625717 0.32486498 0.28092656 -0.43481678 -0.28599906 -0.23834899 -0.14462233
0.020407438 0.45103452 -0.09467187 -0.103552856 0.1296768 -0.22543213 0.006394267 -0.33399108
0.07065714 -0.2607747 0.077637814 0.053651277 0.0962289 0.030148884 -0.2765064 -0.30742
-0.34219518 0.3786858 0.102178216 -0.3064477 -0.047533546 0.18323164 -0.07217739 0.3472896
0.31406945 -0.47405535 -0.38946074 0.07571691 -0.53058505 -0.41920233 -0.28849217 -0.19118243
0.39707458 0.19304393 -0.08833326 0.2715105 -0.13541752 -0.09933673 -0.042907566 -0.051147126
-0.06893642 0.14616813 -0.026489437 -0.13761348 -0.25513348 -0.2404133 -0.048527934 -0.11693662
-0.3563545 -0.3348145 0.012376219 0.24464928 -0.18853179 0.0047608647 -0.34086618 -0.19847474
0.15052769 -0.36448222 -0.074547224 0.17682046 0.11501759 0.15838313 0.0688865 -0.42083678
0.08229073 7.834215e-06 0.10439116 -0.14537181 0.09443074 -0.3734339 0.09951912 -0.4848871
-0.3839892 0.008804539 -0.3773992 -0.10035994 0.31793112 -0.00057187676 -0.39083448 -0.15145686
-0.18156956 -0.06951596 -0.13716932 -0.5580862 0.250755 0.2693348 -0.109804995 -0.4807789
0.14505604 -0.12555577 0.20063919 -0.266486 0.31494835 -0.30971554 -0.008501904 0.1749443
0.033496946 -0.31317493 -0.2940004 -0.009645621 -0.033862967 -0.83808386 -0.007910967 0.023690376
0.21709749 0.25520793 0.02436975 0.43933845 0.13725418 0.5005784 0.26908818 -0.48572263
0.048259757 -0.651078 0.21692306 0.21214846 -0.0076902774 -0.269934 -0.11065265 0.34251767
0.009534925 -0.27382112 -0.36627558 -0.33316785 -0.042152036 -0.36650336 0.11306882 -0.29840866
-0.1476566 -0.15827782 0.07113708 -0.113585524 0.085268795 0.31607312 -0.15824206 -0.45864573
0.059066594 -0.31111702 -0.0566549 0.028447406 -0.10376187 -0.23040357 0.06397932 -0.38503534

fc1.bias f4 [64]
00000000: 6352 5cbd 843e f9bd 1258 143e 7bec b03e
00000010: 21f3 8e3c 18d8 29be a716 eb3e 2800 d2be
00000020: 1f0c adbe 9049 043e dbf0 413e 3e42 39be
00000030: 2c2d 3ebe 3947 8ebe ec86 8b3e 7f12 823e
00000040: d951 153e 3872 23bb 12da 93be a851 793e
00000050: 51fe 40bd b0f4 fcbd 8c74 823c 4fda 93be
00000060: 8e70 8c3e 3029 5fbd 8b8f e9be 2299 b83e
00000070: 09b6 fabd a1e0 f43d 2c08 b4bc 2df6 ab3e
00000080: ac33 483e 0781 41be a6c0 ec3e 8561 adbe
00000090: 3832 41be c628 47bd 3c71 27be d893 0a3e
000000a0: 15b7 c23d 3db2 7bbe 6fce ac3e af42 bcbe
000000b0: 2aa8 493e 7689 78bd 3590 8bbc 76a9 2cbe
000000c0: fbab 1c3b e566 c3bc 3cf5 183e 053f db3d
000000d0: 6fa0 6b3e e1d7 02bf 197e 0a3e 38b5 233f
000000e0: 78fe a8be 5a75 09be 2774 91be 5d1c 7cbd
000000f0: f3d7 5f3e 7441 97be 843f 7cbe fe1d 093d
-0.053789508 -0.12170127 0.14486721 0.3455542 0.017449917 -0.1658634 0.4591572 -0.41015744
-0.3379831 0.12918687 0.18939535 -0.18091676 -0.18571919 -0.27788714 0.27251375 0.25404736
0.14582004 -0.0024939906 -0.28877312 0.24347556 -0.047117535 -0.12351358 0.015924715 -0.28877494
0.27429622 -0.05448264 -0.45617327 0.3605433 -0.12241752 0.11956907 -0.021976553 0.33586255
0.19550961 -0.18896876 0.4624073 -0.33863464 -0.18866813 -0.04862287 -0.16351789 0.1353296
0.095075764 -0.24579711 0.33751246 -0.36769626 0.19693056 -0.060677968 -0.017036537 -0.16861519
0.002390622 -0.023852775 0.149373 0.107053794 0.2301042 -0.51110655 0.13524665 0.6394839
-0.33006644 -0.13423672 -0.2840893 -0.061550487 0.21859722 -0.29542124 -0.24633604 0.03347587

fc2.weight f4 [64, 64]
00000000: c898 b1bb 300f a0bc 1150 773d ee13 b5bd
00000010: ff37 f83c 2d21 70bd 470c 0a3d c270 213d
00000020: 7a89 e0bc 8475 0fbd 078d 17be 38e9 403d
00000030: 842c a33d 97ed 943d 51dc b5bd 5b00 0c3d
00000040: b972 8b3d 53dd aa3d 5742 2c3d cbcf dbbc
00000050: f383 c43c ced8 f9bd 33d0 d43d 7612 15be
00000060: a9b4 33be 479c c839 5270 dfbd e8f0 0fbd
00000070: d85c 74bd e42d a4bd 8671 3fbd e3d7 03be
00000080: 45e9 513b 290f ebbd 2cee 933d c14e 1f3e
00000090: b720 25be 9333 f03c 9fc6 f1bb 761c e8bd
000000a0: 5e0f 09be 33ce c93b a38f d1bd c81c 463d
000000b0: 61d5 c43d 00d4 693d 1544 0e3e e0d5 843d
000000c0: ab87 d13b 9af7 e43d 3bfd 8bbd 4edc 1abe
000000d0: b128 f63c 1547 8dbd 00d7 28bd a7a0 1fb9
000000e0: 0cb0 6f3d ade0 93bc 403c 993d 55d5 f7bb
000000f0: ae50 63bd 9169 823d 1fd7 24bd 5bdc 1e3e
00000100: 471e 18bd 5c5c 033e 0be5 e139 c375 e2bd
00000110: 3877 75bc b6b1 04be 8661 5dbd a2ea 78bd
00000120: b01e 833d ed0a 92bd fc20 dd3d 8869 2abd
00000130: 3f16 b03d 3431 7fbd 0c21 bf3c 3f60 61bd
00000140: 7660 31bd f359 1e3d 9cc2 f7bc fab4 463d
00000150: 70ee 4bbd 0c2f c23d 4cda ddbc 1207 e53d
00000160: 5395 cfbd bc06 a6bb 2653 6dbd dc2d d4bd
00000170: 58c6 cebb 30c2 9ebd 3269 61bd fec2 5d3d
00000180: 68f2 0bbe 863f 57bd ab82 f4bd 2eb9 ef3c
00000190: e091 b53d d991 a4bc 3bbd 613d 7302 c83c
000001a0: 21f9 cd3c ee30 74bd 80ea 503d cef9 ff3d
000001b0: 065d 76bb 919f 0cbd e69b da3d 5795 103c
000001c0: 9626 2e3d 1069 db3c 7c7e 86bc 71c8 96bd
000001d0: 2a02 06bd dcd8 17be dd07 f83b c9ac b5bd
000001e0: 7046 8cbd da02 1c3d d508 a83b fc78 0f3c
000001f0: c5d0 2a3d f271 ad3d 7a0a 2bbe 4488 89bd
00000200: cce6 9d3d 0a13 eebd 0449 573d c079 4a3d
00000210: 88aa 76bd 229f e4bd 6c0a e2bd c0d7 bbbc
00000220: 583a 813c 482c 823d c057 5fbc eed0 aabd
00000230: 8c75 c43d c829 40bd c2df b7bd 644d 323d
00000240: 4e0f f8bd 486b 713d 80ec 3e3b d830 efbd
00000250: 60dd d9bc 16da ea3d a8d4 5f3d 0608 95bd
00000260: 84e1 cdbd d0b8 34bd 1891 9abc 009d e0bd
00000270: 64ed e3bd 78b2 68bd 460d dc3d 84a9 c6bd
00000280: b4fe 2bbd 446c 123d 6cb6 dbbd 7206 a53d
00000290: 68c5 dbbc c811 adbd 6021 d2bb a8bc e73c
000002a0: 344f 5a3d d8fe 3dbd 6a8b 9ebd 0882 35bd
000002b0: 9441 fa3d 2084 e63c 4824 233d fc4d ff3d
000002c0: a032 913d 1880 323d 02e3 b9bd 68f7 f8bc
000002d0: 00e9 ba3c c685 b83d 60c4 6a3d 1eec dbbd
000002e0: dc9e fd3d 101f d5bc 20f3 54bc e43f c53d
000002f0: f03b afbc ec5d ff3d a0f4 4ebd e00e 50bd
00000300: 216f 77bd 9e9e f1bd 4eea 81bd e68b c03d
00000310: 7c1e e73d 0e4f 7c3e bdcc 8abe 1ac3 0a3d
00000320: e0ee 9dbc 08fb fabc 1595 923d fc62 b53d
00000330: af6a 223c 9126 cbbc 8e84 dd3c 92c1 e9bc
00000340: 559e 0ebd d5d4 11be ea58 663c 8a98 12be
00000350: 89be 153c 29a4 c83d 7f51 dcbb c9ea af3d
00000360: bd0d d0bd 7841 3b3d 188b d5bc 1819 85be
00000370: 778a da3d 889b 64bd f348 f4bd c8be 27be
00000380: b774 45bc 347f 73bd 0859 60bc e6b7 1dbe
00000390: 64e3 2b3e c130 c4bd 5d17 b3bb dcd3 aebc
000003a0: b122 6cbc ac53 a53d 34a2 a43d 4ca6 e7bd
000003b0: 31bd c4bd 59d0 b2bd 20c7 173c 2611 bb3d
000003c0: 6c60 e83c 0c0f fdbc 2c2d 0b3e 2ee7 70bd
000003d0: 1efe 473d 96df d63b ee6c 0dbe f220 693d
000003e0: 3cd8 d8bd 1419 593e 3a4f 9bbd 3578 8bbd
000003f0: c079 20be 4abd fe3d 03c9 473e f0fa 7d3d
-0.0054198243 -0.019538492 0.06037909 -0.08841692 0.030300139 -0.05862539 0.033703115 0.039414175
-0.027409304 -0.03502418 -0.14799891 0.047097415 0.07967475 0.07271879 -0.08879913 0.034180027
0.06808991 0.083429955 0.042055454 -0.026832482 0.0239887 -0.12199555 0.10391273 -0.14557824
-0.17549385 0.00038263408 -0.10910095 -0.035141855 -0.059658855 -0.080165654 -0.046739124 -0.12875323
0.0032029909 -0.11477501 0.07223162 0.15557386 -0.16125761 0.029321468 -0.007378414 -0.113335535
-0.13384768 0.006158614 -0.10232475 0.04836729 0.09611011 0.057086945 0.13893159 0.06486106
0.0063943467 0.11180039 -0.06835409 -0.15123102 0.0300487 -0.068983234 -0.041220665 -0.0001522327
0.0585175 -0.01805147 0.07482195 -0.007563273 -0.055496864 0.063677914 -0.040244218 0.15513746
-0.03713825 0.12828201 0.00043085995 -0.110576175 -0.014982037 -0.12958416 -0.054048084 -0.06077064
0.064023376 -0.0713099 0.10797307 -0.04160455 0.08597993 -0.062302783 0.023331188 -0.055023428
-0.043304883 0.03866 -0.030244164 0.048512436 -0.04978794 0.0948163 -0.027081631 0.11182989
-0.10135903 -0.005066721 -0.057940625 -0.103603095 -0.0063102655 -0.07751882 -0.055031963 0.054141037
-0.1366669 -0.052550815 -0.119389854 0.029263105 0.08865714 -0.020089077 0.055112105 0.02441523
0.025143208 -0.059616975 0.051004887 0.12498818 -0.0037592067 -0.034331862 0.106742665 0.008824668
0.042517267 0.026783496 -0.016417734 -0.0736245 -0.032716908 -0.14828819 0.0075692968 -0.08870847
-0.068493724 0.038088657 0.005128006 0.008756872 0.041703004 0.08468999 -0.16703215 -0.06715444
0.07710037 -0.11624725 0.052559868 0.049432516 -0.060221225 -0.11163165 -0.11037144 -0.022930026
0.01577489 0.06356102 -0.013631761 -0.083406314 0.09592733 -0.046914846 -0.08978225 0.043530837
-0.12112294 0.058940202 0.0029132664 -0.11679238 -0.026594818 0.11467378 0.054646164 -0.07276921
-0.10052779 -0.044121563 -0.018868014 -0.109674454 -0.11129263 -0.056810826 0.10744719 -0.09700301
-0.04199095 0.03574778 -0.107281536 0.0805787 -0.02682753 -0.08450657 -0.00641267 0.0282882
0.05329819 -0.046385616 -0.07741435 -0.04431346 0.12219539 0.028139174 0.039829522 0.12466046
0.07089734 0.04357919 -0.090765014 -0.03039141 0.022816181 0.0900989 0.057316184 -0.10738395
0.12383816 -0.026015788 -0.012997419 0.09631327 -0.021390885 0.12469086 -0.05052626 -0.050795436
-0.060408715 -0.11797832 -0.06343518 0.094016835 0.11285111 0.24639532 -0.27109328 0.03387747
-0.019278944 -0.03063728 0.071573414 0.088567704 0.009913131 -0.024798663 0.027040746 -0.028534684
-0.034818966 -0.14241345 0.014059285 -0.14316002 0.009139665 0.09796936 -0.0067235823 0.085897036
-0.1015887 0.045716733 -0.026067302 -0.25995708 0.10670941 -0.05581239 -0.119279765 -0.16381371
-0.012051753 -0.059447482 -0.013693102 -0.15402183 0.16785961 -0.095796116 -0.0054654316 -0.021341257
-0.014412568 0.080726 0.0803875 -0.113110155 -0.09606398 -0.087311454 0.009263784 0.0913413
0.02836629 -0.030890964 0.1359145 -0.05881422 0.04882633 0.0065574152 -0.13811085 0.056916185
-0.105881184 0.21200973 -0.07583471 -0.06810037 -0.15671444 0.12438448 0.19510274 0.06200689

fc2.bias f4 [64]
00000000: 040b c3bc 5003 cdbb 68a1 cbbc 086e 2bbc
00000010: ac59 3dbd 446b a6bd 80d9 b33d 2b47 f53d
00000020: 7d3b 9ebd 1f8b 0dbd 6398 79bd 36b8 5f3d
00000030: 815b d53c d734 d93d 8099 90bd 27a4 d73c
00000040: 8e8b 213d 6cee 703d d325 c7ba 9046 1f3c
00000050: 8a93 3fbd b7cd 913c 65af a43d 837b cb3d
00000060: 846c 51bd f59e 2cbd 6127 4e3d 7a05 d2bd
00000070: e79c c9bd d2f3 27bc aab4 a33d 2424 073d
00000080: d46d 47bd cc7c 97bd bf3d 173d 8474 db3d
00000090: f0a8 3bbd 71f1 cdbd 868b 8bba 4704 f63c
000000a0: 95a5 11be 41cd cebc 5ee1 153e 5fb6 8cbc
000000b0: 7e7b 09be c3d8 563c 5be0 cabd dd5a bdbb
000000c0: b302 fdbc 283d 3c3d e82c d2bd fb15 16bd
000000d0: 0398 b3bd 2e14 1fbd d2fc cfbd f059 ba3d
000000e0: 3b97 f1bc 396c f1bd 1f5a 87bd 5669 3cbd
000000f0: f3b9 cbbd 06c5 97ba 16ca f83c 6f59 f1bd
-0.023808964 -0.0062564984 -0.024857238 -0.010463245 -0.046228096 -0.08125928 0.08781719 0.11976465
-0.0772619 -0.034556504 -0.060936343 0.054619037 0.026044609 0.106057815 -0.07060528 0.026323391
0.03943973 0.058821127 -0.0015193768 0.009721413 -0.046771564 0.017798288 0.08041266 0.09935667
-0.05112888 -0.04214378 0.050330523 -0.10254951 -0.0984438 -0.010251002 0.07993443 0.03299345
-0.048688725 -0.0739685 0.03692412 0.10715583 -0.04581541 -0.10055817 -0.001064644 0.030031336
-0.14223321 -0.025244357 0.14636752 -0.017176805 -0.13426015 0.013113203 -0.09906074 -0.005778654
-0.030885076 0.04595676 -0.102624714 -0.036642056 -0.08769228 -0.038837604 -0.101556435 0.090991855
-0.029491058 -0.1178822 -0.06608986 -0.045998894 -0.099475764 -0.0011579103 0.0303698 -0.11784636

fc3.weight f4 [1, 64]
00000000: 7a8f a63d 5dc3 e3bc d803 9ebc 7f4b 07be
00000010: 441e c0bc 3ee0 01be 278c 763d a1e9 9dbd
00000020: 729d 533c b320 28bc 0654 23bc 652a 2cbd
00000030: 9012 4abc c678 853d 995d b6bc e7d5 9ebd
00000040: 2e0a 323d 4f21 86bd d05c 81bb 8d82 aabd
00000050: 8ff7 c6bc e7c9 a6bd 1408 7f3c d5b3 34be
00000060: e086 84bc d2f3 6b3b c3a6 8abd ae83 dcbc
00000070: 2725 acbc c841 c33d 376f edb9 cba8 ab3d
00000080: 81d0 dc3b 4df3 8abd 70da dabd e52d 69bd
00000090: 872c 6b3d 9746 66bd 9c1b 843d 61f0 ba3d
000000a0: f6f8 913d 1834 5fbc 97fa 31bd d1ab a03d
000000b0: 0857 8e3d a731 573b 21cd d83c 218c de3b
000000c0: 32fc ee3c 377f f53d 29b5 913d 5c38 9e3d
000000d0: d47f 6f3a 7a85 823d 37cb c73b bb50 10bc
000000e0: 0d0d c53c 1be4 aa3d 96c7 97bb d4ab a63d
000000f0: dfdd 0b3d 56ea 6dbd 1ee3 60bd 4867 a83c
0.08132835 -0.027803117 -0.019288942 -0.13212393 -0.023451932 -0.12683198 0.060192253 -0.07710577
0.012915956 -0.010261702 -0.009968763 -0.042032618 -0.012333527 0.06517176 -0.022261428 -0.077556424
0.04346674 -0.06549322 -0.0039478317 -0.08325682 -0.024287967 -0.081439786 0.015565891 -0.17646725
-0.016177595 0.0036003483 -0.067700885 -0.026918259 -0.02101381 0.09534031 -0.00045287024 0.08381804
0.006738723 -0.06784687 -0.10686195 -0.056928534 0.05741551 -0.056219663 0.064505786 0.0912788
0.07127564 -0.01362326 -0.04345187 0.078452714 0.06950194 0.0032835992 0.026465 0.006791607
0.02917299 0.11987155 0.07114632 0.077255934 0.00091361743 0.06373115 0.006097223 -0.00880831
0.024054075 0.08344289 -0.004631947 0.08138242 0.03414714 -0.05808481 -0.054904096 0.02055706
